mnist_convnet/mnist_convnet.webgpu.safetensors (safetensors, 353816 bytes, 18 tensors)

layers.0.weight f4 [32, 1, 5, 5]
000000 6d cb ce bd 53 9b 96 3e 67 bd 3a 3e 40 5d 72 3e
       -0.10097394 0.29415378 0.18236314 0.23668385
000010 d5 7e bf 3e ce ee dd bd e5 63 3d 3d ad c1 78 3d
       0.37401453 -0.10836564 0.046237845 0.06073158
000020 54 f6 16 3e f5 d0 32 3d 85 08 c9 be ae 28 5a be
       0.14742404 0.04365631 -0.39264312 -0.2130458
000030 ce 8a 15 be 0b 19 86 be 73 96 85 be 53 e9 2e be
       -0.14603731 -0.2619098 -0.26091346 -0.17081194
000040 2c b7 04 be c2 e1 7a bd 08 02 26 be ce 92 36 be
       -0.129605 -0.061250456 -0.16211712 -0.17829439
000050 4f 26 b7 bd 93 a5 ed 3b 74 b9 34 be bb 60 53 bb
       -0.08942854 0.007252404 -0.1764887 -0.00322537
000060 1a 3f c8 bd 57 14 b0 bd 9b 8a ce bc 61 92 80 3e
       -0.09777661 -0.085976295 -0.025212577 0.25111678
000070 6e 48 a7 bd 06 14 1e be 08 28 47 3d 07 3b 48 be
       -0.08168112 -0.15437326 0.04862216 -0.19553767
000080 c4 e2 50 3b 80 61 10 3e f3 cc f5 bd 1a 54 db bd
       0.0031873444 0.14099693 -0.120019816 -0.107094005
000090 7e 5e 7a bd c7 b5 88 3e b8 79 a3 be f7 9e 66 be
       -0.06112527 0.26701185 -0.31928802 -0.22521578
0000a0 78 f2 62 3e 54 cb ad 3d ea 65 7a 3e 0d a3 8a 3d
       0.22162807 0.084860474 0.2445294 0.06769381
0000b0 36 ab 83 be cb e1 52 3d 5b ce 69 be 83 eb ac be
       -0.2571656 0.051484864 -0.22832625 -0.3377343
0000c0 97 f4 d3 3e 25 4b 5a bd a3 1c 1d be fd 03 bb 3d
       0.41397545 -0.05329432 -0.15342955 0.0913162
0000d0 27 c0 b8 3e bb 4d 81 3e 9a df 54 be d6 10 66 be
       0.360841 0.25254616 -0.20788422 -0.2246736
0000e0 fa a4 b1 3d 76 01 ac 3e df cd b6 bc 63 91 40 be
       0.08674045 0.33594865 -0.022314964 -0.1880546
0000f0 ca b6 76 be 72 7f 25 3e 4e 0d 8a 3e 45 ac 1d 3e
       -0.24093166 0.16161898 0.26963276 0.15397747
000100 af d7 0b be c6 88 9a 3c b2 00 74 3e 00 03 da bd
       -0.13656496 0.018864047 0.2382839 -0.106451035
000110 37 cf d5 3d 9e 5d a2 be 15 87 57 3e 73 c6 86 3d
       0.10439914 -0.3171205 0.21047623 0.0658082
000120 ef 41 e9 3d df ce a0 be 26 01 3d be 40 ca 2f bd
       0.11389529 -0.3140783 -0.1845747 -0.04291749
000130 8c 68 5b be 55 0a 10 be a5 b9 19 3e db 09 98 3c
       -0.214266 -0.14066441 0.15012224 0.018559387
000140 e8 8a 71 bd 76 e2 f0 bd e2 20 e4 3d 05 5d 87 3e
       -0.058970362 -0.11761944 0.111390844 0.26438156
000150 4e 14 96 be d7 0b c1 bd 46 c2 44 be df 19 de 3e
       -0.29312366 -0.094260864 -0.19214734 0.43379113
000160 a8 89 3e 3e 82 c0 99 be cc 75 fe bc 3b 63 d9 bd
       0.18607199 -0.30029684 -0.03106203 -0.1061463
000170 ac 11 ee 3e 0c 78 a0 be fe dc 1b 3e e5 fa 7a 3d
       0.46497858 -0.31341588 0.1522102 0.061274428
000180 f6 d3 b8 be 71 28 77 3e 15 35 bc bd bb 99 d3 3d
       -0.36099213 0.24136521 -0.09189812 0.10332056
000190 86 5c 83 3e 17 94 ab 3e 51 63 60 be 88 9f b1 be
       0.25656527 0.3351142 -0.21912886 -0.34692025
0001a0 9a c6 a3 be ee f3 ae 3d fa 75 f3 3e 0a 37 00 3e
       -0.31987458 0.0854262 0.47550946 0.12520996
0001b0 26 3a ca 3d 17 23 51 be 86 dd 02 3d 59 ef 0b 3e
       0.09874372 -0.20423542 0.031949542 0.13665523
0001c0 26 25 78 bd bb db f5 bc 8e ef a9 3d c8 cd 80 be
       -0.060582303 -0.030012002 0.082976446 -0.25157
0001d0 22 20 09 3e aa b2 44 3e 9a ef ac 3b 42 c9 74 bb
       0.13391164 0.1920878 0.005277586 -0.0037351404
0001e0 9a b0 2c bd 52 4e d2 3d dd f6 d7 3d 75 94 df 3b
       -0.042160608 0.10268845 0.10545132 0.0068231174
0001f0 58 de 51 be 78 62 80 be a1 fa 71 bd b3 a4 8f 3e
       -0.20494974 -0.25075126 -0.05907691 0.28055343
000200 cf 3c 3b be d6 02 3c be 5b 7f 5f 3d e4 23 bc bd
       -0.18284915 -0.18360457 0.054564815 -0.09186533
000210 46 f7 f6 bd 77 94 65 3e cf c3 1f be 79 e2 60 be
       -0.120588824 0.22419916 -0.15602039 -0.21961392
000220 4e a4 76 3d 99 f3 5e 3d 8e c5 10 3e 7f 29 db b9
       0.060215287 0.05443153 0.14137861 -0.00041801852
000230 d1 29 51 3e 37 fc 94 bd 01 1e 82 3c f6 ca 8e 3e
       0.20426108 -0.07274669 0.015883448 0.27889222
000240 ea 1c c3 bd 4a 8b 1d be 6a 36 35 be 37 42 b8 bd
       -0.09526999 -0.15385166 -0.17696539 -0.089970045
000250 cc b1 e6 3d c2 c5 65 3e 6f ec 49 3d aa d9 7d bd
       0.11264381 0.2243872 0.049297746 -0.06197516
000260 0f 54 62 3e a2 ef 17 bd 18 8d 57 3e 40 a7 09 be
       0.22102378 -0.037093766 0.21049917 -0.13442707
000270 79 68 26 be ef d3 be bd e6 bc 28 3e ce d3 d0 bc
       -0.1625079 -0.09317767 0.16478309 -0.025491621
000280 87 e9 53 be ff 17 57 3e 2c 80 72 3e d6 23 24 be
       -0.20694552 0.21005248 0.23681706 -0.16029295
000290 67 87 cf 3d 84 d8 44 3e 6b ed f4 bd 75 96 b7 3d
       0.10133248 0.19223219 -0.119593464 0.08964244
0002a0 d5 d0 42 be 5a d7 cb bd f5 a5 de 3d 55 b2 94 3d
       -0.19024976 -0.099531844 0.108714975 0.07260577
0002b0 9f 1b 9a be 06 96 5e 3e 68 34 31 3e 65 0b 69 be
       -0.30099198 0.21736917 0.17305148 -0.22758253
0002c0 59 b8 8b bd 94 9b 0a be 12 9d a5 3d 98 4d a6 bb
       -0.06822271 -0.13535911 0.080865994 -0.005075168
0002d0 9f 2d 5d be a6 9d 1a be 3e d9 10 bd a1 b3 ac 3d
       -0.21599434 -0.150992 -0.03536343 0.08432699
0002e0 d3 32 8a bd 28 9f f3 3e ee 90 23 be be ea 6e be
       -0.06747975 0.47582364 -0.15973255 -0.23331735
0002f0 c4 2d 52 be c6 00 73 be 89 99 04 3d 07 cf d3 bd
       -0.2052527 -0.23730764 0.032372985 -0.10342222
000300 59 66 c9 3e ee e1 19 be 6c cc 19 be e8 ca b8 3b
       0.39335898 -0.15027592 -0.15019387 0.0056394227
000310 03 2d 02 3d 12 07 97 3e 97 3e 0e be c5 d5 42 be
       0.031781208 0.29497582 -0.13891064 -0.19026859
000320 b6 81 47 3e 8b bc 07 3e ec 4a 98 be 3f 7a a6 3e
       0.19483075 0.13255517 -0.2974466 0.3251514
000330 01 17 12 3c d2 3a 8f 3c cb 6a 3d bd 22 30 fa bd
       0.008916617 0.017484102 -0.046244424 -0.12216212
000340 51 08 2b 3d 05 61 b0 3e 52 d1 1b be 3d c4 b5 3c
       0.041755978 0.3444902 -0.15216568 0.0221883
000350 56 8a 15 be 22 ce b1 bd 10 80 3e 3e a1 e9 59 be
       -0.14603552 -0.08681895 0.1860354 -0.21280529
000360 48 8c e1 3c bb a0 5b bb 1a 3f 0e 3e 9d 74 d4 bc
       0.027532712 -0.003351255 0.13891259 -0.025934512
000370 6a 24 f6 bd 70 20 9b bd 4f 35 3c be dd 6b a8 bb
       -0.12018664 -0.07574546 -0.1837971 -0.0051398114
000380 5d 6d e7 bd 6f d8 2f 3e 6c d5 12 3e 44 02 f2 3c
       -0.11300156 0.17172407 0.14339226 0.029542096
000390 c5 1b 46 3d 85 94 60 be 82 52 7d 3e a0 18 1f be
       0.048366327 -0.21931656 0.24738505 -0.15536737
0003a0 9a 08 a4 bc fc 90 91 be e7 dd 7f be dd ed d9 3d
       -0.020023633 -0.28430927 -0.24986993 0.10641072
0003b0 c7 fc f5 bd 01 5d b0 be 24 82 5b be b0 52 ef bd
       -0.12011104 -0.34445956 -0.21436363 -0.11685693
0003c0 d9 56 07 be c6 95 56 3d d6 66 7f be 21 82 f5 bd
       -0.13216724 0.05238893 -0.24941573 -0.11987711
0003d0 ef a8 f4 bd 44 bf fa bd 9c de a8 bd e0 69 e5 bd
       -0.11946284 -0.12243512 -0.08245584 -0.11201835
0003e0 4c eb 1f be 67 e8 e7 bd 93 07 7c 3e 0c 5e 01 3e
       -0.15617102 -0.11323624 0.24612264 0.12633532
0003f0 19 59 0a be f4 a4 3e 3d cb ce 58 be cd e6 d7 bd
       -0.1351055 0.04654403 -0.21172635 -0.10542069

layers.0.bias f4 [32]
000000 f6 eb 81 be d3 49 91 bd cc c5 59 be 4a 09 bd 3c
       -0.25375336 -0.07094159 -0.2126686 0.023075718
000010 86 e3 64 bc 91 9b 07 be 8d 7b 54 3d 88 26 86 be
       -0.013970261 -0.13242938 0.05187564 -0.26201272
000020 0d 49 16 be 25 d5 6c be 98 97 e1 bd 1c 8d 7d be
       -0.14676304 -0.23128183 -0.11015242 -0.2476086
000030 df b2 f4 bd 6d aa c1 bc 61 e1 a5 3d b7 3e f9 3d
       -0.119481795 -0.023640836 0.08099628 0.12170165
000040 ea 63 80 be b8 2c 37 3e d5 c9 86 3c cf b8 9d bd
       -0.25076228 0.17888153 0.016453663 -0.07701265
000050 6a b6 2c be 27 a2 27 be c3 25 82 3c b9 c7 80 be
       -0.1686646 -0.1637045 0.015887147 -0.25152376
000060 59 46 90 bd 0b 67 11 be 93 da 86 3c 37 71 87 3d
       -0.07044668 -0.14199464 0.016461646 0.06613391
000070 ea 1a 89 bc 47 42 d5 bd 79 91 2e bd 80 80 e1 bd
       -0.016736466 -0.10413032 -0.042619202 -0.110108376

layers.2.weight f4 [32, 32, 5, 5]
000000 b8 fc 8b bc 40 9e 0b ba e4 3d 1e bd 3d 4c 2b bd
       -0.01708828 -0.000532601 -0.038633242 -0.041820753
000010 a8 7e 0e bd 5c f9 a4 bc 12 a1 ad 3c ec b7 44 3c
       -0.034788758 -0.020138435 0.021194968 0.012006741
000020 63 61 a6 bc 88 1a eb bc c6 75 dc 3c 93 af 9e 3d
       -0.02031011 -0.028699175 0.026911628 0.07748332
000030 f0 0b 70 3d 71 09 a8 bc 00 3d 01 bb b4 29 21 bc
       0.058605134 -0.020512315 -0.0019720197 -0.009836603
000040 fe 2a 2b 3b 8a 30 2e bc 76 b7 de 3b 51 3d b2 3b
       0.0026118155 -0.01063169 0.0067967726 0.0054394384
000050 3f f8 41 bb ff 82 ab bb ce 4d f5 bb c9 50 c6 3a
       -0.002959743 -0.005234122 -0.0074860817 0.0015130277
000060 b8 c7 37 3c 35 b5 32 3c 8d 0b 4f 3d 03 b4 d9 3c
       0.01121705 0.010907461 0.050548125 0.026575094
000070 c7 f8 66 bc 18 dc fb 3a 34 79 4e 3c 3d 2b b0 3b
       -0.014097399 0.0019215373 0.012602139 0.005376248
000080 24 3c 43 3d e7 58 85 bc b9 85 a1 3c 75 f4 9f 3c
       0.047664776 -0.016277744 0.019717084 0.019525746
000090 2b 24 2b 3d 73 ed 3b 3d c2 f3 7f 3c 67 66 83 bc
       0.04178254 0.045880746 0.015622081 -0.01604004
0000a0 06 28 ea bc ec d5 f5 b8 86 63 5c 3d 2d 20 6f 3c
       -0.028583538 -0.000117223564 0.05380585 0.014595074
0000b0 16 88 bd 3c e7 4b 48 3d 79 43 00 3d 65 e6 10 3d
       0.02313618 0.04890051 0.031314347 0.03537597
0000c0 e0 53 10 bb 1b 37 f3 3c b3 4e 8f 3d 2d f3 94 3d
       -0.002202265 0.029689362 0.069974326 0.072729446
0000d0 0e c0 44 3d f1 b3 1d 3c c9 b8 f7 bc 85 27 47 bb
       0.04803472 0.009625421 -0.03023948 -0.0030388546
0000e0 df 93 bd bc 53 4a 27 bc 90 96 b5 3c d0 c5 95 bc
       -0.0231418 -0.010210591 0.02216652 -0.0182828
0000f0 79 5e e7 bc a2 ba a5 3c 7d 13 d7 3c f7 17 7a bc
       -0.02824329 0.020230595 0.02625441 -0.015264503
000100 c8 24 f3 bc 94 95 59 bd ac 26 3e bd 30 58 b2 bc
       -0.029680625 -0.053121164 -0.0464236 -0.021770567
000110 2e a6 2e bc c3 07 78 3c 86 eb 9d bd 73 63 7a bd
       -0.0106597375 0.015138569 -0.07710938 -0.06113
000120 39 59 38 bc ca 5c 17 bc 8e c9 03 bd 1d c4 36 3c
       -0.011251741 -0.009238431 -0.03217464 0.0111551555
000130 ad f5 b6 3c 40 95 d5 3c 11 e3 21 3d d9 1e 7c 3c
       0.022333944 0.026072145 0.039523188 0.015388214
000140 ed 4b 26 bc fe 5c c5 3c e0 7e 23 3b 00 27 04 b9
       -0.010149938 0.024092194 0.002494745 -0.0001260303
000150 87 fb 0f 3d 02 9a 98 3b 9d 2f b4 bc 7a e1 3e 3c
       0.035151985 0.004657031 -0.02199536 0.0116504375
000160 ba d4 23 3c 50 73 bf 3b ff bd 46 3b 10 62 48 bc
       0.009999448 0.0058426037 0.003032565 -0.012230411
000170 1a 7b 49 bc 34 06 0f bd a2 5f 81 3c e0 9d af 3c
       -0.012297416 -0.034918025 0.015792672 0.021437585
000180 14 42 16 bd 80 72 03 bd 58 49 23 bd 46 eb 54 3d
       -0.03668411 -0.032091618 -0.039864868 0.051982187
000190 be 63 a8 bd 13 ff 95 bc 62 2b 80 bc 52 63 68 bd
       -0.08222149 -0.018310105 -0.015645687 -0.056735344
0001a0 a3 01 8e bd 43 40 87 bd 5b 32 be 3b 17 d7 95 3c
       -0.06933906 -0.06604054 0.0058043427 0.01829104
0001b0 89 3e a8 3b e5 3c 38 bd 03 7c af bd 2e f0 92 bd
       0.005134408 -0.04497995 -0.08568575 -0.07174717
0001c0 a3 72 d4 bc 86 8a e7 bc 00 bb f4 bc d3 32 c3 bd
       -0.02593357 -0.028264295 -0.029874325 -0.09531178
0001d0 6d 34 8e bd 27 45 00 bd 54 5c 69 bd 7a 46 5a bd
       -0.06943593 -0.03131595 -0.056972817 -0.053289868
0001e0 b6 5d 7e bc ce d7 fa bc de 88 a4 bc 1d 96 af bc
       -0.015525272 -0.030620482 -0.020084795 -0.021433884
0001f0 aa 48 4a bc 2e 39 de 3b a2 28 57 3d ce 31 af bc
       -0.012346426 0.0067817187 0.052528985 -0.021386053
000200 a4 b6 24 3c 42 b1 85 3c 9a dc 06 3d 8b 76 87 bb
       0.010053311 0.016319875 0.032925226 -0.0041340045
000210 b0 2d 29 bc d5 fd 26 bc 8b 87 cd 3c ac 70 81 bc
       -0.010325834 -0.010192354 0.025089046 -0.015800796
000220 0d d6 82 bd df c1 2e ba 9b 1d aa bc be da 94 3a
       -0.06388483 -0.0006666462 -0.02076607 0.0011356694
000230 0f 5c 1e bd 41 32 07 bd 5b f2 a1 3b 76 a1 24 bc
       -0.038662013 -0.03300691 0.004942221 -0.010048261
000240 a3 fa d3 ba 95 ec 67 bd 9f cb 01 bd aa 55 2a bd
       -0.0016172718 -0.056622107 -0.03168833 -0.041585602
000250 a2 91 c2 bc f6 f6 48 bd a2 de 10 3c 7c a0 2e 3c
       -0.023751084 -0.049063645 0.008842142 0.01065838
000260 65 09 ae 3c 22 da 7c bc 84 cd ec 3b 7e bf 3b 3c
       0.021244714 -0.015432866 0.007226648 0.0114592295
000270 f1 1d ea bb d8 b3 9b bc 68 d5 45 bd e4 04 03 bd
       -0.0071446826 -0.019006655 -0.048299223 -0.031987086
000280 fb 8a 5e bd f3 fe a1 bd 33 38 85 bd 47 d2 2f bd
       -0.05433176 -0.07909956 -0.0650486 -0.042925145
000290 70 d8 45 bc 45 74 0b bd da 4e c9 3a 92 70 d0 3b
       -0.0120755285 -0.03404643 0.0015358583 0.0063610757
0002a0 de 2e 40 bd ba 23 4e 3b 8c 06 e8 bc 9c cc 31 bc
       -0.046919696 0.00314544 -0.028323434 -0.010852005
0002b0 68 61 08 bd a2 75 9c ba a3 3b 85 bb 13 30 22 bd
       -0.03329602 -0.0011936913 -0.004065947 -0.03959663
0002c0 59 80 0c bd 90 e0 4e 3d a1 94 50 3d bc 15 8b 3d
       -0.03430209 0.05050713 0.050922994 0.06791255
0002d0 f6 3a f5 3c e2 a2 c8 3b 25 cb c6 3c 81 e6 11 bc
       0.029935341 0.006122933 0.024266789 -0.008905054
0002e0 da e5 31 bc 7f 75 98 3d 3e 85 0c 3d 90 d6 38 3c
       -0.010858024 0.074442856 0.034306757 0.011281624
0002f0 e9 97 1c bd 21 86 a4 3b 93 b0 80 3c 81 54 20 3b
       -0.03823081 0.005020872 0.015709197 0.002446443
000300 d0 55 95 ba f6 99 cf 3c f6 1f dd bc f3 9d a9 3a
       -0.0011393372 0.025341969 -0.02699278 0.0012940749
000310 32 36 bf 3c fc fd 57 3d ae 8e 24 3c 31 61 87 3b
       0.023341272 0.052732453 0.010043783 0.004131459
000320 5b a2 97 39 e2 4f 06 3d 81 e8 28 3d 47 af 90 bc
       0.0002892193 0.032791026 0.041237358 -0.017661704
000330 44 9d 36 bd c9 0a 9d bd 92 70 71 bc 4d e4 52 3a
       -0.044583574 -0.07668073 -0.0147363115 0.0008044884
000340 27 a3 e7 bc 8d 79 3b bc 1a 24 02 bd e9 ae 40 3d
       -0.02827604 -0.011442554 -0.03177271 0.047041807
000350 e4 8b a7 3d 7d 75 d5 3c 29 88 8c 3c 16 f9 9a bc
       0.08180979 0.026057 0.01715477 -0.018917602
000360 5a 26 bd 3c 1e 8e 9b 3c d6 f1 f6 bc cd 42 99 3c
       0.023089577 0.018988665 -0.030144613 0.01870861
000370 67 6c 83 bc c3 78 40 bd 9b 23 a4 bb 82 7e 9b 3c
       -0.016042901 -0.046990167 -0.0050091273 0.018981222
000380 e7 ad 8c bc cb 98 c7 bc fb db 9d bc 19 63 1f bd
       -0.017172767 -0.02436485 -0.019269934 -0.038912866
000390 2a 63 7a 3c 6c 85 7b 3d 12 a6 07 bc 93 d0 89 bd
       0.015282432 0.061406538 -0.00827934 -0.067292355
0003a0 42 de 54 bd 48 4e c0 3c 6e 43 80 3d 23 7d 38 bc
       -0.051969774 0.023474827 0.06262861 -0.011260304
0003b0 51 c9 32 ba 5c d9 55 bd 95 ce 7f bc 14 e7 8c 3b
       -0.00068201596 -0.052209243 -0.015613218 0.0043000076
0003c0 69 21 dd 3c eb fd 2e 3c d0 c9 6d bc d8 14 05 bd
       0.02699347 0.010680656 -0.014513448 -0.03249058
0003d0 0b 93 2d bd 9c d0 1e 3b cd 63 59 3b 9d b6 7f bd
       -0.04237656 0.0024233228 0.0033171058 -0.062430013
0003e0 85 2e fe bc ba 83 cf bd 72 44 e0 bb b7 37 0b bd
       -0.031028042 -0.10132547 -0.006844097 -0.03398868
0003f0 a6 09 39 ba a6 1a 99 3c d1 97 5e b9 40 e0 39 bd
       -0.00070586277 0.018689465 -0.00021228126 -0.045379877

layers.2.bias f4 [32]
000000 11 2b 1e bd 8e 10 d4 3d 41 02 e6 bd 0d d1 3f bd
       -0.03861529 0.1035472 -0.11230899 -0.046830226
000010 c2 c5 ce 3d 43 35 63 bb 9a f4 37 be e6 1c 8b bd
       0.10096313 -0.0034669198 -0.17964402 -0.06792621
000020 a0 fa 46 bd 37 8a 2f be 63 20 08 3d 60 d4 09 be
       -0.04857886 -0.17142569 0.03323401 -0.13459921
000030 1d 9a c4 3c 11 b8 80 bd cf 4f 78 bd b7 41 c2 bc
       0.023999268 -0.06285108 -0.060622986 -0.023712976
000040 4e fd 03 bd dd 56 70 3c 18 e9 3c bd 3e cf 9e bd
       -0.032223992 0.014669147 -0.046120733 -0.07754372
000050 bb e8 f5 bd f5 56 21 bd 8d 65 89 bd 91 f7 8d be
       -0.120072804 -0.03938957 -0.067088224 -0.2772794
000060 50 fe 1e be dc 96 4b 3d ea c2 6a bd 29 76 dc bd
       -0.155267 0.049704418 -0.05731479 -0.10764725
000070 0c 90 02 3e ab 7e 09 3b 4e ff b7 bd f8 16 0d bd
       0.12750262 0.002098004 -0.089842424 -0.034445733

layers.4.weight f4 [32]
000000 43 0b 84 3f 64 b0 82 3f 63 74 90 3f c5 e4 90 3f
       1.0315937 1.021008 1.1285518 1.1319815
000010 b1 56 8f 3f 0f 4c 81 3f 89 69 96 3f ca 2c 96 3f
       1.1198331 1.0101336 1.1750957 1.1732419
000020 6a 51 84 3f aa 1b a0 3f 63 6a 6f 3f e9 e9 9a 3f
       1.0337346 1.2508442 0.9352171 1.2102634
000030 33 e5 87 3f ea f3 98 3f d7 c4 86 3f 08 69 8c 3f
       1.0616821 1.1949437 1.0528821 1.0969553
000040 2d ae 7e 3f d9 87 81 3f cf b5 81 3f 77 5e 82 3f
       0.9948452 1.0119582 1.0133609 1.0185078
000050 c0 1a 83 3f da 2b 8e 3f bb 72 84 3f b9 51 85 3f
       1.0242538 1.1107132 1.0347513 1.0415565
000060 97 b0 8f 3f f5 40 69 3f 95 89 84 3f 5c df 93 3f
       1.1225766 0.9111474 1.0354487 1.1552539
000070 ba 60 7b 3f 1f 63 89 3f 03 7c 8d 3f 09 d9 8b 3f
       0.9819447 1.0733374 1.105347 1.0925609

layers.4.bias f4 [32]
000000 34 4c c9 bd 2f 95 85 bd 0a df b5 bc 40 13 a0 bd
       -0.09828988 -0.06522595 -0.02220108 -0.07816172
000010 c9 20 32 be d5 f5 8f bd 31 69 19 bd bd da 25 bd
       -0.17395319 -0.070293106 -0.037453834 -0.04049181
000020 30 38 e7 bb 69 15 70 bd 3d f0 09 bd 43 cb 43 3a
       -0.0070562586 -0.05861417 -0.033676375 0.0007468948
000030 06 30 6a bd 88 9e b3 ba 41 22 df bd 68 b7 2d 3d
       -0.057174705 -0.0013703862 -0.10895205 0.042411238
000040 3b 82 fd 3c 80 da 3a bd 7a 50 09 be ee 80 70 bd
       0.030945888 -0.045618534 -0.13409606 -0.058716707
000050 73 d2 8f bd 87 57 5f bd b5 c1 a2 bd 5a a3 97 bd
       -0.07022562 -0.054526832 -0.07947103 -0.07404204
000060 1a 85 ce 3d c5 4d a9 bc f1 a3 96 bd 27 38 21 be
       0.10083981 -0.020666966 -0.07355488 -0.15744077
000070 d7 c3 c5 bd 23 08 a8 bb 57 1f 8e 3b 68 a8 1d be
       -0.09656494 -0.005127923 0.004337232 -0.15396273

layers.4.running_mean f4 [32]
000000 99 24 3d bd c1 af 86 3c bd 00 08 bc 5e 1f d8 3f
       -0.04617748 0.016441228 -0.008300957 1.6884573
000010 52 b3 c5 bd 05 b9 7b 3e 5a af 02 3f 95 04 e0 3e
       -0.09653343 0.24582298 0.51048815 0.43753496
000020 05 cf 67 3f 04 af 67 3c f4 3c 26 be 94 40 a0 bc
       0.9055026 0.014140848 -0.1623419 -0.019562043
000030 38 4c 09 3e ee 43 8f 3d 75 0d b4 3c fc cc 8e 3c
       0.13407981 0.069953784 0.021979073 0.017431729
000040 0c 97 ef 3e b3 e3 b9 3e b3 e2 b7 3d 71 51 18 bc
       0.46794927 0.36306533 0.08978786 -0.009296761
000050 a0 b7 76 3f f9 74 2a 3e 4d 28 a0 3d dc cf e7 bd
       0.9637394 0.16646184 0.07820187 -0.11318943
000060 4f 70 14 3f ff 3b fd 3e 9e 04 9e 3e ad f1 58 3e
       0.5798387 0.49459836 0.30862898 0.21185942
000070 2b 91 47 be 77 ff 11 be 48 b3 99 3f 42 26 58 be
       -0.19488971 -0.14257608 1.2007837 -0.21108344

layers.4.running_var f4 [32]
000000 86 1b 9e 3d d6 3c 39 3e 14 15 a7 3e e0 82 74 3f
       0.077200934 0.18089613 0.3263327 0.955122
000010 df 28 b9 3d cf 8f 67 3e 45 0f 5f 3f 3a b2 05 3f
       0.09040999 0.22613452 0.87132674 0.5222508
000020 c5 0e 4d 3f 08 e7 8a 3e eb fd 29 3d b2 db 0b 3e
       0.8010066 0.27129388 0.04150192 0.13658026
000030 3a fe 0c 3f 96 25 fa 3e ce 8c 37 3e 8a 6c 62 3e
       0.5507542 0.488568 0.17924806 0.22111717
000040 3e 45 41 3f 2a 6c b4 3e 07 65 04 3f ec 66 fa 3d
       0.7549628 0.35238773 0.51716655 0.12226662
000050 ea 25 65 3f 8c bb 38 3e 12 29 9d 3e 55 92 d5 3d
       0.8951098 0.18040293 0.30695397 0.10428301
000060 3c f5 1a 3f 71 15 de 3e 59 dc 06 3f f7 f1 49 3e
       0.6053045 0.43375733 0.52679974 0.19721209
000070 9f c0 02 3d 9f bd 49 3d 50 16 66 3f 0b 88 c3 3c
       0.03192198 0.049253102 0.89877796 0.023868581

layers.6.weight f4 [64, 32, 3, 3]
000000 29 57 ff bb 28 5c c0 3d 88 97 13 bd 3d 46 f2 bc
       -0.0077923727 0.093925774 -0.036033183 -0.029574508
000010 69 f9 50 3d 16 69 d7 bc 01 b6 c0 3d 19 87 9e 3d
       0.051019106 -0.026295226 0.094097145 0.077406116
000020 7f 4f 25 3d 55 0f ef bc 2b 4e a1 bd b1 39 69 bd
       0.040359017 -0.029182116 -0.078762375 -0.056939784
000030 6c 75 e2 bd f7 de e4 3c 65 ec 96 bc e7 2c f0 3c
       -0.11057553 0.02793835 -0.018423269 0.029318286
000040 84 1a 21 bd e6 30 73 bc d2 ed fe 3d bb 4c 6c 3d
       -0.039331928 -0.014843201 0.124477044 0.057690363
000050 12 e5 79 3c 89 aa 1a 3d 20 0f 1c 3c d8 5e d4 3c
       0.0152523685 0.03776029 0.00952509 0.025924131
000060 ba e0 89 bc 1e ee ff 3c a9 5b 74 bd 4a c3 10 3d
       -0.01683079 0.031241473 -0.059657726 0.035342492
000070 da a9 e0 3c d6 5b 0f bd 54 44 f3 3c 83 0f 6d 3d
       0.027424742 -0.03499969 0.029695667 0.05787612
000080 09 5b c4 bd 49 c1 25 bd c8 4f 6e bc 43 9a 90 3d
       -0.09587676 -0.040467534 -0.0145453885 0.07060673
000090 1c 63 58 bd 14 d7 af bc a9 01 ea bc d4 03 b1 3d
       -0.052828893 -0.021464862 -0.028565245 0.08643308
0000a0 e0 5d a5 3d 19 8f 15 3d cf e4 b0 3c ac f8 28 bc
       0.08074546 0.03651342 0.02159348 -0.010313194
0000b0 50 e2 1f 3c 05 5c 78 bd 17 98 63 3c e9 6a 72 bd
       0.009758547 -0.06063463 0.0138912415 -0.05918399
0000c0 1f e7 bf bc f1 46 a2 3b 89 d2 16 3d 78 e2 2c 3d
       -0.023425637 0.0049523045 0.036821876 0.042208165
0000d0 2c 61 7d bd f4 db e2 bd 1b b7 b1 3b 98 a6 ce 3c
       -0.06186025 -0.11077109 0.005423439 0.025225922
0000e0 c6 6d c3 3c c7 f1 db 3d ec 56 b0 3c e6 73 8b 3d
       0.023856055 0.10739475 0.021525823 0.06809215
0000f0 46 32 aa 3d 6d d3 8f 3c 01 6c 0b 3d 0b ed 83 bc
       0.0831037 0.01755687 0.034038547 -0.016104242
000100 e4 1c b5 bc b7 67 5c 3d d1 36 aa bd 73 a4 b8 bc
       -0.022108503 0.053809848 -0.08311237 -0.022539353
000110 76 eb 2e bd 37 50 1b 3d 1e e4 48 3d b5 1d cc bd
       -0.04270502 0.037918296 0.049045675 -0.09966604
000120 6b 99 a7 bd e4 55 ae 3c e0 4a c7 3d 82 e8 a7 3d
       -0.08183559 0.02128119 0.09731078 0.08198644
000130 b5 2e 66 3c 50 46 90 3d 4d 41 c4 3c 5b a1 b2 bd
       0.014049222 0.07044661 0.02395692 -0.08722182
000140 83 db 82 3d 96 c6 0d 3c db 43 a1 bd 85 57 98 bc
       0.06389525 0.008653304 -0.078742705 -0.01859642
000150 c5 d9 06 be e6 56 3a 3c 46 ee f5 3c 9f 53 37 3d
       -0.1316901 0.011373257 0.030020844 0.04475748
000160 0e f2 20 bb b2 d3 96 ba 1f c5 2e bd 68 c7 0e bd
       -0.0024558338 -0.0011507182 -0.042668458 -0.034858137
000170 53 85 34 3d 12 fa a0 bd 1e 39 82 bd 3b b7 f1 bd
       0.04407246 -0.07860197 -0.063585505 -0.118025266
000180 b9 3d 5e 3c ab d4 88 3d 42 64 8d bd 13 19 a1 bd
       0.0135645205 0.06681188 -0.06903888 -0.07866111
000190 7e cb 57 bd 09 dc 73 3d cc 55 3c bd 86 39 3f 3d
       -0.0526843 0.059536014 -0.04598026 0.046685718
0001a0 6e 22 85 bd a8 ae 17 3d 12 aa 3a 3d 16 67 4a bc
       -0.065007076 0.0370318 0.045572348 -0.012353679
0001b0 cf 0d c2 3c 4f 09 ba bd e7 1c 17 be a5 21 a5 bd
       0.023688225 -0.09083807 -0.14757119 -0.08063058
0001c0 3a 7b 0f bc ee f1 98 bd e8 1e dd bc ae 87 0e 3e
       -0.008757407 -0.074680194 -0.026992276 0.13918945
0001d0 ab 79 89 3c 95 95 0d 3d 36 8f 33 3e b9 3f 67 3d
       0.016781649 0.03456648 0.175351 0.056457255
0001e0 7a 82 5e 3c 56 ba 3c bc 14 9b 1a bc 01 98 09 3c
       0.013580913 -0.011519035 -0.009436388 0.008398057
0001f0 ad 76 06 3d cf 19 a2 3d 40 3c 0e bc f5 ee bb bc
       0.03282802 0.07915079 -0.008681357 -0.022941092
000200 70 7c 02 bd d5 b3 cb bc 79 00 bb 3b c7 b5 8a 3d
       -0.031856954 -0.024866024 0.0057068435 0.067729525
000210 07 97 00 bd 93 af 17 bd 5a f8 90 3c 1c e1 2a 3d
       -0.03139403 -0.037032675 0.017696548 0.041718587
000220 66 54 49 bd 64 c4 c6 3b 5b e0 fa bd 23 4d 87 3c
       -0.049152754 0.006065892 -0.12249824 0.016516274
000230 5d b8 2d 3c 06 c5 09 3c e0 c3 8e bd c7 ef e9 bd
       0.010603038 0.00840879 -0.06970954 -0.11422687
000240 1f e3 da bc f3 d1 dd bc 92 03 02 3e 9e 91 c4 bd
       -0.026719628 -0.02707765 0.12696674 -0.09598087
000250 e4 2c 2c 3d 0f 63 81 3d d2 1f 46 3d 6f a5 99 3d
       0.042035 0.06317722 0.04837019 0.07502257
000260 76 10 76 bd b3 8a b0 3c c1 6a 6e 3d 7f ce dd 3b
       -0.060074292 0.021550512 0.058207277 0.006769001
000270 ec 33 6a bd 12 1c 19 bd f2 1a a2 bc ae 25 62 bd
       -0.057178423 -0.037380286 -0.01978824 -0.055211715
000280 9a fe 62 3d 8c fb 8b bd 2b 8e 82 bd 95 2e 12 bd
       0.05541859 -0.06835088 -0.06374773 -0.035688955
000290 7d f8 be bd 99 44 fc bc 02 b3 4d bc 03 b1 55 bc
       -0.09324739 -0.030794429 -0.012554886 -0.013042691
0002a0 d3 08 65 3d a5 9e 38 3c 9a 8e 38 3e c1 a1 01 be
       0.05591662 0.011268293 0.18023148 -0.1265936
0002b0 bc 4d 33 bd 08 f6 6a 3c 56 57 a8 3c d8 a5 a6 3d
       -0.043775305 0.014340885 0.020549458 0.08137101
0002c0 f1 b4 7e 3d c6 c9 37 3d 69 98 28 3d fc 32 97 bc
       0.062184278 0.04487016 0.041160975 -0.018456928
0002d0 c9 96 57 3d a8 f0 8a 3d 11 c4 d0 bd 54 cd 92 bc
       0.052634034 0.06784183 -0.10193647 -0.017920174
0002e0 9c ab 69 3c b1 8d 78 bd a1 21 9a 3c 8a d1 bf 3c
       0.014262106 -0.060682002 0.018814864 0.023415346
0002f0 84 bc d2 bd ef 1b 4d bd 2d 41 4d bc 30 22 9b bd
       -0.10289863 -0.050075468 -0.012527746 -0.0757488
000300 2b 99 4b 3c 38 f0 aa 3c 4d 9d 84 bd 65 ce 9b bd
       0.012426655 0.020866498 -0.06475315 -0.07607726
000310 ef ae 2c 3d 6a c8 5a bd 45 3e 89 bd f1 54 c4 bb
       0.042159017 -0.053413786 -0.0670133 -0.005991571
000320 a3 3a ba 3d c2 1b d4 bd b6 9d a0 ba 01 a2 39 3c
       0.09093215 -0.10356857 -0.0012254033 0.011330129
000330 ab 94 e6 bc be 2a 32 bd 50 c3 1b bc 92 ab 26 bd
       -0.028147062 -0.043497793 -0.009507015 -0.040690966
000340 61 b8 dd 3b 4c bc ca 3d b4 59 3c 3d d3 ff a9 3d
       0.0067663644 0.09899196 0.045983985 0.08300748
000350 fa c7 9b 3c e1 10 78 3d f2 f2 61 3d 1a 98 46 bd
       0.019016255 0.060562972 0.05516333 -0.0484849
000360 08 7a 39 3d 75 97 1b 3c 76 19 e3 bc c5 f9 c0 bc
       0.045282394 0.009496559 -0.027722102 -0.0235566
000370 e8 fc 3f 3a cf 8a d4 bd 0e 72 38 bd 53 fc 7f 3d
       0.0007323758 -0.10378038 -0.045030646 0.062496495
000380 af da 04 3d 42 35 fa bc 49 ed 6a bb ef 89 38 bc
       0.032435115 -0.030542973 -0.0035847 -0.011263355
000390 f2 3f 39 3a 18 64 a4 bd 4f a1 06 3d 9e e6 31 bb
       0.00070667185 -0.08026904 0.03286868 -0.0027145515
0003a0 7d e5 74 bc 2c b9 49 bd 6c ec 6c bc 42 fb 51 3d
       -0.014947292 -0.04924886 -0.014460664 0.05126501
0003b0 d5 71 be bc 0b 5b 5b 3d 9d f2 08 3d 60 68 81 3d
       -0.023247639 0.053553622 0.0334345 0.06318736
0003c0 ae d8 62 3d 82 4b c3 3c f0 3b 01 3d e8 c7 19 be
       0.055382423 0.023839716 0.0315513 -0.15017664
0003d0 7f 74 de bc 0f 42 fd bc 01 90 dc 3b 47 02 36 bd
       -0.027155159 -0.030915288 0.006731034 -0.044435766
0003e0 0e 70 53 bd 8a d8 d8 bd 2a 04 27 bd cc d1 c1 bd
       -0.051620536 -0.105881765 -0.040775456 -0.09463844
0003f0 af 1a a4 bc 18 e0 18 bd c6 c1 f9 bc ff e1 da bb
       -0.020032255 -0.037323087 -0.030487906 -0.006679773

layers.6.bias f4 [64]
000000 90 25 f0 bc d2 a2 07 3e 10 75 0b bd a9 e0 3f bd
       -0.029314786 0.13245705 -0.034047186 -0.046845112
000010 57 39 8a 3d e7 ca a2 3d f6 35 46 3e 72 16 0a 3d
       0.06749218 0.07948857 0.19356522 0.03371281
000020 cf 16 4a 3c 51 b6 f2 bc c7 48 f5 3d fe 92 64 3c
       0.01233454 -0.02962795 0.11976772 0.013951061
000030 c2 de a5 bb f4 ac 0f 3d 94 1d 6f bd 9f a3 a2 bb
       -0.005061955 0.03507705 -0.058377817 -0.004963353
000040 01 2a b8 bc 5e f8 09 3c 93 a8 75 bb 47 32 00 3d
       -0.022480967 0.008421032 -0.0037484511 0.03129795
000050 a3 37 8c bd 42 ea 0c be 8f 27 03 bd 5a 14 c2 bd
       -0.06846549 -0.13761237 -0.032020148 -0.09476538
000060 e6 aa 23 3c 25 e6 73 bd c8 95 9c bc 45 a2 9a 3d
       0.009989476 -0.059545655 -0.01911439 0.07550482
000070 52 bd 03 3c a1 04 f6 3d 38 e9 56 bd 88 fb 64 bc
       0.008040743 0.12012602 -0.05246851 -0.013975985
000080 6c 50 23 3d 59 b4 b1 3d 14 c7 1a 3d 78 45 aa bd
       0.03987162 0.08676977 0.037787512 -0.08314031
000090 c8 e9 e3 bd 25 3f ae 3d 07 ec f1 3c 55 71 a3 3d
       -0.111285746 0.085081376 0.029531492 0.07980601
0000a0 1b 4a 80 3d 52 66 b9 bc c0 71 bf bc b9 bf d0 3c
       0.062641345 -0.022631798 -0.02336967 0.025482045
0000b0 b7 67 08 3c 30 61 0e be 93 af 46 3d 91 53 ae bd
       0.008325509 -0.13904262 0.048507284 -0.08512033
0000c0 a1 fc 66 3c 07 17 8a 3d 20 2a 85 bb 9f 07 0f 3c
       0.014098317 0.06742673 -0.0040638596 0.008729844
0000d0 c5 33 ae bb 09 f0 48 bd 4d 3b 32 bd 69 12 4e 39
       -0.00531623 -0.04905704 -0.043513585 0.00019652549
0000e0 12 75 4e bd f9 ca 30 bd e7 5a 64 3c 62 1b c8 bd
       -0.050404616 -0.04316232 0.013937688 -0.09770848
0000f0 6a 48 ba bd 59 68 d7 3d 55 67 df 3b 5d 7a 8f bd
       -0.09095843 0.105179496 0.006817738 -0.07005761

layers.8.weight f4 [64, 64, 3, 3]
000000 ed a9 6c 3d 2d d9 0e 3d 3b b8 d9 3c 7d 1e b4 3c
       0.05777924 0.034875084 0.026577106 0.021987194
000010 54 38 a4 bb 89 6c 1f 3d 8a ea 4b bc f8 e3 ab 3d
       -0.0050115976 0.038921867 -0.012446055 0.08393091
000020 db df 96 3d ef 29 7e 3d 5d 50 53 bc 44 83 a8 3b
       0.07366916 0.06205171 -0.012897578 0.005142601
000030 56 89 71 3d 32 b4 67 bd 11 90 10 bd 9c 50 f1 3c
       0.058968864 -0.056568332 -0.035293642 0.029457383
000040 d3 06 c4 bb 6b e7 07 bc b8 a6 f8 3c 44 2e 47 bd
       -0.005982259 -0.00829492 0.030352935 -0.048628107
000050 20 4c 55 bc 14 f6 33 bc 99 3f 9a bc e2 db 05 bb
       -0.013018638 -0.010983963 -0.018829154 -0.002042525
000060 7f d6 8e 3c 94 a1 a4 bc 64 c2 8b bd 33 7b 0c 3c
       0.017436264 -0.020096578 -0.068241864 0.008574295
000070 26 b9 d3 3b 55 f1 d2 39 79 0d 06 bd 6a 41 27 bd
       0.0064612804 0.00040234128 -0.032727692 -0.040833868
000080 90 85 c9 bc 0b bb 1f bd 42 32 a8 bc 00 c0 2d bb
       -0.02459982 -0.038996737 -0.020531777 -0.0026512146
000090 05 93 6b 3b 69 45 e3 3c b0 a2 b5 3d 11 01 65 bd
       0.0035945785 0.027743058 0.08868921 -0.05590922
0000a0 c3 11 12 bb b5 b5 44 3d 6c 03 db bc 62 27 84 bd
       -0.002228842 0.04802485 -0.02673503 -0.06452824
0000b0 28 90 3f 3d 56 fc 83 3c a7 d1 81 3b de a8 10 bd
       0.046768337 0.016111534 0.00396176 -0.035317294
0000c0 1d ad 60 bd 21 51 2e 3c 7f 68 4b bd 2d 4c ec 3b
       -0.054852594 0.01063946 -0.049660202 0.0072112293
0000d0 6d 81 4d bc 0b cc 7d bc 50 e6 52 3d 2e de 93 3d
       -0.012543065 -0.015490542 0.051489174 0.07220112
0000e0 c5 ef 19 bd dc 26 a9 bb 65 69 27 bc d9 3f a1 bd
       -0.037582178 -0.005162103 -0.010217999 -0.07873506
0000f0 bc b5 1e bd 02 62 93 bd c3 5e 1e bb 8e f0 59 bd
       -0.038747534 -0.07196428 -0.002416537 -0.053207926
000100 61 5c 71 bd 39 5b 1f bd 87 6e fd 3b f1 ed 01 3d
       -0.05892599 -0.038905356 0.007734123 0.03172106
000110 70 16 22 3d 40 2d ad 3d e0 ca f8 3d da 8b b2 3d
       0.03957218 0.084558964 0.1214807 0.08718081
000120 46 98 4e bd 8a d7 60 3c 05 88 5a bd 7b 0a 46 3d
       -0.050438188 0.0137232635 -0.053352375 0.04834984
000130 f0 55 7e 3d 3d 57 e5 3c af 04 74 3d cf 40 45 3d
       0.062093675 0.0279957 0.05957478 0.04815751
000140 67 44 16 3d 1b d6 85 3c e3 38 76 3d d2 ac f1 bc
       0.036686327 0.016337445 0.060112845 -0.029501352
000150 f7 f8 d3 3c 87 f1 46 3d f2 24 34 3c 29 18 0e 3c
       0.025875552 0.048570182 0.010995137 0.008672752
000160 a9 2b b5 3b 63 d3 d1 bc 5d 4b a0 3d 6e fa 3b 3d
       0.0055288863 -0.025613492 0.078268744 0.045893125
000170 f0 48 1c 3c 92 6e ca 3c 0a 7e 33 bb a4 62 0b 3d
       0.009538874 0.024710927 -0.0027388358 0.034029618
000180 6e 1e 7c bc ae 27 b4 bc ff ae 11 bd 5c b3 88 bc
       -0.015388114 -0.021991577 -0.03556728 -0.016687088
000190 e1 91 95 3d ad 74 2a 3d bf 6f f7 3b 86 d7 77 bc
       0.07303215 0.041615177 0.007551163 -0.015127068
0001a0 1b e7 32 3d 6f d2 be bc 40 4d 46 bc db 9c 92 3c
       0.04367743 -0.023293702 -0.012103379 0.01789706
0001b0 e0 90 ec 3c 64 e2 ab 3c 87 b2 20 bd 49 bd ed 3b
       0.028877676 0.020981975 -0.039232757 0.0072552306
0001c0 3d 6d 8c bd 93 6b 0f bd a5 9d 47 39 fd 5c 9c bd
       -0.06856773 -0.0350147 0.00019036846 -0.076349236
0001d0 6d 69 f9 3c 8b ef f3 bc 97 f7 73 bd 1e 24 9d bd
       0.030445779 -0.029777309 -0.059562292 -0.076729044
0001e0 8a 64 8d bd bf 3f e6 bc fe 63 a5 bd 06 c8 92 bc
       -0.06903942 -0.028106568 -0.080757126 -0.017917644
0001f0 f0 c7 49 bc 90 43 ff bc 65 d6 cf bc 92 4d 05 38
       -0.012315735 -0.031160146 -0.025370786 3.1781914e-05
000200 bd 00 8d bc e8 0b d3 3c 50 46 e4 3c bc 04 cf 3c
       -0.017212266 0.025762513 0.027865559 0.025270812
000210 97 57 29 3d bb 90 b1 3c be 07 e0 3c 7b 69 06 3d
       0.041343298 0.021675458 0.027347442 0.032815438
000220 80 e5 34 bd 22 c7 af bc 70 cd 3b 3d 26 b6 5f bd
       -0.04416418 -0.021457259 0.045850217 -0.05461707
000230 03 83 6c bd cd be 16 bd 04 c0 b6 bd be 6d 35 bd
       -0.05774213 -0.036803056 -0.08923343 -0.04429411
000240 97 5a 2a 3b 17 34 30 bd 22 8a 22 3d b9 19 07 bd
       0.0025993937 -0.043018427 0.039682515 -0.032983515
000250 98 49 a6 bd 3b f1 ee bb 13 7a ca 3a bf c2 12 bd
       -0.08119506 -0.0072919405 0.0015447758 -0.035830256
000260 cc a8 16 3d b0 87 db ba 44 bf a9 3c 89 5b a5 3d
       0.03678207 -0.0016748812 0.020721085 0.080740996
000270 21 17 2b 3c 42 d0 0e 3d 32 ed e6 bc 49 84 30 3d
       0.010442526 0.03486658 -0.028189275 0.043094907
000280 37 69 9d bc 1e c4 4a bd 93 d9 41 3c 41 64 ed bc
       -0.01921521 -0.04950344 0.011831659 -0.028978469
000290 dd 45 14 ba d8 f6 54 3d 58 a3 88 bd 65 0f 37 bd
       -0.00056561624 0.05199322 -0.0667178 -0.044692416
0002a0 ee e8 94 bd a1 8d 87 bd f3 8c 8f bc d2 18 e6 3c
       -0.0727099 -0.066188104 -0.017523265 0.028088007
0002b0 fa ea 4f 3c 25 22 26 bd e4 14 12 3c c7 86 59 3a
       0.0126903 -0.040559907 0.0089161135 0.00082979765
0002c0 ec 4d 86 bc b9 69 e3 bc 43 87 94 bc 20 bb 9c bd
       -0.016394578 -0.027760373 -0.018130904 -0.07652879
0002d0 6c 9c f1 bc cb 6d 1d bc a5 b9 50 3d 0c 38 14 bc
       -0.029493533 -0.009608696 0.050958294 -0.009046566
0002e0 bc 81 2c bc 89 ec 88 3c d1 5f 4d bc b7 66 2a 3c
       -0.010528978 0.016714351 -0.012535051 0.010400466
0002f0 03 10 53 3d 88 17 bd bc d8 7f 27 3d a3 d2 f5 3c
       0.05152894 -0.02308251 0.040893406 0.030007666
000300 2c 54 af 3b a3 80 74 bc 5e 9b 83 3d 48 f9 27 3d
       0.0053506102 -0.0149232475 0.06426118 0.041009218
000310 50 49 6c 3d 6d 0f 86 3d 5d 60 35 bc ee 2a 34 bc
       0.057687104 0.06545911 -0.011070338 -0.010996563
000320 22 bf 95 bc ad 37 b6 bc 41 56 f4 bc 46 d4 9a bc
       -0.018279616 -0.022243345 -0.029826285 -0.018900048
000330 63 70 28 bd 41 e9 ad 3c f9 11 8c 3d ce dc c5 3a
       -0.041122805 0.021229388 0.068393655 0.0015095712
000340 32 28 8b 39 1d 42 ea bc e3 71 ab bb 75 14 aa 3c
       0.00026542094 -0.028595978 -0.005232082 0.020761708
000350 88 e1 2f 3c ef 94 12 bd cb 00 8d 3c 8d 31 a0 3c
       0.010734923 -0.035786565 0.017212292 0.019554878
000360 2d 04 db 3c 7e a8 fa bc 43 50 27 bd 25 c7 f4 bc
       0.02673539 -0.030597921 -0.040848028 -0.029880116
000370 e8 41 4e bd 9b e7 13 bd 23 b5 35 bd 09 b3 90 bd
       -0.05035582 -0.036109548 -0.0443622 -0.07065398
000380 b7 32 53 bc 99 e5 85 3c 78 b7 73 3c 22 cf f8 3c
       -0.012890509 0.016344832 0.014875285 0.030372206
000390 c8 0d 29 bd 18 bc ff 3b 41 3d 70 3d 99 7d 76 3b
       -0.04127291 0.007804405 0.058652166 0.0037611483
0003a0 fc a7 75 3d 98 41 88 bb e6 cb 2f 3d 7e 21 33 3d
       0.059974656 -0.00415821 0.042919062 0.043733113
0003b0 64 b0 91 3d 51 a1 3a 3d af 20 10 3d f3 cf a0 bc
       0.07113722 0.045564 0.03518742 -0.019630408
0003c0 c2 c0 6a bd 3e 30 cc bc 28 f5 0e bc da 12 9b bd
       -0.057312734 -0.024925347 -0.008725442 -0.07571955
0003d0 bc e2 98 bd 8e d1 4b bd 6a c7 0b 3d 25 82 77 3d
       -0.07465121 -0.049760394 0.034125723 0.06042685
0003e0 f9 6b 33 3d 82 bf aa 3b 1c b7 d5 3c a4 59 94 3c
       0.043804143 0.005210818 0.02608829 0.01810915
0003f0 36 40 3e 3d ff cb 8b 3d 6c 59 96 bd 8d b9 49 3d
       0.046447955 0.068260185 -0.073412746 0.04924922

layers.8.bias f4 [64]
000000 00 98 00 bc 50 e0 d1 bd a8 e7 55 3d f2 ed 81 bd
       -0.00784874 -0.10247862 0.052222878 -0.063442126
000010 db 11 9c bc c3 1e 10 be e9 79 21 bd e6 17 dd bd
       -0.019051483 -0.14074235 -0.039422903 -0.10795574
000020 d6 85 10 be 34 3d d1 bd 58 46 ab bd 07 c4 f7 bd
       -0.14113554 -0.10216752 -0.083630264 -0.12097936
000030 0b f9 db bd 1d 39 1e bd 42 22 c1 bd fd 79 6a bc
       -0.107408606 -0.038628686 -0.09430362 -0.014311311
000040 2b 37 26 3d b3 82 90 bd dd cc c5 bd bc ad 0e be
       0.040579956 -0.07056179 -0.09658215 -0.13933462
000050 48 4d 89 bd c3 26 c2 bd 78 8c f2 bb 8f ee a9 bd
       -0.06704193 -0.094800495 -0.007401999 -0.082974546
000060 9b 1c d2 bc a2 f6 86 bc ba 7b 06 be 61 d9 b2 bc
       -0.025648406 -0.016475026 -0.13133135 -0.02183217
000070 d9 6d 1b bd 4f fd fa bd d4 6a 3f 3c 35 06 08 bb
       -0.037946556 -0.12255346 0.011683185 -0.0020755653
000080 57 e0 21 bd d8 2c 92 bd 35 d2 43 be da 90 e8 3c
       -0.039520588 -0.071374595 -0.19123156 0.028389383
000090 50 70 0f be 21 2b 08 be 84 09 07 bc eb d6 de bc
       -0.14007688 -0.13297702 -0.008242015 -0.02720209
0000a0 c2 18 be bc 7a 64 30 be f9 91 9d bc a9 fd 12 be
       -0.023205165 -0.17225829 -0.019234644 -0.14354576
0000b0 4e 7c 17 be 3b 1d b6 bc cd 02 9f bc e0 c6 c8 bc
       -0.14793512 -0.022230735 -0.019410515 -0.024508893
0000c0 73 0d 51 bd e2 ab 45 bd 8f 5d 60 bb 5c de 73 bc
       -0.051038217 -0.048259623 -0.0034235453 -0.014884558
0000d0 8b 29 11 bd a5 c6 0c bd eb e2 0f be bc 84 e7 bb
       -0.03544001 -0.03436913 -0.14051406 -0.0070653837
0000e0 e6 e7 e3 bc 92 aa 1b be d1 eb 81 bd 15 4a ac 3c
       -0.027820539 -0.15201786 -0.063438065 0.021031419
0000f0 8d ec 13 be d9 e2 c7 bb a5 be e7 bc e6 19 9b bd
       -0.14445706 -0.0061000404 -0.028289149 -0.07573299

layers.10.weight f4 [64]
000000 8d e3 8d 3f 8e b7 82 3f 3a 30 90 3f 2e a8 9b 3f
       1.1085068 1.0212266 1.1264718 1.2160699
000010 a9 ac 87 3f 87 40 96 3f 6b 2a 88 3f c2 0a 85 3f
       1.0599567 1.1738442 1.0637945 1.0393908
000020 bf a6 91 3f ed d6 87 3f 9d ef 8e 3f 84 97 8c 3f
       1.1379012 1.0612465 1.1166874 1.0983739
000030 60 c5 85 3f b1 32 86 3f c2 a5 88 3f 2f 6b 85 3f
       1.0450859 1.048422 1.0675585 1.0423335
000040 48 31 94 3f a9 23 88 3f b5 0a 8f 3f 63 fb 91 3f
       1.157754 1.0635883 1.1175143 1.1404842
000050 e1 5a 8d 3f 16 e6 8c 3f e4 b0 88 3f 0f 53 94 3f
       1.1043359 1.1007717 1.0678983 1.1587847
000060 44 4b 84 3f 92 31 86 3f 4b ab 8e 3f 0f e9 81 3f
       1.0335469 1.0483878 1.1146024 1.0149249
000070 45 4f 8c 3f 33 ad 8a 3f 85 9d 87 3f b8 41 84 3f
       1.0961691 1.0834106 1.0594946 1.0332556
000080 55 36 89 3f 19 09 87 3f f1 21 89 3f 38 fd 85 3f
       1.0719706 1.0549651 1.0713483 1.0467901
000090 85 23 87 3f ed c8 8d 3f 6b da 8f 3f 18 d7 84 3f
       1.0557715 1.1076943 1.1238531 1.0378141
0000a0 c6 88 84 3f 71 d0 96 3f d9 b1 8b 3f 7a 6c 87 3f
       1.035424 1.1782361 1.091365 1.057998
0000b0 9b dc 89 3f 49 cf 85 3f f6 43 85 3f dd da 88 3f
       1.0770448 1.0453883 1.0411365 1.0691792
0000c0 04 97 82 3f ab dd 87 3f 50 4b 85 3f 4a 26 8b 3f
       1.0202336 1.0614523 1.0413609 1.087106
0000d0 83 69 8d 3f 20 62 8d 3f 7e 57 8d 3f d9 5a 8e 3f
       1.1047825 1.104557 1.1042325 1.1121475
0000e0 5c c3 88 3f 35 cb 91 3f e9 de 8e 3f 87 2b 86 3f
       1.0684619 1.1390139 1.1161777 1.0482033
0000f0 71 df 92 3f 7a fc 88 3f 4c e2 87 3f 43 b2 81 3f
       1.1474439 1.070205 1.0615935 1.0132526

layers.10.bias f4 [64]
000000 ee 19 96 bd cb 05 cc bd 90 e4 88 bd 83 6f 20 bc
       -0.073291644 -0.099620424 -0.0668422 -0.009792211
000010 17 4e 7c bd 99 3f 6a bd 09 c8 8c bd f3 28 08 be
       -0.06159791 -0.057189558 -0.06874091 -0.13296871
000020 37 0b a9 bd 26 a1 f1 bc d3 20 51 bd aa 4f 63 bd
       -0.08254092 -0.029495787 -0.051056694 -0.055495895
000030 28 57 5d bc 05 6e 6d 3c 14 d3 43 bd 3b 41 80 3c
       -0.013509549 0.014491563 -0.04780872 0.015656104
000040 ec e0 f5 bc 4e a1 59 bd b4 7a dc bd 49 47 b6 bd
       -0.030014478 -0.053132348 -0.10765591 -0.08900315
000050 7c 77 c8 bc e3 17 33 bd a7 73 b9 bd f3 8d 2c bd
       -0.024471037 -0.043723952 -0.09055262 -0.04212756
000060 f7 6c 5b bd 0e d5 18 bd 2e c8 25 bd 7f 2f a5 bd
       -0.053570714 -0.03731256 -0.04047411 -0.080657
000070 d1 e0 7f bd a5 e4 69 bd eb f3 19 bd 29 1b 9c bd
       -0.06247026 -0.057102818 -0.037586134 -0.07622368
000080 63 d3 8a bd 41 01 91 bd 36 48 94 bd bf 84 9e bd
       -0.067786 -0.07080317 -0.07240336 -0.07740163
000090 42 d5 90 bc 3a 08 ad bd ad 43 75 bd 84 b0 83 bd
       -0.017679814 -0.08448835 -0.059878994 -0.06430152
0000a0 65 f7 d5 bc 7b fc 20 bd f3 c5 2b 3c d1 0d 7e bd
       -0.026118943 -0.039303284 0.0104842065 -0.062024895
0000b0 db 7c aa bd a0 43 58 bd ba 9e f4 bc 5f f6 67 bb
       -0.083245955 -0.052798867 -0.029860843 -0.0035394651
0000c0 77 54 8a bd ce 56 d1 bc 08 60 a0 bc 16 a7 d7 bd
       -0.06754392 -0.025554087 -0.019577041 -0.10529916
0000d0 08 4c 2f bd df 87 25 bd 84 c1 c6 bd 23 61 dd bd
       -0.04279712 -0.04041278 -0.09704879 -0.10809543
0000e0 aa c0 9b bd 18 d2 a9 bd 71 f8 89 bd 11 a6 ee bd
       -0.07605107 -0.08292025 -0.067368396 -0.116527684
0000f0 3b fd a9 bd 64 b6 17 bd 13 ea 61 bc e1 f3 de bc
       -0.08300253 -0.037039176 -0.013788718 -0.0272159

layers.10.running_mean f4 [64]
000000 68 d7 37 3f 2e e6 40 3e 88 f7 31 bc a0 ed c8 3c
       0.7181306 0.18837807 -0.010862239 0.02452737
000010 c4 29 1b 40 fe 46 13 3f 71 27 7e bd 30 0f ca 3e
       2.4244242 0.575302 -0.062049333 0.39464712
000020 4d a7 23 3f a1 51 12 3f 95 b5 5c 3f 05 a6 d5 3d
       0.63927156 0.57155806 0.8621457 0.10432056
000030 fc cf c3 3e 7a d7 e7 3c c6 22 77 3e 41 df f0 3e
       0.38244617 0.02830099 0.24134359 0.4704533
000040 80 50 88 bc 5c aa 76 3e 71 ab 86 3f a8 cd 17 bd
       -0.016639948 0.24088424 1.052107 -0.037061363
000050 61 f2 59 3e e9 9f e7 3e e1 49 95 3e 23 38 8b 3e
       0.21283866 0.4523919 0.29157928 0.27191266
000060 70 5b b1 3f 5b 99 b3 3d 14 ee cc 3e c4 33 86 bd
       1.385603 0.087694846 0.4002539 -0.06552842
000070 8a be 9d 3f b2 ff e1 3e 3d 51 b2 3e 7e 57 09 40
       1.2323773 0.44140393 0.34827605 2.145965
000080 4d 38 1b 3f c1 d9 dc 3f c7 c6 66 3d b9 b0 76 bc
       0.60632783 1.7253953 0.056341913 -0.015056782
000090 59 4a 3f 3f 4c 6e 0f 3f 99 96 ca 3d e5 6e c2 3e
       0.7472282 0.56027675 0.098920055 0.3797523
0000a0 e5 58 8d 3d 18 98 7e 3b c4 b8 49 bd 27 80 8f bd
       0.06901721 0.003884798 -0.04924847 -0.07006865
0000b0 a7 98 17 40 81 11 f3 3d 57 1d a0 3d e2 2c bf 3d
       2.3686922 0.11868573 0.07818096 0.093347326
0000c0 e6 c1 8c bd f2 42 5e 3e 84 97 81 3f 8e b0 9c 3e
       -0.06872921 0.21705225 1.0124364 0.3060345
0000d0 77 02 d3 3d 10 29 3a bd 3b 80 8a 3e 18 92 4f 3e
       0.103032045 -0.045449317 0.27050957 0.20270574
0000e0 a6 e6 92 3e 26 9c 4f 3f 5c fd b3 3f 93 be bd 3f
       0.28691596 0.8109764 1.4061694 1.4823784
0000f0 06 dc 33 bd 72 46 23 3e cc 86 3e 3f 02 da 41 3e
       -0.043911003 0.15944842 0.74424434 0.1893082

layers.10.running_var f4 [64]
000000 9e ec cd 3f 86 91 29 3f 4d f7 41 3e f0 19 a3 3e
       1.6087835 0.66237676 0.18941994 0.31855726
000010 9f 88 8b 40 25 e4 dd 3f f0 95 38 3e 15 d4 da 3f
       4.3604274 1.7335249 0.18025947 1.7095972
000020 90 3e fc 3f 01 08 91 3f e6 8b 0a 40 e2 d7 27 3f
       1.9706593 1.1330568 2.1647887 0.65563786
000030 49 cb 8c 3f 57 87 ac 3e 74 7b 4d 3f 2f 21 83 3f
       1.0999538 0.33697006 0.802665 1.0244502
000040 dc 66 7a 3e 41 a5 32 3f 68 0e 34 40 3a 57 80 3e
       0.244533 0.6978341 2.8133793 0.2506655
000050 6c f8 2c 3f f4 ab 98 3f 1f d0 3b 3f 63 21 3d 3f
       0.6756656 1.1927476 0.7336444 0.7387907
000060 b0 0b 4e 40 77 08 24 3f e2 e9 b4 3f e2 eb 18 3e
       3.2194633 0.64075416 1.4133875 0.14933732
000070 47 36 45 40 f0 e8 9e 3f e1 6d 4c 3f 9e 9c 89 40
       3.0814378 1.2414837 0.7985516 4.3003683
000080 e7 e5 bb 3f 0d da 9d 40 7d 70 f4 3e 76 41 9a 3e
       1.4679536 4.9328675 0.47742072 0.30128068
000090 72 17 1a 40 a4 96 d5 3f 87 16 fd 3e 98 42 72 3f
       2.407681 1.6686597 0.4943125 0.94632864
0000a0 fa 58 d3 3e e1 28 89 3e 73 f8 24 3e 9f ee e1 3d
       0.4127882 0.26789 0.16110401 0.110318415
0000b0 7a d4 86 40 ee 37 12 3f 72 02 d3 3e 76 83 17 3f
       4.213437 0.5711659 0.41212803 0.5918497
0000c0 75 c9 20 3e f6 17 3f 3f 7a 1e 1d 40 5e 94 5f 3f
       0.1570185 0.74645936 2.4549851 0.87335765
0000d0 4a 95 d8 3e a4 e1 e1 3d f2 e1 98 3f 2e f8 12 3f
       0.423014 0.11029366 1.1943953 0.5740994
0000e0 77 8d 61 3f 66 b2 37 40 90 8d 80 40 d4 d1 71 40
       0.88106483 2.8702636 4.0172806 3.778432
0000f0 6d 1d 62 3e f5 72 de 3e 8f 77 ac 3f 73 c1 24 3f
       0.22081538 0.4344708 1.3473986 0.6435768
