mnist_convnet/mnist_convnet.safetensors (safetensors, 353816 bytes, 18 tensors)

layers.0.weight f4 [32, 1, 5, 5]
-0.055162814 0.09528651 -0.028799478 -0.19034228 -0.15115419 -0.016554737 0.09096004 0.092932835
-0.1810034 0.12822697 0.06887004 -0.12337955 -0.1476248 0.1298138 -0.13265331 0.04997845
0.116310626 0.033954103 -0.10962293 -0.04327974 0.13522935 -0.12280681 0.10422318 0.12093068
0.11305861 -0.16475464 0.16753827 0.12508613 0.19892107 0.049903262 0.13099593 0.22655123
-0.04770261 0.08773362 0.16944076 -0.11416652 0.019288763 -0.12755357 -0.14420183 -0.16654988
0.14302722 0.049316026 0.07781948 -0.10529466 -0.17036402 -0.03785108 -0.08149944 0.07560075
-0.1524144 -0.13752133 -0.16296695 -0.11201204 -0.17139837 -0.13730557 -0.13427944 -0.09353462
-0.1277595 -0.18023542 -0.014870449 -0.11835711 0.15703465 -0.11087922 0.18434906 0.046032704
-0.13253433 -0.14816819 0.20477974 0.058604367 0.011366856 -0.026950076 -0.17175528 -0.14516084
0.048206396 -0.054017756 -0.082099795 0.051492386 0.0021553682 0.14651047 0.19902802 -0.008222058
0.002398334 0.21975045 0.07905128 -0.14595789 0.056403134 0.06698822 -0.16529796 -0.00499399
-0.035359733 0.15892957 -0.10092069 -0.13172211 0.096947365 -0.067475915 -0.17943065 0.087088
-0.09406004 -0.12228999 -0.11535069 0.08394208 -0.05407101 -0.031127566 0.096630044 -0.10099303
0.0032362242 0.013953971 -0.06721436 -0.14290236 -0.18365912 0.051418014 0.14198843 -0.15278508
0.15689012 0.17972335 -0.12837692 0.1191938 -0.110661566 0.12952295 0.17976542 0.097711235
-0.029281229 -0.15067588 -0.025090758 -0.17934142 0.13725479 -0.12635879 0.012607769 0.062487934
-0.13984486 0.009022765 0.10749893 0.11113591 -0.089158654 -0.075725414 0.03747525 -0.06782291
0.07583394 -0.20934384 -0.12898035 0.034224443 0.1944872 0.17451197 0.1351831 0.19454998
-0.069045074 0.09572461 -0.0062074247 0.076615214 0.08318039 -0.06461004 0.100944035 0.015437756
0.14218605 -0.0030768001 0.12935874 -0.06365614 0.04622642 -0.05539934 0.02858363 0.11294335
-0.003369619 -0.027014483 -0.14167206 0.014687504 0.15318602 -0.040244047 -0.10750962 -0.011200127
-0.08209669 0.14972542 0.022314744 -0.06792413 -0.009781366 0.013530667 -0.02716079 -0.11226463
-0.03189499 -0.028351393 0.2048209 0.15955007 -0.18125255 -0.11354855 -0.16567975 0.054595716
-0.11291368 -0.14884262 -0.14051637 0.10583382 0.16841054 -0.13791865 -0.08277558 0.14474185
-0.13373853 0.1766691 -0.02473877 -0.10304702 0.15237242 0.1323874 -0.0568837 -0.06337531
-0.20081584 -0.22777544 -0.011152749 -0.04585923 -0.10165722 0.18349957 -0.02967368 -0.12571017
-0.06673137 0.07377871 -0.020474572 -0.003105329 -0.17827263 0.050224446 -0.1708631 0.2068671
0.17867348 -0.01826431 0.07484339 -0.03728281 -0.19106935 0.17606434 0.17325924 -0.08515924
0.09523607 -0.014126985 0.112764105 0.0827317 -0.07098932 -0.03460763 0.042393886 0.10515047
-0.08581525 0.077920385 -0.087445624 0.03195341 0.09588346 0.010414951 0.070622884 -0.08665193
0.014508395 -0.17663522 0.17883816 0.024864828 -0.15568121 0.1326166 0.07834215 -0.05814356
-0.09248873 0.08682833 0.020154458 0.011688593 -0.041689645 0.05952136 -0.11504517 0.11414763
00000000: 67f2 61bd 9325 c33d e2ec ebbc 16e9 42be
00000010: 2ac8 1abe cd9d 87bc 4249 ba3d 9253 be3d
00000020: f558 39be ee4d 033e bc0b 8d3d 6bae fcbd
00000030: f52a 17be e9ed 043e 45d6 07be 34b6 4c3d
00000040: 4434 ee3d 7513 0b3d fd81 e0bd 1946 31bd
00000050: 9079 0a3e 2382 fbbd f672 d53d 81aa f73d
00000060: 468b e73d 71b5 28be 278f 2b3e 9416 003e
00000070: f7b1 4b3e 5d67 4c3d cc23 063e 0cfd 673e
00000080: d063 43bd afad b33d e181 2d3e 23d0 e9bd
00000090: 7803 9e3c 679d 02be a5a9 13be 0d8c 2abe
000000a0: ba75 123e 9aff 493d d25f 9f3d baa4 d7bd
000000b0: e873 2ebe bc09 1bbd 2ee9 a6bd 91d4 9a3d
000000c0: 8512 1cbe 64d2 0cbe cfe0 26be 9266 e5bd
000000d0: 0e83 2fbe d599 0cbe 8d80 09be 148f bfbd
000000e0: 63d3 02be a28f 38be 2fa3 73bc 3665 f2bd
000000f0: b1cd 203e a514 e3bd 00c6 3c3e ca8c 3c3d
00000100: 14b7 07be 67b9 17be c8b1 513e 220b 703d
00000110: 0d3c 3a3c 68c6 dcbc 9ee0 2fbe 0ba5 14be
00000120: 1274 453d b941 5dbd f023 a8bd aee9 523d
00000130: 1441 0d3b d706 163e 00ce 4b3e d0b5 06bc
00000140: 5e2d 1d3b 4306 613e a3e5 a13d fc75 15be
00000150: f906 673d 1f31 893d de43 29be a0a4 a3bb
00000160: 5ed5 10bd 6fbe 223e 82af cebd 29e2 06be
00000170: 578c c63d d030 8abd abbc 37be 315b b23d
00000180: 8da2 c0bd 2d73 fabd fc3c ecbd d3e9 ab3d
00000190: 9079 5dbd 3dff febc f9e5 c53d 6fd5 cebd
000001a0: d516 543b 329f 643c afa7 89bd ff54 12be
000001b0: 2311 3cbe b29b 523d 6a65 113e b173 1cbe
000001c0: cea7 203e 6609 383e 3d75 03be e11b f43d
000001d0: 88a2 e2bd aaa1 043e 6d14 383e d41c c83d
000001e0: 30df efbc c74a 1abe 228b cdbc 47a5 37be
000001f0: 858c 0c3e 3364 01be d190 4e3c 59f3 7f3d
00000200: 7e33 0fbe 38d4 133c 6628 dc3d 399b e33d
00000210: d098 b6bd ed15 9bbd a67f 193d bde6 8abd
00000220: d34e 9b3d 3b5e 56be 6d13 04be ee2e 0c3d
00000230: a727 473e 44b3 323e 706d 0a3e 1c38 473e
00000240: 8167 8dbd 440b c43d a767 cbbb 70e8 9c3d
00000250: 7b5a aa3d 4552 84bd bfbb ce3d a4ee 7c3c
00000260: 3899 113e 24a4 49bb 9e76 043e 265e 82bd
00000270: ea57 3d3d 6bea 62bd 3828 ea3c d84e e73d
00000280: d3d4 5cbb 7a4d ddbc 7b12 11be dba3 703c
00000290: ccdc 1c3e f1d6 24bd 012e dcbd bd80 37bc
000002a0: 4f22 a8bd 9f51 193e 69cd b63c ce1b 8bbd
000002b0: 0642 20bc bbaf 5d3c 4e80 debc 00eb e5bd
000002c0: 52a4 02bd 2e41 e8bc 92bc 513e 1861 233e
000002d0: 459a 39be 248c e8bd f4a7 29be c29f 5f3d
000002e0: 4a3f e7bd 336a 18be 86e3 0fbe 67bf d83d
000002f0: d073 2c3e 8c3a 0dbe 3e86 a9bd 3537 143e
00000300: c1f2 08be bfe8 343e f6a8 cabc 510a d3bd
00000310: 8407 1c3e 9090 073e e2fe 68bd eaca 81bd
00000320: aba2 4dbe f73d 69be 05ba 36bc e3d6 3bbd
00000330: a931 d0bd 50e7 3b3e 3816 f3bc 2bba 00be
00000340: 75aa 88bd 4b19 973d 4aba a7bc c682 4bbb
00000350: 1a8d 36be 26b8 4d3d bdf6 2ebe f8d4 533e
00000360: 2ef6 363e 099f 95bc 7e47 993d dcb5 18bd
00000370: afa7 43be 364a 343e df6a 313e f867 aebd
00000380: 210b c33d df74 67bc def0 e63d 3d6f a93d
00000390: d962 91bd bbc0 0dbd 36a5 2d3d 2159 d73d
000003a0: e8bf afbd b994 9f3d b116 b3bd 94e1 023d
000003b0: 8c5e c43d 78a3 2a3c bba2 903d 9176 b1bd
000003c0: 9fb4 6d3c dddf 34be 5a21 373e 53b1 cb3c
000003d0: e56a 1fbe a5cc 073e d971 a03d f127 6ebd
000003e0: bb6a bdbd 0dd3 b13d f61a a53c 8381 3f3c
000003f0: c3c2 2abd abcc 733d cd9c ebbd 3cc6 e93d

layers.0.bias f4 [32]
-0.19676177 0.052035727 -0.022333732 -0.049556915 -0.03635001 -0.049736634 0.07527554 -0.092533424
-0.0027933272 -0.13245961 0.07980974 -0.134573 -0.022424964 0.09736633 -0.18930416 0.067492805
-0.11833845 -0.14288726 -0.14004783 -0.036421172 0.06696799 0.19837454 -0.024667269 -0.1826702
0.04602152 -0.16492677 -0.011155838 -0.15908863 0.11753506 -0.20234303 0.022011127 0.1730932
00000000: eb7b 49be 6a23 553d 3bf5 b6bc 31fc 4abd
00000010: c0e3 14bd a4b8 4bbd 102a 9a3d 2a82 bdbd
00000020: 4110 37bb 7ea3 07be 4a73 a33d 81cd 09be
00000030: 8fb4 b7bc 0068 c73d f3d8 41be ab39 8a3d
00000040: 6e5b f2bd 0a51 12be b368 0fbe 5e2e 15bd
00000050: 8326 893d b222 4b3e 0313 cabc e60d 3bbe
00000060: 1081 3c3d 90e2 28be fac6 36bc 21e8 22be
00000070: 39b6 f03d 0333 4fbe ae50 b43c 583f 313e

layers.2.weight f4 [32, 32, 5, 5]
0.007981489 0.011360067 -0.0022368783 -0.0110794315 -0.021237813 -0.010806874 -0.01615477 -0.02027076
0.01248427 -0.017869484 -0.0022224346 0.009485664 -0.0024462685 0.014424524 -0.014100005 0.007152069
-0.0022897338 0.0010030098 -0.0058047664 -0.03748138 -0.017513715 0.0017725178 -0.011732764 0.009853384
0.006708725 -0.03612276 0.013644565 0.028163848 -0.012361285 -0.0007228953 -0.031516388 -0.03150738
-0.031413943 0.025984257 -0.034227595 -0.003396712 -0.0135909775 -0.01601657 0.015353047 0.0056407126
-0.028307317 -0.0065560048 -0.030707967 -0.0328333 -0.018978007 -0.0040237796 -0.03879018 -0.013675743
0.027503865 0.031174388 0.020035936 -0.0044024773 0.0032090903 -0.0038183013 -0.006599172 -0.004077675
-0.004082969 -0.007711371 -0.019807111 -0.022462718 -0.014645533 0.02772366 0.00696281 0.02549747
-0.029095152 -0.008182348 0.034072686 -0.00421269 0.008144664 -0.006086523 0.023755072 0.023296356
0.021171791 -0.030868467 -0.0028760827 0.020104218 0.007456949 -0.029211517 -0.010043599 0.008516071
0.021719763 0.0010042276 -0.018353363 0.017373664 -0.015554811 0.028857611 0.029735701 -0.017076075
0.023225745 -0.018921595 -0.031838387 -0.013743508 -0.0106540695 -0.02249371 -0.037485875 0.02006207
0.0048805345 0.0227009 -0.022383844 -0.010962268 -0.015223482 -0.006555575 0.010472779 -0.036749937
-0.020331869 0.0024220091 -0.010861637 0.016095338 -0.019300614 0.0016519688 -0.028051712 -0.02418899
0.026796827 -0.0112729175 0.01847999 0.030010644 -0.021249989 -0.019242048 0.0013887258 0.018481242
0.019367699 0.008963609 0.019993836 0.014339829 0.011437117 0.009081974 0.0007271478 0.0015790447
-0.026066324 0.0077517834 -0.017620802 -3.5462083e-06 -0.036405724 -0.017714571 0.01299128 -0.0074509387
0.015820386 -0.026282439 0.032996915 0.024919173 0.012352644 0.024515357 -0.012561497 -0.010895176
-0.002476583 -0.0029830586 0.018470196 0.022313632 0.015196594 0.023309493 0.020181596 -0.007721435
-0.021814939 0.028829332 0.0026715002 0.0010704129 -0.025574464 -0.024282636 0.027852535 -0.0111238165
-0.009132592 -0.018374402 0.0016696347 -0.0066129672 0.031693593 0.008120104 -0.02093955 0.019900462
-0.008393806 0.009806378 0.002937974 -0.006199929 0.012172138 0.0008874015 0.026103165 0.028358022
0.011642278 -0.02200334 -0.020888595 -0.026450012 0.037131354 -0.018937876 -0.015633004 -0.011480894
0.028613921 -0.008166808 -0.012263768 0.016166545 -0.024493983 0.01345516 0.020619582 -0.029323842
-0.012128056 -0.016602118 -0.00409278 -0.033469852 0.015208233 0.00081922393 0.004713141 -0.013445788
-0.01235247 -0.003848825 0.027092312 0.024868608 -9.1577085e-06 -0.0147065325 0.019752987 -0.021426067
0.024924565 -0.014192626 0.023457853 -0.01205017 -0.013215394 0.017820176 -0.018955251 0.026770864
0.0010044124 0.0053226505 0.0019560468 -0.0025655145 -0.026192328 -0.031997908 0.016620673 0.029302374
0.0050301063 0.010726924 -0.019595003 0.02056166 -0.036490105 -0.019319538 -0.023303332 0.0039328043
-0.020473408 -0.005706043 -0.034873612 0.0064357463 0.015407655 -0.007109714 0.035704758 0.0010031416
0.029208427 -0.022645637 -0.014197637 -0.02421348 0.01870773 -0.008301092 0.00065438455 -0.03011273
0.018399384 -0.006816728 0.0072938222 -0.015820263 0.015211518 -0.026643397 0.024275843 0.014198244
00000000: cbc4 023c 931f 3a3c 9798 12bb 8186 35bc
00000010: ecfa adbc 510f 31bc 0257 84bc dd0e a6bc
00000020: d38a 4c3c 0663 92bc 44a6 11bb c269 1b3c
00000030: 9351 20bb d754 6c3c b503 67bc e75b ea3b
00000040: 5c0f 16bb 6d77 833a e935 bebb 1386 19bd
00000050: ec78 8fbc d453 e83a c73a 40bc 1770 213c
00000060: ddd4 db3b 76f5 13bd 748d 5f3c dfb7 e63c
00000070: fd86 4abc af80 3dba 5417 01bd e20d 01bd
00000080: e8ab 00bd f0dc d43c 3c32 0cbd 5f9b 5ebb
00000090: b1ac 5ebc 2f35 83bc 598b 7b3c bad5 b83b
000000a0: bfe4 e7bc c1d3 d6bb 468f fbbc 367c 06bd
000000b0: c477 9bbc e9d9 83bb 74e2 1ebd 3910 60bc
000000c0: c94f e13c 6e61 ff3c 6722 a43c a842 90bb
000000d0: 9a4f 523b 773c 7abb de3d d8bb 049e 85bb
000000e0: 6dca 85bb abaf fcbb 8642 a2bc bc03 b8bc
000000f0: d1f3 6fbc bb1c e33c 4928 e43b 12e0 d03c
00000100: f558 eebc 410f 06bc cd8f 0b3d 9b0a 8abb
00000110: 3271 053c 7571 c7bb ff99 c23c 00d8 be3c
00000120: 7770 ad3c dedf fcbc a97c 3cbb 9ab1 a43c
00000130: 6c59 f43b fe4c efbc e88d 24bc fe86 0b3c
00000140: a5ed b13c 49a0 833a cb59 96bc 3753 8e3c
00000150: 9bd9 7ebc cc66 ec3c 4998 f33c 20e3 8bbc
00000160: eb43 be3c 7601 9bbc f868 02bd 732c 61bc
00000170: 688e 2ebc bb44 b8bc ca8a 19bd 3659 a43c
00000180: e4ec 9f3b 3df7 b93c 535e b7bc 169b 33bc
00000190: e96b 79bc 26d0 d6bb 0596 2b3c 1a87 16bd
000001a0: 058f a6bc 92ba 1e3b 02f5 31bc 5fda 833c
000001b0: 521c 9ebc e086 d83a b4cc e5bc fd27 c6bc
000001c0: 0585 db3c 0bb2 38bc 5963 973c e2d8 f53c
000001d0: 7514 aebc 80a1 9dbc e805 b63a f965 973c
000001e0: 02a9 9e3c 1adc 123c 1dca a33c 9af1 6a3c
000001f0: bf62 3b3c 8fcc 143c 109e 3e3a f3f7 ce3a
00000200: 0b89 d5bc ac02 fe3b 8059 90bc 65fb 6db6
00000210: 2b1e 15bd 261e 91bc 61d9 543c 0127 f4bb
00000220: c199 813c 454e d7bc c627 073d 4b23 cc3c
00000230: be62 4a3c 6ed4 c83c bdce 4dbc ae81 32bc
00000240: 2b4e 22bb 6b7f 43bb cf4e 973c 14cb b63c
00000250: 23fb 783c 8df3 be3c e053 a53c 1704 fdbb
00000260: 3eb5 b2bc 7e2b ec3c 5614 2f3b 194d 8c3a
00000270: 8a81 d1bc 61ec c6bc 002b e43c ab40 36bc
00000280: dea0 15bc ea85 96bc a5d7 da3a 97b1 d8bb
00000290: 24d1 013d 2f0a 053c 6b89 abbc 4b06 a33c
000002a0: 2d86 09bc eeaa 203c 068b 403b c628 cbbb
000002b0: a66d 473c 82a0 683a 4ed6 d53c 154f e83c
000002c0: 41bf 3e3c 5940 b4bc 8f1e abbc b2ad d8bc
000002d0: 0c17 183d 9b23 9bbc c910 80bc 5c1a 3cbc
000002e0: be67 ea3c 13ce 05bc f9ed 48bc b46f 843c
000002f0: 9ba7 c8bc 0873 5c3c 66ea a83c 8e38 f0bc
00000300: c1b4 46bc 2a01 88bc ba1c 86bb af17 09bd
00000310: f42b 793c 30c1 563a b170 9a3b b94b 5cbc
00000320: 0462 4abc 923c 7cbb b2f0 dd3c 40b9 cb3c
00000330: 0fa4 19b7 abf3 70bc 04d1 a13c b885 afbc
00000340: 9a2e cc3c 3088 68bc af2a c03c 146e 45bc
00000350: 6185 58bc 9efb 913c 0b48 9bbc 924e db3c
00000360: 7da6 833a a169 ae3b 0531 003b 3122 28bb
00000370: 4b91 d6bc 3d10 03bd 1428 883c 880b f03c
00000380: 97d3 a43b fbbf 2f3c b385 a0bc ed70 a83c
00000390: a676 15bd 0244 9ebc a1e6 bebc c1de 803b
000003a0: d9b7 a7bc c2f9 babb a2d7 0ebd f4e2 d23b
000003b0: 6470 7c3c 9bf8 e8bb 273f 123d d97b 833a
000003c0: 8346 ef3c 5883 b9bc 359d 68bc 595b c6bc
000003d0: f440 993c 4e01 08bc 018b 2b3a f9ae f6bc
000003e0: 4eba 963c dc5e dfbb 0401 ef3b 7f99 81bc
000003f0: bb39 793c 4143 dabc 22de c63c c09f 683c

layers.2.bias f4 [32]
0.016086027 -0.025436418 -0.028541699 -0.027276903 -0.02814904 0.0034028857 -0.0339055 -0.02537765
0.028558938 0.041268308 -0.034969777 0.00034762957 -0.008007508 -0.034460355 -0.012090214 0.05055285
-0.027729716 -0.05427829 -0.018912204 -0.04423331 -0.0012206669 -0.027728923 -0.021339707 -0.05795699
-0.002469855 0.04182088 0.069510534 -0.024299573 0.00073069724 0.021645434 -0.013335198 0.001559822
00000000: d8c6 833c 0960 d0bc 48d0 e9bc d073 dfbc
00000010: d198 e6bc f302 5f3b 7ee0 0abd cae4 cfbc
00000020: 6ff4 e93c f508 293d 783c 0fbd 0d42 b639
00000030: ec31 03bc 4d26 0dbd 0816 46bc 8110 4f3d
00000040: 6e29 e3bc ea52 5ebd c4ed 9abc fd2d 35bd
00000050: c9fe 9fba c427 e3bc 9cd0 aebc 4f64 6dbd
00000060: 4add 21bb 5f4c 2b3d 8a5b 8e3d e60f c7bc
00000070: 438c 3f3a c451 b13c e07b 5abc f172 cc3a

layers.4.weight f4 [32]
0.9831625 1.0120721 1.0242285 1.009348 1.0063987 0.9941215 1.0277299 1.0296202
1.0006638 0.9872044 1.0244846 1.0158744 0.99227136 1.0003644 1.0059047 0.9851226
1.019028 1.0491673 1.0392054 1.0121176 1.01624 1.0226094 0.99722475 1.0147257
1.0508429 0.9927365 1.0042878 1.0006299 1.0177945 0.98515785 0.9853595 1.0257982
00000000: 8ab0 7b3f 948b 813f eb19 833f 5132 813f
00000010: acd1 803f bf7e 7e3f a78c 833f 98ca 833f
00000020: c015 803f 6db9 7c3f 5022 833f 2c08 823f
00000030: 7f05 7e3f f10b 803f 7cc1 803f ff30 7c3f
00000040: 826f 823f 1d4b 863f af04 853f 128d 813f
00000050: 2714 823f dde4 823f 1f4a 7f3f 88e2 813f
00000060: 0582 863f fb23 7e3f 818c 803f a414 803f
00000070: 1747 823f 4e33 7c3f 8540 7c3f 5b4d 833f

layers.4.bias f4 [32]
0.03845107 0.017959202 -0.0010337804 0.0006410671 0.036624294 -0.022076854 0.016876403 0.036997043
0.01307765 -0.0073363055 0.010215657 0.029053215 -0.034788914 0.007113003 -0.0074450825 -0.023668552
-0.007729631 0.0043650367 0.038643394 0.017963994 0.005499194 0.038670376 0.0013600779 0.031649496
0.012301052 -0.0026026175 -0.0021905669 -0.028713072 -0.024515187 0.015265306 -0.013911514 -0.019779645
00000000: df7e 1d3d 2d1f 933c ea7f 87ba 490d 283a
00000010: 5b03 163d 85da b4bc 6240 8a3c 368a 173d
00000020: a443 563c 6465 f0bb 925f 273c 0201 ee3c
00000030: d27e 0ebd 3214 e93b e1f5 f3bb 8de4 c1bc
00000040: d848 fdbb 9508 8f3b 8948 1e3d 3a29 933c
00000050: 9532 b43b d464 1e3d a444 b23a e7a2 013d
00000060: 5a8a 493c ad90 2abb 9d8f 0fbb ad37 ebbc
00000070: 13d4 c8bc 561b 7a3c 1eed 63bc ec08 a2bc

layers.4.running_mean f4 [32]
0.020407964 -0.056459974 -0.075474314 -0.0766013 0.09421849 -0.07042519 0.055819906 0.016546058
0.050173644 0.011943124 -0.012042229 0.09205274 0.08169068 0.0112553 0.058077276 0.00010606852
-0.056392305 -0.100188605 0.0062365746 -0.063762285 -0.0044947136 0.012110144 0.082295105 -0.09249432
-0.07459016 0.1999883 -0.09123506 0.016646529 0.15472649 0.032861523 0.04675896 0.07116834
00000000: 9a2e a73c 9342 67bd 4792 9abd 24e1 9cbd
00000010: a0f5 c03d 153b 90bd 6aa3 643d 998b 873c
00000020: e182 4d3d 18ad 433c c54c 45bc 2686 bc3d
00000030: 714d a73d 2668 383c 70e2 6d3d 1a71 de38
00000040: 9efb 66bd af2f cdbd 2e5c cc3b cd95 82bd
00000050: 6448 93bb a069 463c 568a a83d a96d bdbd
00000060: bac2 98bd bcc9 4c3e 72d9 babd 4d5e 883c
00000070: 9f70 1e3e ce99 063d 5386 3f3d b5c0 913d

layers.4.running_var f4 [32]
0.02360493 0.018252444 0.016543198 0.021441653 0.024618346 0.022067657 0.023994047 0.024347108
0.01837809 0.020690281 0.018302917 0.024230976 0.028004855 0.021281904 0.021409838 0.030016953
0.019840501 0.01929485 0.023118543 0.017684141 0.023929644 0.022861093 0.025992325 0.019956412
0.022835283 0.03302016 0.02284257 0.019793686 0.034802023 0.020555295 0.020276263 0.0190785
00000000: 205f c13c 2686 953c 9a85 873c 68a6 af3c
00000010: 6aac c93c 3bc7 b43c 2a8f c43c 9673 c73c
00000020: a68d 963c aa7e a93c 00f0 953c 0a80 c63c
00000030: 706a e53c 6357 ae3c af63 af3c 1de6 f53c
00000040: 8c88 a23c 3c10 9e3c 1963 bd3c 55de 903c
00000050: 1a08 c43c 3047 bb3c dbed d43c a17b a33c
00000060: 0f11 bb3c 2640 073d 5720 bb3c 5e26 a23c
00000070: 918c 0e3d 9463 a83c 681a a63c 844a 9c3c

layers.6.weight f4 [64, 32, 3, 3]
-0.015724458 -0.024015566 6.878344e-05 -0.012136696 -0.032068238 0.031134956 -0.047878735 0.0016471399
-0.001227155 0.03854239 -0.030412005 -0.009067573 0.03605783 -0.041737027 0.045676157 -0.013597856
-0.012032338 0.0011948389 0.050471123 0.031321302 0.02952885 -0.032438956 0.054188825 0.016592817
0.009125969 -0.04257792 -0.017272122 -4.665512e-05 -0.014319291 0.027280243 0.043766078 0.01075607
0.038362745 -0.008321565 0.009787685 0.056217317 -0.060625516 0.027619049 0.043840516 0.010482783
-0.015483681 -0.0031127778 -0.027292993 -0.026931213 -0.019271607 -0.0029138748 0.00521542 -0.0080661625
0.05400573 0.015073198 0.025449432 0.01943415 -0.03437663 -0.006414514 -0.025899619 0.04425775
-0.01837513 -0.049904697 0.014866019 -0.0051446506 0.057086933 0.040263727 -0.013683869 0.0178485
-0.023069324 -0.021757314 -0.026605535 -0.014416962 -0.06426341 -0.0025520115 -0.011897137 0.04307034
0.004991191 -0.035732828 0.013902591 -0.020083912 0.04554517 -0.0011196245 0.04839522 0.009086953
-0.036173087 -0.057285294 0.037693065 0.031731047 -0.04666795 0.022771735 0.056408178 -0.06028399
0.012137328 0.06551909 -0.045325268 0.019433655 -0.05121676 0.0062663434 0.012424016 -0.036447812
-0.008860513 -0.012726339 -0.014986341 -0.021937905 -0.03377022 -0.037214044 -0.052106116 0.035066564
-0.03741897 0.009265509 0.0025706042 -0.030643275 0.0025765598 -0.0036388638 0.04212562 0.024161462
0.041962355 -0.0016154522 0.056130454 0.045022592 -0.008022915 -0.00070799165 0.022301754 0.009035057
-0.047753718 -0.015745047 -0.020048775 0.027436012 0.04159047 0.03309355 -0.040401183 -0.0068502566
0.01205773 0.06145196 -0.05122413 0.05644702 0.0070746285 0.031568926 -0.05550479 -0.037341196
0.018524129 0.009336365 0.056031037 0.05851214 -0.01791166 -0.014016058 -0.0075827404 0.00012314682
-0.024904529 0.012877476 0.01373041 -0.0027041326 0.022256697 0.018708935 0.029705996 0.05940228
0.029213889 0.027878564 -0.022566603 0.02313488 -0.008747746 -0.05358726 -0.011252421 0.0022459258
-0.02289224 0.020518538 -0.038892437 0.031635724 0.022341264 -0.05102672 0.021866258 0.022704443
0.0066923136 0.020039426 -9.448289e-05 0.049740605 -0.043902926 -0.008290073 0.029343363 0.023683602
-0.015526049 0.046456397 0.0045058797 0.015478332 -0.018236343 0.05109319 -0.06472485 0.03850987
-0.010497752 0.026406016 0.0439159 -0.0431576 -0.058704544 -0.007637008 -0.053820953 -0.013780431
0.04480624 -0.01966676 -0.018215623 0.04371646 0.00713949 -0.012365953 -0.040986143 0.042946808
0.040063273 -0.007632381 0.02213657 -0.031096037 -0.04719685 0.027974956 -0.0072414717 -0.026607206
-0.019266501 -0.0323734 0.015622505 -0.021007841 -0.021640947 0.035832725 0.030739423 0.009150613
0.04002781 -0.07125944 -0.0381852 -0.0245066 0.015925651 -0.0015696825 0.058094986 0.034036018
-0.031122638 -0.043850616 0.051063664 -0.048480842 -0.057453968 0.07198092 -0.02160799 0.032497693
0.022551224 0.01956633 0.05212513 0.05718027 0.027045432 0.0100942645 0.00016849964 0.009726633
-0.023783166 0.010474502 -0.02045178 -0.05628947 -0.058854707 0.023073275 -0.004162485 0.03676728
0.031957813 0.00864709 -0.040193003 0.032801308 -0.012713118 0.0052310238 -0.04669015 0.027358517
00000000: 94d0 80bc 4bbc c4bc d43f 9038 fed8 46bc
00000010: fc59 03bd bc0e ff3c 7e1c 44bd d8e4 d73a
00000020: 7dd8 a0ba a0de 1d3d 9922 f9bc 2890 14bc
00000030: 60b1 133d 72f4 2abd ec16 3b3d 8bc9 5ebc
00000040: 4923 45bc 249c 9c3a cfba 4e3d c44a 003d
00000050: 7de6 f13c b6de 04bd 1af5 5d3d a9ed 873c
00000060: 1785 153c 2f66 2ebd 447e 8dbc 8eaf 43b8
00000070: 769b 6abc d17a df3c 0f44 333d 3a3a 303c
00000080: 4122 1d3d 2c57 08bc 875c 203c 2144 663d
00000090: 7652 78bd 5841 e23c 1d92 333d fbbf 2b3c
000000a0: 44af 7dbc bfff 4bbb 8e95 dfbc d99e dcbc
000000b0: 7ddf 9dbc b5f6 3ebb 1de6 aa3b f027 04bc
000000c0: 1d35 5d3d 93f5 763c 547b d03c 5e34 9f3c
000000d0: 82ce 0cbd d830 d2bb 702b d4bc 9d47 353d
000000e0: 7187 96bc de68 4cbd 9a90 733c 7594 a8bb
000000f0: fdd3 693d 94eb 243d 4e32 60bc 0437 923c
00000100: e1fb bcbc 653c b2bc daf3 d9bc 1f35 6cbc
00000110: 899c 83bd a63f 27bb 36ec 42bc 866a 303d
00000120: 258d a33b 965c 12bd b1c7 633c 0487 a4bc
00000130: 928d 3a3d 5dc0 92ba 113a 463d 71e1 143c
00000140: 3b2a 14bd fca3 6abd 0b64 1a3d 6af8 013d
00000150: e426 3fbd ca8b ba3c 430c 673d 58ec 76bd
00000160: a5db 463c df2e 863d fda6 39bd 5433 9f3c
00000170: aac8 51bd e655 cd3b 1a8e 4b3c 4d4a 15bd
00000180: af2b 11bc 2282 50bc 4589 75bc 1fb7 b3bc
00000190: a452 0abd c16d 18bd 396d 55bd f5a1 0f3d
000001a0: a244 19bd 5dce 173c 9577 283b 9b07 fbbc
000001b0: 80db 283b 017a 6ebb ea8b 2c3d 42ee c53c
000001c0: b8e0 2b3d 95bd d3ba 0ce9 653d 9c69 383d
000001d0: 8b72 03bc 8498 39ba 2bb2 b63c c707 143c
000001e0: 6799 43bd c2fb 80bc 543d a4bc 7dc1 e03c
000001f0: c55a 2a3d 1a8d 073d b67b 25bd 1e78 e0bb
00000200: c98d 453c 0db5 7b3d 65d0 51bd fe34 673d
00000210: 49d2 e73b 6b4e 013d fe58 63bd 15f3 18bd
00000220: eabf 973c 8ef7 183c cd80 653d 6daa 6f3d
00000230: 79bb 92bc 9ca3 65bc a378 f8bb f920 0139
00000240: 9504 ccbc 0dfc 523c 83f5 603c d137 31bb
00000250: ad53 b63c 7b43 993c fd59 f33c ce4f 733d
00000260: f751 ef3c 9661 e43c 99dd b8bc 5c85 bd3c
00000270: b552 0fbc 517e 5bbd 135c 38bc 6230 133b
00000280: 8288 bbbc 7e16 a83c ad4d 1fbd 7694 013d
00000290: 0705 b73c 6501 51bd de20 b33c abfe b93c
000002a0: 324b db3b b929 a43c 1e25 c6b8 cebc 4b3d
000002b0: 8ed3 33bd 16d3 07bc 7e61 f03c 1d04 c23c
000002c0: f860 7ebc 1049 3e3d 0fa6 933b d498 7d3c
000002d0: 6264 95bc 1847 513d 768e 84bd 87bc 1d3d
000002e0: c3fe 2bbc 6e51 d83c 29e1 333d 06c6 30bd
000002f0: 2d74 70bd de3f fabb 5c73 5cbd 51c7 61bc
00000300: bf86 373d 2f1c a1bc ee38 95bc 0810 333d
00000310: 62f2 e93b 919a 4abc 16e1 27bd fee8 2f3d
00000320: 6319 243d 0d19 fabb c157 b53c 1ebd febc
00000330: 7c51 41bd bc2b e53c de49 edbb 5bf7 d9bc
00000340: c8d4 9dbc f899 04bd 89f5 7f3c a318 acbc
00000350: 5b48 b1bc 56c5 123d 3ed1 fb3c 74ec 153c
00000360: 33f4 233d 78f0 91bd 1668 1cbd 11c2 c8bc
00000370: 8376 823c cebd cdba 02f5 6d3d 5a69 0b3d
00000380: e7f4 febc b49c 33bd 2228 513d d993 46bd
00000390: da54 6bbd bc6a 933d 3d03 b1bc 4d1c 053d
000003a0: 58bd b83c 9149 a03c 2981 553d dc35 6a3d
000003b0: 628e dd3c 6a62 253c 47af 3039 755c 1f3c
000003c0: ead4 c2bc 3f9d 2b3c 7e8a a7bc ca8f 66bd
000003d0: a211 71bd 2a04 bd3c 7465 88bb 4a99 163d
000003e0: 32e6 023d 86ac 0d3c 6ba1 24bd aa5a 063d
000003f0: af4a 50bc 0269 ab3b 2c3e 3fbd f81e e03c

layers.6.bias f4 [64]
-0.0592915 0.04238387 0.017732896 0.051904816 0.03261783 0.053357877 0.012838044 0.009729812
0.008434375 -0.020739416 0.0052464656 0.06305255 -0.023586012 0.00030121507 -0.0633879 0.018494977
-0.05097579 0.030796846 -0.0376822 -0.0055111777 -0.021836605 0.012216534 -0.0056630936 -0.021689948
-0.0679621 0.021541912 0.04967202 -0.05403793 0.021678708 -0.044401396 -0.04288724 -0.031641588
0.05723469 -0.029128423 -0.00699077 0.035229538 0.04801836 0.047073975 0.001146824 0.019372854
-0.03798075 0.048454307 0.028346147 0.036161065 0.08066426 -0.034924664 -0.03850799 0.070474856
-0.029302321 0.084212534 -0.03600997 -0.025876556 0.04825443 -0.0044068308 -0.058135957 0.01000647
0.0029958233 0.045084927 -0.023886481 -0.047358796 0.002559661 -0.019720685 0.040315993 0.054583497
00000000: a5db 72bd b59a 2d3d 9444 913c 259a 543d
00000010: 469a 053d ca8d 5a3d a956 523c ca69 1f3c
00000020: 5530 0a3c b5e5 a9bc 8bea ab3b b221 813d
00000030: 7437 c1bc 67ec 9d39 84d1 81bd c782 973c
00000040: fdcb 50bd ab49 fc3c a758 1abd 1c97 b4bb
00000050: aee2 b2bc dc27 483c 7991 b9bb 1eaf b1bc
00000060: b72f 8bbd aa78 b03c e374 4b3d e056 5dbd
00000070: 8c97 b13c 3dde 35bd 88aa 2fbd 9c9a 01bd
00000080: ec6e 6a3d bb9e eebc d412 e5bb d94c 103d
00000090: e6ae 443d a4d0 403d 0751 963a d2b3 9e3c
000000a0: b491 1bbd 0678 463d 2e36 e83c a01d 143d
000000b0: 4e33 a53d 2a0d 0fbd 8eba 1dbd 1f55 903d
000000c0: 6c0b f0bc 9f77 ac3d 317f 13bd 12fb d3bc
000000d0: 70a6 453d 2d67 90bb f81f 6ebd 2df2 233c
000000e0: 9355 443b f9aa 383d 95ad c3bc 4cfb 41bd
000000f0: fcbf 273b 468d a1bc 6222 253d f292 5f3d

layers.8.weight f4 [64, 64, 3, 3]
-0.020674963 -0.020907434 0.01057182 -0.012817306 -0.026735244 0.014356141 -0.0255715 -0.022345087
-0.0119188605 0.017073898 -0.040684428 -0.008807545 0.020062845 0.018343288 0.014536554 0.009788141
-0.042328857 0.0062871007 -0.02587234 -0.0015495539 0.013061946 0.03411255 0.033899564 -0.025192104
-0.0055304756 0.032103334 0.02598502 -0.036453433 0.018720854 -0.046914753 -0.014783826 -0.014398645
-0.020316644 -0.001413754 -0.009374722 0.040952154 0.0067150546 0.0021829486 -0.019132212 -0.026891544
0.01159402 0.02172114 0.024281137 -0.0132285375 -0.036777344 0.02361081 0.02077064 -0.031151304
-0.022031168 0.031033037 -0.0024359105 -0.03142684 0.01657708 0.0033200637 -0.025228987 0.023016334
0.020169621 -0.01090365 -0.02086883 0.014667599 -0.0034914333 0.008686353 -0.017250966 -0.0006272353
0.020120127 0.027196467 0.039244045 0.0013023892 0.03451239 0.011624418 0.010402696 0.0016191534
0.0015960574 -0.020894941 -0.021695642 -0.008638315 -0.026014294 0.008636579 0.0071123727 0.0012888613
-0.010705196 -0.02473947 0.03810753 0.026726322 0.0054189614 0.03538528 -0.021601902 -0.007954197
0.010339807 -0.01604727 0.03463562 0.034230266 -0.02585793 0.03496207 -0.030093154 0.030821957
0.0063542714 -0.04250848 0.00043004184 -0.0076226275 -0.015258584 -0.04033281 0.003229045 0.008628175
0.01306534 -0.0043069455 0.031070914 0.003459234 -0.025390593 -0.035234254 -0.02792691 -0.03658734
-0.008240839 -0.026947323 -0.0090946 0.002135133 0.044296093 0.011947438 -0.0015455204 0.020791508
-0.026418043 0.02121053 0.014357912 -0.01444871 -0.05399168 -0.04302807 -0.021768166 -0.0066309823
-0.024444904 -0.017432395 -0.0116531 -0.016804697 0.015796823 0.01217526 0.038503513 0.023455655
-0.034701332 -0.04094209 0.047767993 0.007812153 0.025905166 0.027889032 0.006751189 -0.019771498
-0.04053634 0.0068575474 -0.022250362 0.00041393132 -0.034235343 0.035044167 0.038016368 0.028682126
-0.023559738 0.031521354 0.0049103033 0.016472897 -0.03504905 0.0059884344 0.004756625 0.0002123419
-0.015629942 0.015868103 -0.0056878566 0.00080499286 -0.019013308 -0.04463013 0.026422638 0.0012924984
-0.018491182 0.005771851 0.019104524 -0.005462036 0.035855133 0.038305584 -0.031359572 -0.027575316
-0.033190228 -0.004031398 0.0117179835 -0.044837028 -0.03431096 -0.0063591474 0.007830625 -0.035093736
-0.020567162 -0.008778798 0.016652374 -0.011914705 0.0012026293 -0.037119087 -0.02262662 0.018894592
-0.0034885667 0.008514213 0.0078646075 -0.0024666036 0.0068044127 0.0037964173 -0.027929224 0.010536481
-0.025482137 -0.018993387 -0.029748665 -0.010114815 -0.007847216 0.027183075 0.027177708 -0.014774468
0.038224585 -0.036155596 0.0056870366 -0.017469773 -0.0010129762 0.002730421 -0.021794207 -0.0095219
0.0062841633 0.018790325 0.0188547 -0.019780813 0.016799003 0.0016044396 0.033110652 -0.012363337
-0.028987112 -0.035373427 -0.018464485 -0.03638976 -0.009759142 -0.034855966 0.005687641 -0.040406927
0.019301044 -0.019154705 0.004071449 -0.025688104 0.020514924 -0.027302956 0.026391825 0.029837672
-0.0001427129 -0.02334567 -0.019170357 -0.03374645 0.014998554 0.018473933 -0.008453713 -0.016079016
-0.039031453 -0.017877512 -0.019426806 0.019001925 0.012848457 -0.017761543 -0.019222163 -0.045030847
00000000: 8a5e a9bc 1146 abbc 6d35 2d3c aeff 51bc
00000010: df03 dbbc 0536 6b3c 537b d1bc 0b0d b7bc
00000020: 5347 43bc 8fde 8b3c b7a4 26bd 854d 10bc
00000030: d65a a43c aa44 963c ba2a 6e3c 705e 203c
00000040: 0661 2dbd 0604 ce3b 3bf2 d3bc 671a cbba
00000050: c601 563c 9ab9 0b3d 45da 0a3d ac5f cebc
00000060: fe38 b5bb c97e 033d 89de d43c 3250 15bd
00000070: 7a5c 993c af29 40bd dc37 72bc 4be8 6bbc
00000080: 176f a6bc b64d b9ba 6f98 19bc 72bd 273d
00000090: f609 dc3b cd0f 0f3b 28bb 9cbc a84b dcbc
000000a0: d8f4 3d3c 88f0 b13c 3ce9 c63c 82bc 58bc
000000b0: d7a3 16bd 756b c13c 3027 aa3c 0531 ffbc
000000c0: b57a b4bc ff38 fe3c cca3 1fbb 6eb9 00bd
000000d0: a8cc 873c 6d95 593b 05ad cebc c08c bc3c
000000e0: c33a a53c 39a5 32bc 1cf5 aabc 5f50 703c
000000f0: 88d0 64bb 3551 0e3c e651 8dbc 0c6d 24ba
00000100: f7d2 a43c 20cb de3c 5dbe 203d eeb4 aa3a
00000110: dd5c 0d3d 5874 3e3c 1270 2a3c c639 d43a
00000120: cd32 d13a de2b abbc 0fbb b1bc b887 0dbc
00000130: ee1b d5bc 7080 0d3c e80e e93b 02ef a83a
00000140: d964 2fbc 6eaa cabc a416 1c3d 29f1 da3c
00000150: 8b91 b13b 28f0 103d 79f6 b0bc 5252 02bc
00000160: 4b68 293c 9075 83bc 14de 0d3d 0935 0c3d
00000170: 02d4 d3bc 6334 0f3d eb85 f6bc 547e fc3c
00000180: 7e37 d03b 5f1d 2ebd 3d77 e139 3cc7 f9bb
00000190: 24ff 79bc 0434 25bd 639e 533b 305d 0d3c
000001a0: 0210 563c 4721 8dbb 6e88 fe3c 51b4 623b
000001b0: efff cfbc cb51 10bd fac6 e4bc 9bdc 15bd
000001c0: 9504 07bc a2c0 dcbc 8401 15bc 96ed 0b3b
000001d0: d26f 353d 30bf 433c 0f93 caba f452 aa3c
000001e0: a76a d8bc b5c1 ad3c 733d 6b3c 48ba 6cbc
000001f0: 6126 5dbd 343e 30bd 2753 b2bc b648 d9bb
00000200: ae40 c8bc 62ce 8ebc a5ec 3ebc 01aa 89bc
00000210: 5768 813c be7a 473c dcb5 1d3d 1326 c03c
00000220: fc22 0ebd e5b2 27bd 5fa8 433d 17fd ff3b
00000230: 1237 d43c 8a77 e43c 1439 dd3b d6f7 a1bc
00000240: 6f09 26bd 47b5 e03b 6446 b6bc ec04 d939
00000250: 5c3a 0cbd 798a 0f3d 0db7 1b3d c7f6 ea3c
00000260: 5a00 c1bc 891c 013d 9ce6 a03b 2bf2 863c
00000270: 988f 0fbd a13a c43b 76dd 9b3b 18a8 5e39
00000280: 5d0a 80bc d3fd 813c 3361 babb 2806 533a
00000290: ccc1 9bbc 15ce 36bd 4a74 d83c 0d69 a93a
000002a0: d27a 97bc cc21 bd3b 1781 9c3c e1fa b2bb
000002b0: d5dc 123d 51e6 1c3d e572 00bd a1e5 e1bc
000002c0: 7af2 07bd d119 84bb c9fc 3f3c 08a7 37bd
000002d0: a689 0cbd 6560 d0bb 064c 003c 73be 0fbd
000002e0: 777c a8bc f3d4 0fbc 8f6a 883c e535 43bc
000002f0: 8ba1 9d3a 2f0a 18bd 765b b9bc d5c8 9a3c
00000300: 70a0 64bb 337f 0b3c 8eda 003c bea6 21bb
00000310: 8df7 de3b 50cd 783b d4cb e4bc 34a1 2c3c
00000320: eabf d0bc 0598 9bbc 79b3 f3bc 9cb8 25bc
00000330: 9c91 00bc 0aaf de3c c9a3 de3c 9c10 72bc
00000340: 6291 1c3d e417 14bd 525a ba3b c51c 8fbc
00000350: d7c5 84ba ddf0 323b c489 b2bc be01 1cbc
00000360: 62eb cd3b 2bee 993c 2c75 9a3c 5f0b a2bc
00000370: 109e 893c 0f4c d23a 099f 073d 988f 4abc
00000380: 6176 edbc bae3 10bd d542 97bc 6e0d 15bd
00000390: cfe4 1fbc 21c5 0ebd 645f ba3b bc81 25bd
000003a0: 391d 9e3c 54ea 9cbc ca69 853b dc6f d2bc
000003b0: ea0e a83c 73aa dfbc ab33 d83c 226e f43c
000003c0: 34a5 15b9 6b3f bfbc 270b 9dbc b839 0abd
000003d0: 7fbc 753c a556 973c 7181 0abc 24b8 83bc
000003e0: 72df 1fbd dc73 92bc f724 9fbc eda9 9b3c
000003f0: 5682 523c a880 91bc cc77 9dbc 4472 38bd

layers.8.bias f4 [64]
0.020935237 0.033752292 -0.039109137 -0.018194579 -0.011597428 -0.017530717 -0.047783893 -0.034690063
0.01244846 0.0002725684 -0.058403943 0.01706953 -0.028486637 0.006819121 -0.011696428 0.001350358
-0.08320368 -0.007209496 -0.025518684 -0.04378157 -0.004729019 -0.03450314 0.018230222 -0.042090707
0.025606358 0.001868369 -0.015508136 -0.046671417 0.020561295 0.02155871 -0.018584864 0.009258974
-0.058031075 0.0021686684 -0.032885667 -0.002369104 -0.042111315 -0.03900505 -0.052652467 0.015013633
-0.031050837 -0.04448349 -0.028250616 -0.027586903 0.027247313 -0.028668456 -0.043274395 0.015174851
0.0121065155 -0.04301225 0.021790521 -0.016315658 -0.03369781 0.008541846 0.0149221495 0.020964665
0.0075989566 0.005084799 0.0042816144 -0.047154307 0.023833508 -0.002880848 -0.046794496 -0.021100722
00000000: 6080 ab3c d83f 0a3d e730 20bd cc0c 95bc
00000010: 2303 3ebc 949c 8fbc 0bb9 43bd 2b17 0ebd
00000020: a0f4 4b3c 83e7 8e39 f938 6fbd 66d5 8b3c
00000030: cf5c e9bc ef72 df3b 60a2 3fbc 7ffe b03a
00000040: b166 aabd a33d ecbb 8f0c d1bc 4e54 33bd
00000050: e3f5 9abb 2a53 0dbd 8c57 953c 4e67 2cbd
00000060: 6dc4 d13c 10e4 f43a d615 7ebc 872a 3fbd
00000070: 2970 a83c e49b b03c 493f 98bc f4b2 173c
00000080: feb1 6dbd 3820 0e3b 1fb3 06bd f842 1bbb
00000090: ea7c 2cbd c2c3 1fbd 1daa 57bd befb 753c
000000a0: 535e febc 5234 36bd d66d e7bc eefd e1bc
000000b0: c235 df3c 1cda eabc 7e40 31bd f09f 783c
000000c0: 685a 463c 9d2d 30bd 0982 b23c 6aa8 85bc
000000d0: b706 0abd 19f3 0b3c 087c 743c 17be ab3c
000000e0: ab00 f93b 639e a63b c94c 8c3b e024 41bd
000000f0: 7d3e c33c 9ccc 3cbb 96ab 3fbd 6cdb acbc

layers.10.weight f4 [64]
1.002105 1.0010796 1.0113344 1.0141282 0.99819744 1.0063332 1.0193105 1.0284209
1.0035913 1.0084591 1.0156984 1.0110317 1.0148122 0.9970378 1.0134557 1.0046041
1.0418587 1.0001378 1.0204729 1.0198965 1.0142876 1.0129848 0.99989796 1.0157472
1.0041755 1.004999 1.009683 1.0174432 1.03625 1.0027736 1.0088743 0.9930488
1.0101142 1.0216398 1.0024045 0.9968313 1.026582 1.0073671 1.0293458 1.0072272
1.0130098 1.012207 1.0011063 0.9963835 1.0146273 1.0138699 1.0117253 0.9970057
1.0222385 0.9983565 1.0109324 1.0252631 1.0097188 1.0006677 0.99756575 1.0198959
1.0232762 1.0182458 1.0132445 1.0183786 1.0104944 0.99924916 1.0078837 0.9928414
00000000: fa44 803f 6023 803f 6873 813f f4ce 813f
00000010: de89 7f3f 87cf 803f c478 823f 4ca3 833f
00000020: ae75 803f 3015 813f 6802 823f 7d69 813f
00000030: 5ee5 813f df3d 7f3f ebb8 813f de96 803f
00000040: a05b 853f 8404 803f db9e 823f f88b 823f
00000050: 2dd4 813f 7ca9 813f 50f9 7f3f 0104 823f
00000060: d388 803f cfa3 803f 4b3d 813f 943b 823f
00000070: d7a3 843f e35a 803f cb22 813f 7238 7e3f
00000080: 6c4b 813f 18c5 823f ca4e 803f 5630 7f3f
00000090: 0a67 833f 68f1 803f 9ac1 833f d2ec 803f
000000a0: 4eaa 813f 0090 813f 4024 803f fd12 7f3f
000000b0: 4fdf 813f 7dc6 813f 3780 813f c43b 7f3f
000000c0: b6d8 823f 4b94 7f3f 3c66 813f d23b 833f
000000d0: 773e 813f e115 803f 7860 7f3f f38b 823f
000000e0: b7fa 823f e155 823f ffb1 813f 3b5a 823f
000000f0: e157 813f cbce 7f3f 5502 813f db2a 7e3f

layers.10.bias f4 [64]
-0.01134496 -0.015357375 -0.016710734 -0.026295029 -0.0012294279 -0.014148222 -9.7364e-05 -0.01359526
-0.024424562 0.00321579 -0.010895372 -0.00970488 -0.002184731 -0.007837739 0.014746732 -0.0053741145
0.013252442 0.018887648 0.005807084 -0.016760334 0.006836616 -0.0012009653 -0.006457578 0.018795995
-0.015164785 0.0093602445 -0.020545915 -0.0061098738 -0.009499702 -0.0015088285 -0.013127656 -0.0144780865
-0.011235989 -0.004022425 0.00587328 -0.011783498 -0.0023376732 -0.015452482 -0.032038372 0.0057558645
-0.0073025045 -0.0056277867 -0.042234838 -0.0026554384 -0.011716399 0.014442463 0.029472688 -0.008754533
-0.012991988 -0.00058427075 -0.011209961 -0.00025712198 0.015687281 0.015529331 0.011484629 -0.016968394
-0.025408095 -0.006002087 0.019383213 0.0037555415 0.004377398 -0.012972067 -0.013485427 0.012755674
00000000: 36e0 39bc 809d 7bbc f3e4 88bc ac68 d7bc
00000010: c124 a1ba f2cd 67bc e62f ccb8 a7be 5ebc
00000020: 0516 c8bc 01c0 523b 8182 32bc 3801 1fbc
00000030: b42d 0fbb dc69 00bc 479c 713c 5719 b0bb
00000040: c520 593c 45ba 9a3c 5a49 be3b f84c 89bc
00000050: b105 e03b b569 9dba 179a d3bb 0ffa 993c
00000060: b875 78bc b65b 193c e84f a8bc 5635 c8bb
00000070: a3a4 1bbc e2c3 c5ba 6115 57bc 7f35 6dbc
00000080: 2717 38bc 8cce 83bb a574 c03b 930f 41bc
00000090: a633 19bb 682c 7dbc ab3a 03bd b19b bc3b
000000a0: d949 efbb 4c69 b8bb 70fe 2cbd dd06 2ebb
000000b0: 24f6 3fbc 15a0 6c3c b570 f13c 2c6f 0fbc
000000c0: 59dc 54bc bf29 19ba fca9 37bc 54ce 86b9
000000d0: 9d82 803c bc6e 7e3c 062a 3c3c 4d01 8bbc
000000e0: a324 d0bc 28ad c4bb 8bc9 9e3c 881f 763b
000000f0: 4770 8f3b cb88 54bc fbf1 5cbc 2dfd 503c

layers.10.running_mean f4 [64]
-0.037827544 0.25420448 0.09064104 -0.01503072 -0.057598144 0.07536214 -0.12336595 0.10618366
0.06370219 -0.02242046 -0.05542172 0.12287303 -0.16132444 0.034151435 -0.051827706 -0.012018695
-0.14578147 0.017137516 0.0006581779 0.045315705 -0.04622303 -0.07380699 0.075532846 -0.08331717
0.1206878 -0.12088617 0.030639235 0.0709126 0.28589344 0.118520625 -0.017771853 -0.03633137
-0.097748235 0.13204633 0.095565885 0.07782349 -0.0008553761 -0.010702907 0.16106117 -0.03267734
0.20477946 -0.016558338 0.004136713 -0.050234564 0.22779904 0.07868328 -0.14735454 0.16631226
0.15116993 -0.08322761 0.19102784 0.08447767 -0.066463016 0.031987164 -0.0316928 0.24479143
0.2094104 0.11795094 -0.09317938 -0.004606268 -0.09755482 -0.022706281 -0.041619692 0.09433382
00000000: 0ef1 1abd 1727 823e 02a2 b93d 6943 76bc
00000010: 08ec 6bbd 7757 9a3d 4aa7 fcbd d276 d93d
00000020: 4b76 823d 1dab b7bc e301 63bd dba4 fb3d
00000030: 3c32 25be 60e2 0b3d 4a49 54bd 0fea 44bc
00000040: bd47 15be fa63 8c3c 9289 2c3a f69c 393d
00000050: 5c54 3dbd 1f28 97bd f7b0 9a3d 31a2 aabd
00000060: 2a2b f73d 2b93 f7bd 22ff fa3c a03a 913d
00000070: a060 923e f1ba f23d 4796 91bc 34d0 14bd
00000080: 3a30 c8bd 2737 073e 0cb8 c33d ec61 9f3d
00000090: 523b 60ba 3f5b 2fbc 38ed 243e add8 05bd
000000a0: b5b1 513e 5aa5 87bc 448d 873b c2c2 4dbd
000000b0: 2744 693e b324 a13d 1ce4 16be c34d 2a3e
000000c0: 4acc 1a3e 3d73 aabd cd9c 433e a102 ad3d
000000d0: c31d 88bd f904 033d 4fd0 01bd 9baa 7a3e
000000e0: ae6f 563e 4390 f13d d5d4 bebd 2df0 96bb
000000f0: d2ca c7bd 8602 babc 6979 2abd 1732 c13d

layers.10.running_var f4 [64]
0.03417919 0.05817894 0.033882238 0.0353062 0.026441295 0.04510318 0.02266764 0.044121
0.04555706 0.032441404 0.033279605 0.038678236 0.022019874 0.033152968 0.0303284 0.036004487
0.026701527 0.031565554 0.03252951 0.037821446 0.034878865 0.034280565 0.056357525 0.023660397
0.041941397 0.022776328 0.039294977 0.04364269 0.06936357 0.039977033 0.032810625 0.024236118
0.027153239 0.05100337 0.037132025 0.03654221 0.044710495 0.03000867 0.033404786 0.032262698
0.03511548 0.036103263 0.047038544 0.030177124 0.054297067 0.046488807 0.02203285 0.054489464
0.042524315 0.02723739 0.058750328 0.038877767 0.0266863 0.03853419 0.032048777 0.05281977
0.05704165 0.04035704 0.027911276 0.030834628 0.025387729 0.02850937 0.03137653 0.048430327
00000000: 7aff 0b3d 0a4d 6e3d 1ac8 0a3d 3c9d 103d
00000010: 6a9b d83c 1dbe 383d 7db1 b93c 39b8 343d
00000020: 0a9a 3a3d 47e1 043d 3250 083d 126d 1e3d
00000030: 0663 b43c 68cb 073d 4473 f83c 7179 133d
00000040: 29bd da3c e24a 013d aa3d 053d a9ea 1a3d
00000050: 24dd 0e3d c769 0c3d 26d7 663d 73d3 c13c
00000060: beca 2b3d 6c95 ba3c c5f3 203d adc2 323d
00000070: 7d0e 8e3d f5be 233d 6f64 063d d38a c63c
00000080: 7870 de3c e9e8 503d c017 183d 49ad 153d
00000090: 5a22 373d bed4 f53c 75d3 083d e425 043d
000000a0: 40d5 0f3d 04e1 133d 7dab 403d 0436 f73c
000000b0: 9a66 5e3d 0c6b 3e3d 3c7e b43c 5830 5f3d
000000c0: fa2d 2e3d f220 df3c 2fa4 703d 4b3e 1f3d
000000d0: 3a9d da3c 07d6 1d3d 9445 033d 8b59 583d
000000e0: 81a4 693d 6c4d 253d 30a6 e43c e798 fc3c
000000f0: edf9 cf3c 7b8c e93c ad84 003d e15e 463d

layers.13.weight f4 [10, 576]
0.04197841 0.035722062 -0.002262185 0.009688349 0.009883012 -0.019583704 0.041740872 0.034320746
0.037212756 -0.024031049 -0.03506064 -0.038889814 -0.036375996 0.03389645 -0.02735048 0.046615858
0.051147964 -0.02794098 0.020021597 -0.028170798 0.025224114 0.040942036 -0.031398967 -0.039647035
0.018553099 -0.046622567 -0.0021095907 -0.0007188171 0.0091839 0.021872582 0.010468003 -0.009869429
-0.040381342 -0.017439965 0.01826043 -0.024355598 0.032668736 -0.017445039 -0.009803978 -0.0056659197
0.028495599 -0.02935747 0.013915731 0.025377275 0.02497303 0.0061974623 -0.022564424 -0.013979883
0.015148633 -0.0056049027 0.0054200944 -0.040090647 0.017960366 0.015066739 0.038659994 -0.030374462
-0.0010470534 0.010245804 0.026418371 0.0221242 0.031207614 0.034226865 0.005487168 -0.009095279
0.021492142 0.03161123 -0.0080143 0.027067441 -0.0009777109 0.05196548 0.042542044 0.013759446
-0.004048188 -0.029044287 0.048861366 -0.043873027 -0.021831317 0.043048486 -0.028228253 0.033996567
-0.009863835 -0.03387505 0.01967255 0.02695662 -0.022172498 0.031656303 -0.035139777 0.009273451
-0.016373113 -0.018430447 -0.03213671 -0.018389551 -0.0027170642 -0.034242813 -0.01352035 0.03055275
0.053185266 0.023226803 0.038867272 0.029755004 -0.012669776 -0.038698863 0.036493417 -0.0019108643
0.021487659 -0.009547646 -0.031191243 0.042889103 -0.021212844 -0.0041103098 0.022421615 -0.01874629
-0.022592941 0.024253156 -0.01725804 0.006726868 0.0020800838 0.0031795532 -0.03017026 -0.033833425
-0.03297179 -0.024454182 -0.009450466 0.012691336 0.009784092 -0.015967168 -0.0103583075 0.016524399
0.003723977 0.011170856 0.017509682 0.011039777 -0.036734093 -0.033613972 -0.0023977773 0.030364312
-0.044862784 -0.024830118 0.0041517424 0.036528848 -0.0025495666 0.0052876314 -0.032347437 -0.017901022
0.008723467 -0.010363885 0.029957023 0.027624117 0.030727183 0.032122325 -0.030137163 0.0340598
0.027669495 -0.001130377 -0.020364985 -0.023086632 -0.01569152 -0.021876657 0.036974307 -0.0049440498
-0.027304428 0.0089347605 0.04299854 -0.028671222 -0.011549442 -0.0012226619 -0.014927639 -0.023640735
0.016250122 -0.00895609 -0.023977274 0.004196225 -0.00088353746 -0.040102784 -0.049208768 0.013405475
-0.008449687 -0.044813953 -0.0300739 0.033512488 -0.012688008 -0.007520566 0.018369274 -0.010809624
0.007936062 -0.004563362 -0.017763011 0.03626644 0.029338216 0.0024904117 -0.018156316 -0.027261274
0.036706425 0.030160466 -0.03773145 0.017353619 0.015131346 0.026546843 0.039885484 0.026443388
0.026152099 -0.010474161 -0.038438734 0.01984102 -0.046693508 0.013513004 -0.014804857 -0.043293227
0.0014880043 -0.018755741 -0.014291777 0.024358634 -0.0049196826 -0.027918115 -0.028162835 0.04506094
-0.023256559 0.025124848 -0.023882674 -0.0003832296 0.0057467488 -0.024722181 -0.014713326 0.0058765165
-0.009503775 -0.014465431 -0.027385823 0.018172234 0.0048357192 0.0073297382 0.02897503 0.020746019
-0.014723011 0.03491427 0.0003789501 -0.018383903 0.00056536857 0.033355564 -0.032354116 0.00049102074
-0.01560747 -0.01410597 -0.031812716 -0.006195915 -0.030629007 -0.021681625 0.034431886 0.043096393
0.0382199 0.06431144 0.054305356 0.027675912 0.042833183 0.017616123 0.01361049 -0.020951543
00000000: 8ef1 2b3d 4c51 123d 2b41 14bb e2bb 1e3c
00000010: 5bec 213c 016e a0bc 7af8 2a3d e993 0c3d
00000020: 676c 183d c3dc c4bc bf9b 0fbd ed4a 1fbd
00000030: fffe 14bd 01d7 0a3d 1d0e e0bc 45f0 3e3d
00000040: 8780 513d 7be4 e4bc 5504 a43c 72c6 e6bc
00000050: cda2 ce3c d6b2 273d 349c 00bd ee64 22bd
00000060: abfc 973c 4ef7 3ebd 0f41 0abb 006f 3cba
00000070: 1278 163c 212e b33c fd81 2b3c 63b3 21bc
00000080: e866 25bd 42de 8ebc e696 953c 6485 c7bc
00000090: a7cf 053d e6e8 8ebc dda0 20bc 2ea9 b9bb
000000a0: 9a6f e93c 147f f0bc cefe 633c 01e4 cf3c
000000b0: 3d94 cc3c 1514 cb3b 07d9 b8bc e10b 65bc
000000c0: f931 783c 55a9 b7bb 0c9b b13b 1736 24bd
000000d0: 9e21 933c 7cda 763c f159 1e3d ddd3 f8bc
000000e0: 483d 89ba 04de 273c 576b d83c cf3d b53c
000000f0: 1ca7 ff3c 7831 0c3d b4cd b33b 5d04 15bc
00000100: 4a10 b03c c77a 013d 694e 03bc 8abc dd3c
00000110: 8926 80ba c1d9 543d 9140 2e3d 4d6f 613c
00000120: aaa6 84bb 49ee edbc db22 483d 34b4 33bd
00000130: 97d7 b2bc 9c53 303d f03e e7bc fc3f 0b3d
00000140: ec9b 21bc 90c0 0abd 5428 a13c 21d4 dc3c
00000150: 19a3 b5bc 0aaa 013d baee 0fbd acef 173c
00000160: e820 86bc 73fb 96bc c8a1 03bd afa5 96bc
00000170: c610 32bb 3142 0cbd 7584 5dbc c349 fa3c
00000180: cbd8 593d 2346 be3c 4a33 1f3d c4c0 f33c
00000190: e494 4fbc b382 1ebd 1f7a 153d f775 faba
000001a0: e306 b03c bb6d 1cbc c784 ffbc 7cac 2f3d
000001b0: 8fc6 adbc c7af 86bb 89ad b73c d291 99bc
000001c0: d514 b9bc 8eae c63c bc60 8dbc 0f6d dc3b
000001d0: 0452 083b 0d60 503b 9f27 f7bc eb94 0abd
000001e0: 6d0d 07bd 2354 c8bc 21d6 1abc 52ef 4f3c
000001f0: 754d 203c 94cd 82bc e4b5 29bc 2d5e 873c
00000200: f70d 743b f705 373c 7770 8f3c 2ee0 343c
00000210: 7d76 16bd ceae 09bd 0724 1dbb 94be f83c
00000220: 0ac2 37bd 8868 cbbc 570b 883b 469f 153d
00000230: a116 27bb de43 ad3b bf7e 04bd 2aa5 92bc
00000240: dfec 0e3c 49cd 29bc 6e68 f53c f94b e23c
00000250: 93b7 fb3c b392 033d 36e2 f6bc 4a82 0b3d
00000260: 23ab e23c 2829 94ba 78d4 a6bc 2d20 bdbc
00000270: 818b 80bc ad36 b3bc 5f72 173d b201 a2bb
00000280: 89ad dfbc 1a63 123c 3d1f 303d e9df eabc
00000290: df39 3dbc ba41 a0ba 0e93 74bc 37aa c1bc
000002a0: fa1e 853c 90bc 12bc fd6b c4bc 7d80 893b
000002b0: 329d 67ba d142 24bd 228f 49bd a3a2 5b3c
000002c0: 8e70 0abc d68e 37bd 8a5d f6bc 6444 093d
000002d0: 5de1 4fbc 156f f6bb 297b 963c d91a 31bc
000002e0: 4206 023c 4188 95bb bc83 91bc 1e8c 143d
000002f0: b356 f03c 2d36 233b 8ebc 94bc 0953 dfbc
00000300: 7a59 163d 1513 f73c 4b8c 1abd 2d29 8e3c
00000310: 77e9 773c c478 d93c f65e 233d ce9f d83c
00000320: ed3c d63c d19b 2bbc ef71 1dbd a389 a23c
00000330: b141 3fbd a665 5d3c 1290 72bc 3d54 31bd
00000340: 2409 c33a a4a5 99bc 0f28 6abc c28b c73c
00000350: 4a35 a1bb 88b4 e4bc bfb5 e6bc d291 383d
00000360: 8a84 bebc a0d2 cd3c 99a5 c3bc 35ec c8b9
00000370: 394f bc3b 2c86 cabc 2910 71bc cb8f c03b
00000380: b9b5 1bbc 6a00 6dbc 3c58 e0bc f0dd 943c
00000390: f474 9e3b 4d2e f03b 0b5d ed3c 8ef3 a93c
000003a0: c938 71bc 4402 0f3d d2ad c639 d799 96bc
000003b0: 3e35 143a d89f 083d c085 04bd d8b7 003a
000003c0: 79b6 7fbc ba1c 67bc 0d4e 02bd 1a07 cbbb
000003d0: afe9 fabc aa9d b1bc 7308 0d3d d885 303d
000003e0: 788c 1c3d b7b5 833d 4b6f 5e3d 98b8 e23c
000003f0: d971 2f3d b04f 903c 88fe 5e3c 92a2 abbc

layers.13.bias f4 [10]
0.00752442 0.07521425 0.060681645 -0.057523575 -0.02380899 -0.006342661 0.0406375 0.0018234019
0.0004976378 -0.046506375
00000000: 698f f63b ee09 9a3d 518d 783d d79d 6bbd
00000010: 120b c3bc 19d6 cfbb 8273 263d 37ff ee3a
00000020: e873 023a 787d 3ebd
