mnist_convnet/mnist_convnet.safetensors (safetensors, 353816 bytes, 18 tensors)

layers.0.weight f4 [32, 1, 5, 5]
0	0x3dc449c1	0.0958438
1	0x3da00f41	0.078154095
2	0x3da2fe80	0.07958698
3	0xbde87b73	-0.11351671
4	0xbe59a700	-0.21255112
5	0x3dfc1b65	0.123099126
6	0xbd8a1a29	-0.06743271
7	0x3e2f463d	0.17116638
8	0x3e1079aa	0.14108911
9	0xbe39b33b	-0.18134777
10	0xbe101c04	-0.14073187
11	0x3d156e8d	0.036482383
12	0x3daf7ef7	0.085691385
13	0x3ce46516	0.027880233
14	0x3da44342	0.08020641
15	0x3e19754f	0.14986156
16	0xbd8b7e6f	-0.06811225
17	0xbd374a32	-0.044748493
18	0xbde13b81	-0.109976776
19	0xbdb2fdcb	-0.087398134
20	0xbc2b6eb7	-0.010463408
21	0x3dcfbd1a	0.1014349
22	0xbdaba0a5	-0.0838025
23	0xbd51abcc	-0.05118923
24	0xbe29d0c5	-0.16583546
25	0x3cb208db	0.021732738
26	0x3dc1a0cd	0.094544984
27	0x3d879925	0.06621007
28	0x3d9ca216	0.07648103
29	0xbe0300c0	-0.12793255
30	0x3e29d4e6	0.1658512
31	0xbc202a9c	-0.009775784
32	0xbc12ad0e	-0.008952392
33	0x3d1e8076	0.03869673
34	0xbde3b3dd	-0.111182906
35	0xbe10dc8d	-0.14146633
36	0x3e14043f	0.14454745
37	0x3a769283	0.0009405987
38	0xbd96b526	-0.0735877
39	0x3ce40722	0.027835432
40	0x3e1245af	0.14284395
41	0x3d3ff1cb	0.04686145
42	0x3d3ed4d5	0.04658969
43	0x3e31c35c	0.1735968
44	0x3e55dc24	0.20884758
45	0x3e487172	0.19574526
46	0xbce7f24b	-0.028313776
47	0x3e2d6ed0	0.16936803
48	0x3e2e86de	0.17043635
49	0x3cf291b7	0.029610498
50	0x3db86adc	0.09004757
51	0x3d2b152a	0.04176823
52	0xbe1f09c9	-0.15531076
53	0xbd2fb0b8	-0.04289314
54	0x3e45275f	0.192533
55	0xbdff1047	-0.124542765
56	0x3ca5ec8c	0.020254396
57	0x3e3ef7dd	0.1864924
58	0xbd25be58	-0.04046473
59	0x3da283e4	0.079353124
60	0x3e041d64	0.12901837
61	0xbd48687f	-0.04892778
62	0x3e39b208	0.1813432
63	0xbdbfc789	-0.0936423
64	0x3c1f8cb4	0.009738136
65	0xbd93f663	-0.07224729
66	0xbbcd5bd2	-0.0062670493
67	0x3b30ec68	0.0026996378
68	0x3dbd0ee7	0.09231358
69	0x3d1bc578	0.038030118
70	0x3e305eff	0.17223738
71	0xbd3d1a75	-0.04616781
72	0x3d65d03e	0.0561068
73	0xbcf6fb7f	-0.03014922
74	0xbd2f3545	-0.04277541
75	0x3dd106fb	0.102064095
76	0xbd9c1368	-0.07620889
77	0x3d889a43	0.06670048
78	0xbda665fd	-0.081249215
79	0x3e11802f	0.14209054
80	0x3d41ca51	0.047312085
81	0xbdca27e8	-0.09870893
82	0xbdabde8a	-0.08392055
83	0xbe590b0e	-0.21195623
84	0x3dbef18d	0.09323416
85	0x3ca250b9	0.019813882
86	0xbe0588fe	-0.1304054
87	0xbcf3bca9	-0.029753046
88	0xbc8d0c16	-0.017217677
89	0x3dff5e94	0.12469211
90	0xbdbfac78	-0.09359068
91	0x3d9da39d	0.076972224
92	0x3dcea8be	0.10090779
93	0x3e0e2f35	0.13885196
94	0x3c9d2ea6	0.019187283
95	0x3c4111a8	0.011783995
96	0x3b982e33	0.0046441793
97	0xbe209a0a	-0.15683761
98	0x3ce19b5f	0.027539907
99	0x3d8d87a6	0.069106385
100	0x3e1d4ea1	0.15362026
101	0xbc409d02	-0.011756184
102	0xbe326a87	-0.1742345
103	0x3e30ccdf	0.17265652
104	0xbd40b73b	-0.047049742
105	0x3d1114b5	0.03542014
106	0x3d496b01	0.049174313
107	0xbd45746a	-0.048206724
108	0x3d8fa256	0.07013385
109	0x3defcdb8	0.117091596
110	0xbd8aa9d8	-0.067706764
111	0xbe1a4d91	-0.15068652
112	0x3d23512a	0.039872326
113	0xbd36d717	-0.04463872
114	0xbda072d4	-0.07834402
115	0x3ddf50b0	0.10904062
116	0xbe09e4f8	-0.13466251
117	0xbc1d6c63	-0.009608361
118	0x3de7fe29	0.11327774
119	0xbd474f00	-0.048659325
120	0xbdabe50b	-0.08393296
121	0x3da54775	0.0807027
122	0x3e14067d	0.144556
123	0x3db2831b	0.08716413
124	0xbcbc2dd5	-0.022971073
125	0x3e0cb7d9	0.13742007
126	0x3d859058	0.06521672
127	0xbe17fb91	-0.14842059
128	0xbda61b41	-0.08110667
129	0x3dba78ca	0.0910507
130	0xbd183cad	-0.03716724
131	0x3e318383	0.17335324
132	0xbd1eca15	-0.03876694
133	0x3e097981	0.13425256
134	0x3cf91d10	0.030409366
135	0xbe3bdc07	-0.18345653
136	0xbd707f03	-0.058714878
137	0x3d4c21e6	0.049837016
138	0x3e5451c3	0.20734315
139	0x3e172cfe	0.14763257
140	0xbd70adbf	-0.058759447
141	0xbe1a73f5	-0.15083297
142	0xbe191f44	-0.14953333
143	0xbdb1cf37	-0.08682101
144	0x3dd58d36	0.104273245
145	0x3d3a7643	0.04552294
146	0x3e5f54a6	0.21809635
147	0xbe4d9026	-0.2007452
148	0xbe0ae497	-0.13563763
149	0xbe19d2b5	-0.15021785
150	0xbe0c02f6	-0.13673005
151	0x3df964bb	0.12177416
152	0x3e0ee802	0.13955691
153	0x3d895a19	0.06706638
154	0x3b11a95e	0.0022226195
155	0xbdeea809	-0.11653144
156	0x3e2e016d	0.16992731
157	0xbdb8753c	-0.09006736
158	0x3e17e8c7	0.14834891
159	0x3d50bf98	0.050963968
160	0x3e033426	0.12812862
161	0xbdf9f1e8	-0.12204343
162	0xbe34e295	-0.17664559
163	0xbe3cf03e	-0.1845102
164	0x3e0c8cdb	0.13725607
165	0xbd1e3868	-0.038628012
166	0xbe20e6a2	-0.1571298
167	0x3dc74e21	0.09731699
168	0x3c6eb3f1	0.014569269
169	0x3e693f06	0.22777948
170	0x3e5226d4	0.20522624
171	0x3e221c3e	0.15831086
172	0xbe3d665c	-0.18496078
173	0x3dac686d	0.08418355
174	0x3e2d7ffd	0.16943355
175	0x3dd7c4e7	0.10535603
176	0x3da2ec41	0.07955218
177	0xbe08944c	-0.13337821
178	0x3df4a120	0.11944795
179	0x3e0e1704	0.13875967
180	0xbdb82731	-0.0899185
181	0xbd7be92a	-0.06150166
182	0xbd927fb5	-0.071532644
183	0x3c7ae7dc	0.015314069
184	0x3e535850	0.20639157
185	0xbcf9a56b	-0.030474385
186	0xbcebc25f	-0.028779207
187	0x3d83b6e9	0.06431372
188	0xbe03c77e	-0.12869069
189	0xbde13dc1	-0.10998107
190	0x3de787fd	0.113052346
191	0x3860f852	5.3637028e-05
192	0x3e04d0b0	0.12970233
193	0xbe223aed	-0.15842791
194	0xbde18b5b	-0.11012908
195	0x3e1a2650	0.15053678
196	0xbe0b13ee	-0.13581821
197	0xbdf00713	-0.11720099
198	0x3e2114d2	0.15730599
199	0xbe3ed0f2	-0.18634394
200	0xbd1846a0	-0.03717673
201	0xbd6c09a5	-0.057626385
202	0xbe07db3e	-0.13267228
203	0x3cdd4d4a	0.027014393
204	0xbd6bccc8	-0.05756834
205	0xbd66deda	-0.05636487
206	0xbdf4a038	-0.11944622
207	0xbd5240d2	-0.05133135
208	0xbd360b4c	-0.044444367
209	0xbd2e82b2	-0.04260511
210	0xbd0fb2f1	-0.03508276
211	0xbdd2d500	-0.10294533
212	0x3d7086c4	0.058722273
213	0x3e272259	0.16321696
214	0xbd76c799	-0.060248945
215	0x3aeafe56	0.0017928581
216	0x3e3139f8	0.1730727
217	0x3e215dee	0.15758488
218	0xbd96da40	-0.07365847
219	0xbdc7a44b	-0.09748133
220	0x3c244af4	0.010027636
221	0x3e2901d0	0.16504598
222	0x3d219ca1	0.039456014
223	0x3e0f842e	0.14015266
224	0xbe17ee70	-0.1483705
225	0x3cfd0186	0.030884515
226	0xbdca1953	-0.098681115
227	0x3b16ef27	0.002303073
228	0xbd28cca6	-0.041210793
229	0x3c9882d0	0.018617064
230	0x3e1d7a18	0.15378606
231	0xbd2eaceb	-0.042645376
232	0x3df60cd3	0.12014165
233	0xbd83b92f	-0.06431805
234	0xb985a42c	-0.00025490054
235	0xbd55bf56	-0.052184425
236	0xbe3d2ff5	-0.18475325
237	0x3c92a134	0.017899133
238	0x3e416d0c	0.18889254
239	0x3e088caa	0.13334909
240	0x3e4bd64b	0.19905965
241	0xbe49470f	-0.19656013
242	0x3e21b96e	0.15793392
243	0xbe123f12	-0.14281872
244	0xbd9ebeca	-0.07751234
245	0xbdfee72f	-0.124464385
246	0x3e23122b	0.159249
247	0x3e10e648	0.14150345
248	0xbd88e860	-0.06684947
249	0x3d68e188	0.05685571
250	0x3df78be8	0.12087232
251	0x3e5600a9	0.2089869
252	0x3d2a1d30	0.04153174
253	0x3e3cd4b3	0.18440513
254	0xbdb7178e	-0.089400396
255	0x3e3c9d5f	0.18419407

layers.0.bias f4 [32]
0	0x3da644e8	0.081186116
1	0x3c9558fb	0.018230906
2	0xbd33d755	-0.04390653
3	0x3da136b0	0.07871759
4	0xbe24975d	-0.16073366
5	0xbe0f4a8b	-0.1399328
6	0xbe1f7594	-0.15572196
7	0x3deff53a	0.11716695
8	0xbd62a612	-0.05533416
9	0xbe2fbcb7	-0.17161833
10	0x3c15a3c0	0.009133279
11	0x3e01acfb	0.12663643
12	0x3dba2d47	0.09090667
13	0x3da96f15	0.0827314
14	0x3d5a2947	0.05326202
15	0x3cd11d31	0.025526615
16	0xbe06cfb6	-0.13165173
17	0xbd9c780b	-0.07640084
18	0xbc42b895	-0.011884828
19	0x3d90dc59	0.07073278
20	0xbd90c980	-0.07069683
21	0xbd530015	-0.05151375
22	0x3d37387c	0.044731602
23	0x3d3fe0d3	0.04684527
24	0x3c50f296	0.0127531495
25	0xbe1ba4e5	-0.15199621
26	0xbdbc5edf	-0.09197783
27	0xbd7dc2c0	-0.061953306
28	0x3c26d90e	0.010183586
29	0x3e18deda	0.14928761
30	0x3e29c532	0.1657913
31	0x3cdd2b93	0.026998317

layers.2.weight f4 [32, 32, 5, 5]
0	0x3bba4eb1	0.0056856503
1	0x3ced0049	0.0289308
2	0x3c5cca09	0.013475903
3	0x3cec81d3	0.028870499
4	0x3a210bfc	0.00061434484
5	0x3cd8e222	0.026475016
6	0x3c7585fc	0.014985558
7	0x3d02e2af	0.031954464
8	0x3cf509bf	0.029911874
9	0xbb46238b	-0.0030233588
10	0x3ca662ba	0.020310748
11	0xbcc3e4f8	-0.023912892
12	0x3c6c1f8a	0.014411816
13	0xbada85ef	-0.0016671995
14	0xbc2f734f	-0.010708644
15	0xbc641cd5	-0.01392289
16	0xbcea21f8	-0.02858065
17	0xba9f12a1	-0.0012136289
18	0x3cc1d214	0.023659743
19	0x3b927315	0.0044692853
20	0xbcc5a4e4	-0.024126478
21	0x3c9c65cb	0.019091507
22	0x3b2ebdb3	0.0026663363
23	0xbd307698	-0.04308185
24	0x3c193314	0.009350557
25	0x3b927fc9	0.0044707996
26	0xbcfca8df	-0.030842243
27	0x3c97848a	0.018495817
28	0x3cdb0c4d	0.026739264
29	0xbce3a4b9	-0.027788507
30	0x3abc6b8a	0.0014375311
31	0x3b202805	0.0024437916
32	0xbd3910fb	-0.04518221
33	0x3c5b37a3	0.013379964
34	0x3cdabc15	0.026701013
35	0x3cd378fa	0.025814522
36	0x3bde2e53	0.0067804246
37	0xbae9a56b	-0.0017825788
38	0xbbfdefb9	-0.0077495244
39	0xbc39b9c9	-0.011335799
40	0xbb2ff069	-0.0026846176
41	0x3cd0862d	0.025454605
42	0xbd038e70	-0.03211826
43	0x3baec429	0.0053334427
44	0xbc307697	-0.0107704615
45	0x3c2d17ab	0.010564725
46	0xbcb2e765	-0.021838853
47	0x3cba7a2b	0.022763332
48	0xbcbcdd52	-0.023054752
49	0xbbbee668	-0.0058258064
50	0xbcf69dda	-0.030104566
51	0xbc4653bb	-0.012104924
52	0xbd1168c6	-0.03550031
53	0x3bfeed06	0.0077797202
54	0xbcbba48a	-0.022905607
55	0x3c3b4327	0.011429585
56	0xbb2c4611	-0.002628688
57	0xbc5f3f9c	-0.0136260055
58	0xbbf13f0c	-0.007362252
59	0x3cc73a7a	0.024319876
60	0xbc8b639e	-0.017015275
61	0xbcb079ea	-0.021542508
62	0xba9b40fb	-0.0011844927
63	0xbbf7fd8b	-0.0075680665
64	0xbcd171d0	-0.025566965
65	0xbca60078	-0.020263895
66	0x3c30a7af	0.010782166
67	0xbc21375a	-0.009839857
68	0x3a99a116	0.0011720981
69	0x3a6bd564	0.0008996336
70	0x3cd6f461	0.026239576
71	0x3ca696a8	0.02033551
72	0x3c8a8915	0.016911069
73	0x3bf83ae1	0.0075753783
74	0xbca946d6	-0.02066366
75	0x3c985344	0.018594392
76	0xbcb8fae8	-0.022580579
77	0xbc35c2a8	-0.011093773
78	0x3cce78d6	0.025204103
79	0xbc537b41	-0.012907804
80	0xbd203cce	-0.039120488
81	0x3c53918a	0.012913117
82	0x3cc5e398	0.024156377
83	0xbc8fb5d5	-0.017542759
84	0x3c8cfa8a	0.01720931
85	0x3c621c64	0.013800714
86	0x3cec78e1	0.028866233
87	0x3c6f86f8	0.014619581
88	0x3b5a10cb	0.003327417
89	0xbc0ca6aa	-0.008584658
90	0xbc823f74	-0.015899397
91	0x3c900d50	0.017584473
92	0x3b56d4ba	0.0032780604
93	0x3ccf43ac	0.025300823
94	0x3c0464ed	0.008080703
95	0xbd04eb02	-0.032450683
96	0x3ce48e5d	0.027899915
97	0xbcb67c2d	-0.022276009
98	0x3cc5fe4a	0.024169106
99	0xbb54813c	-0.0032425663
100	0x3c5592da	0.0130355
101	0xbc60b14e	-0.013714148
102	0xbd030d59	-0.03199515
103	0x3c57d212	0.013172643
104	0xbcaf80ad	-0.021423662
105	0x3c4eb439	0.012616211
106	0x3cb3b7ee	0.02193829
107	0x3c2be198	0.010490797
108	0xbce2ef96	-0.027702134
109	0xbc955a0e	-0.018231418
110	0x3ca86b0b	0.020558855
111	0xbcb79b2a	-0.022412855
112	0xbbaf2f58	-0.00534622
113	0x3d1a7026	0.03770461
114	0x3bc2d45e	0.0059457263
115	0x3c80e270	0.015732974
116	0xbae73d06	-0.0017642088
117	0x3cb9b8ab	0.022671064
118	0xbcc25ab6	-0.023724895
119	0x3d13b51d	0.036061395
120	0x3cff2df6	0.031149846
121	0xbd121350	-0.03566295
122	0xbd1b172e	-0.037863903
123	0xbbdfff2c	-0.006835839
124	0xbc86b6d3	-0.0164446
125	0xbcf8ae55	-0.030356565
126	0xbcf692fc	-0.030099384
127	0x3cce650c	0.025194667
128	0xbc7eb5ca	-0.015546272
129	0xbc776a17	-0.015100977
130	0xbca671bd	-0.020317907
131	0xbba27ebc	-0.0049589556
132	0xbc3ce596	-0.011529347
133	0xbb988390	-0.0046543553
134	0x3c7d167e	0.015447257
135	0xbc950418	-0.018190429
136	0x3acd5dce	0.0015668215
137	0x3cb0a42f	0.021562664
138	0xbc8ee17c	-0.017441504
139	0x3c294c8c	0.010333192
140	0x3cfad636	0.030619722
141	0xbc6124b2	-0.013741659
142	0xbce9e40b	-0.028551122
143	0x3ab2259b	0.001359153
144	0xbd173935	-0.03691979
145	0x3d0c1142	0.034196146
146	0xbc1d89b7	-0.009615353
147	0x3c8590ad	0.016304338
148	0xbc237f52	-0.009979086
149	0xbc81309a	-0.015770245
150	0xbbb07194	-0.0053846333
151	0x3c8121d9	0.01576321
152	0x3cdf0901	0.027225973
153	0x3ced9579	0.029001938
154	0x3cdc4775	0.026889542
155	0xbc9f3353	-0.019433653
156	0xbd1062e2	-0.035250552
157	0x3cfe79e9	0.03106399
158	0xbb5fb8e8	-0.0034137312
159	0xbc927d84	-0.017882116
160	0xbd1f5bc0	-0.03890586
161	0xbd00ae2b	-0.0314161
162	0xbcd0fda2	-0.025511567
163	0x3cf27dee	0.029601064
164	0x3cc0d47e	0.023538824
165	0xbbd8a259	-0.00661115
166	0x3cf152d5	0.029458443
167	0x3d117e3c	0.035520777
168	0x3bba29aa	0.0056812363
169	0x3b2bb967	0.0026203038
170	0xbcd6c4a6	-0.026216816
171	0x3a694d64	0.0008899777
172	0xbc29da46	-0.010366982
173	0xbcd7f3da	-0.026361395
174	0xbc353c7f	-0.011061787
175	0x3d045cec	0.03231518
176	0x3cab4626	0.020907473
177	0x3cb24e61	0.02176589
178	0xbbec03c4	-0.0072025973
179	0xbc925b80	-0.017865896
180	0x3b443f42	0.002994493
181	0xbd1ae6a1	-0.0378176
182	0x3bc8b633	0.0061252355
183	0xbd1280af	-0.035767253
184	0x3cd434d4	0.025904097
185	0x3ca919bc	0.020642154
186	0xbb4628b6	-0.0030236668
187	0x3cb56893	0.022144591
188	0x3ca359e7	0.01994033
189	0xbd0f5210	-0.03499037
190	0xbcdc76eb	-0.026912173
191	0xbcaf4eac	-0.021399818
192	0x3b247ff3	0.0025100678
193	0x3d0d22f9	0.03445718
194	0xbbd58c38	-0.0065169595
195	0xbc09c786	-0.0084093865
196	0x39d8af59	0.00041329375
197	0xbcd2f7ba	-0.02575289
198	0xbc6090a7	-0.013706363
199	0x3bdbe7b8	0.0067109726
200	0x3c469f3c	0.012122925
201	0xbc4d0a7b	-0.012514706
202	0xbce59901	-0.02802706
203	0x3c4f1c3c	0.012641009
204	0x3ce38142	0.027771596
205	0x3bdad060	0.0066776723
206	0x3c98f63f	0.018672107
207	0xbcbb0205	-0.022828111
208	0x3beac7c2	0.0071649263
209	0x3d10866a	0.035284437
210	0x3ce1d1a3	0.027565783
211	0xbca1233a	-0.019670118
212	0x3ce0e63c	0.027453534
213	0xba1a848b	-0.0005894384
214	0x3b790d4c	0.003800231
215	0xbc8b4490	-0.017000467
216	0x3ca856f6	0.020549279
217	0xbd11835f	-0.035525676
218	0x3ca17c5c	0.01971262
219	0x3cf56174	0.029953696
220	0x3cc4e2f1	0.024033995
221	0xbc8c001e	-0.0170899
222	0xbc0a3d53	-0.008437472
223	0xbcd71b55	-0.02625815
224	0x3cac2d31	0.021017643
225	0x3ce27e6c	0.027648173
226	0x38e041d8	0.00010693417
227	0x3cd00acf	0.025395779
228	0xbcfb2c15	-0.030660668
229	0xbcc221b2	-0.023697708
230	0xbc19188a	-0.0093442295
231	0xbc8749f6	-0.01651476
232	0x3c5908f8	0.013246767
233	0x3c1d02aa	0.009583155
234	0x3cde9d89	0.027174728
235	0x3c1083fe	0.008820532
236	0x3c5e7f52	0.01358016
237	0xba922ee2	-0.0011152888
238	0x3c4f3cc9	0.01264877
239	0x3a8c5e40	0.0010709241
240	0xbce2350c	-0.027613185
241	0xbbc3ce62	-0.0059755305
242	0xbc693abd	-0.014235196
243	0x3c9fdba5	0.019513914
244	0xbbd0a52b	-0.006367346
245	0xbcbe3146	-0.023216855
246	0x3bbb659c	0.0057189
247	0x3bdac893	0.0066767423
248	0xbcc09039	-0.02350627
249	0x3ca9f68e	0.02074745
250	0x3b8f867f	0.004380047
251	0xbac9eb16	-0.0015405144
252	0xbbdf26e4	-0.006810056
253	0x3ce3da22	0.027813975
254	0x3bf25ad7	0.007396083
255	0x3c98f5ae	0.018671837

layers.2.bias f4 [32]
0	0xbc6f7974	-0.014616359
1	0xbcfe07cc	-0.031009577
2	0xbb9b8471	-0.004746013
3	0xbccd36c9	-0.025050538
4	0xbd6d4e11	-0.057935778
5	0x3b9567ed	0.004559508
6	0x3c9643c2	0.018342856
7	0xbd0d59ee	-0.03450959
8	0xbd10c8a8	-0.03534761
9	0xbd9eb76a	-0.07749827
10	0xbd10be94	-0.035338
11	0x3c1ca0f4	0.009559859
12	0xbcfe86a5	-0.031070063
13	0x3d17d127	0.037064698
14	0xbc0a8a99	-0.008455896
15	0x3ca5dec1	0.020247819
16	0xbd21c9d7	-0.03949913
17	0x3d43be69	0.04778901
18	0xbd6064f6	-0.054783784
19	0xbbc9d763	-0.0061597093
20	0x3c4b74e2	0.012418004
21	0x3d4dd5e6	0.050252818
22	0x3cdc8acf	0.026921658
23	0xbd5285e7	-0.05139723
24	0xbc4940a1	-0.012283475
25	0x3cc306ad	0.023806894
26	0xbcb32d06	-0.021872055
27	0xbc5524db	-0.013009275
28	0xbd02410b	-0.03180031
29	0x3ce1634f	0.027513174
30	0x3d1196c6	0.03554418
31	0xbcc7dbdc	-0.02439683

layers.4.weight f4 [32]
0	0x3f848c32	1.0355284
1	0x3f87fd0f	1.0624102
2	0x3f83ea82	1.0305941
3	0x3f850756	1.0392864
4	0x3f819827	1.0124558
5	0x3f79ea45	0.9762309
6	0x3f823b48	1.0174341
7	0x3f850337	1.0391606
8	0x3f7e1516	0.99250925
9	0x3f8161fe	1.010803
10	0x3f7bd91d	0.98378164
11	0x3f81681c	1.0109897
12	0x3f80898d	1.0041977
13	0x3f804cb2	1.0023406
14	0x3f81f168	1.0151796
15	0x3f80cfe2	1.0063441
16	0x3f7deae7	0.9918656
17	0x3f7d70ec	0.9900043
18	0x3f83122e	1.0239923
19	0x3f8286f1	1.0197431
20	0x3f7fdc5e	0.9994563
21	0x3f80c9eb	1.006162
22	0x3f80a4e4	1.0050321
23	0x3f7ecf28	0.99534845
24	0x3f82ab9c	1.0208621
25	0x3f7c5711	0.9857035
26	0x3f7dfc64	0.9921324
27	0x3f82cc50	1.0218601
28	0x3f808d05	1.0043036
29	0x3f7c611d	0.98585683
30	0x3f79a55d	0.9751795
31	0x3f812d21	1.0091897

layers.4.bias f4 [32]
0	0xbc693926	-0.014234817
1	0x3b30b2bf	0.002696201
2	0x3b929882	0.0044737468
3	0xbb17c499	-0.0023157953
4	0xbd028043	-0.0318606
5	0xbcfd09a9	-0.030888395
6	0x3c0e6fea	0.008693675
7	0x3d135897	0.035973158
8	0xbb695844	-0.003560559
9	0x3b73be34	0.0037192227
10	0xbc1e3277	-0.009655586
11	0xbc9d9ec7	-0.01924075
12	0xbd5790eb	-0.05262844
13	0x3c5437d3	0.012952763
14	0xbc947351	-0.018121393
15	0xba7a8f89	-0.00095581316
16	0xbb273e9c	-0.0025519496
17	0x3bcab4e6	0.0061861156
18	0x3c5b6993	0.01339187
19	0xbd65e923	-0.05613054
20	0x3b8fb723	0.0043858453
21	0x3d06cb96	0.032909
22	0x3cbb1417	0.022836728
23	0x3cd7c12e	0.026337232
24	0x3c7032f7	0.014660588
25	0xb9b481eb	-0.00034429072
26	0x3cdf70b6	0.027275424
27	0x3b535a27	0.003224978
28	0x3af64a1f	0.00187904
29	0xbacd60f8	-0.0015669158
30	0x3c97f3bd	0.01854884
31	0xbcd9dd3e	-0.026594754

layers.4.running_mean f4 [32]
0	0xbd3bbf2a	-0.045836605
1	0x3da7bfdc	0.08190891
2	0xbb4ca3d2	-0.0031225574
3	0x3c224772	0.009904729
4	0xbd44c989	-0.04804376
5	0xbc8e1c5b	-0.017347505
6	0xbc0250cb	-0.007953833
7	0xbd8f33e5	-0.0699232
8	0xbc849785	-0.016185531
9	0xbccb1162	-0.024788562
10	0xbc5453f6	-0.012959471
11	0xbd0dc9f9	-0.034616444
12	0xbba5ad2b	-0.0050560436
13	0xbc8ffc78	-0.017576441
14	0x3d97e06e	0.074158534
15	0x3ce2ac21	0.027669968
16	0xbc49bb05	-0.012312655
17	0xbb23d2e6	-0.0024997531
18	0xbc9385cd	-0.018008137
19	0x3d29fc37	0.041500296
20	0xbd38f956	-0.04515966
21	0x3cb24d2f	0.02176532
22	0x3d17e959	0.037087772
23	0x391fb21f	0.00015229777
24	0xbb6d22c1	-0.0036184045
25	0xbcc14e46	-0.023596894
26	0x3d561558	0.05226645
27	0xbc941bfc	-0.01807975
28	0xbd09ed39	-0.0336735
29	0xbd000188	-0.03125146
30	0xbc7c9998	-0.015417479
31	0xbd06ccc6	-0.03291013

layers.4.running_var f4 [32]
0	0x3eb60173	0.3554798
1	0x3eb75082	0.3580361
2	0x3eb409c0	0.3516369
3	0x3eb66a80	0.35628128
4	0x3eb42057	0.35180923
5	0x3eb3bf17	0.35106727
6	0x3eb421d4	0.3518206
7	0x3eb39418	0.35073924
8	0x3eb3cbaf	0.35116336
9	0x3eb40f58	0.35167956
10	0x3eb46eb5	0.35240713
11	0x3eb41a6c	0.35176408
12	0x3eb46be1	0.35238555
13	0x3eb541cb	0.3540176
14	0x3eb52400	0.35379028
15	0x3eb45750	0.35222864
16	0x3eb460a6	0.35229987
17	0x3eb443cb	0.35207972
18	0x3eb384c4	0.3506223
19	0x3eb52ff7	0.35388157
20	0x3eb42409	0.35183743
21	0x3eb3a3fd	0.3508605
22	0x3eb4e298	0.35329127
23	0x3eb4dcc3	0.35324678
24	0x3eb43bee	0.35201973
25	0x3eb49241	0.35267833
26	0x3eb633a1	0.35586265
27	0x3eb3d921	0.35126594
28	0x3eb3d7e4	0.3512565
29	0x3eb43ae6	0.35201186
30	0x3eb6d453	0.35708866
31	0x3eb48c2e	0.352632

layers.6.weight f4 [64, 32, 3, 3]
0	0x3a7b8ebe	0.00095961604
1	0x3d5607cc	0.05225353
2	0xbd2af6fa	-0.04173944
3	0xbd756a4d	-0.05991583
4	0x3cdba35a	0.02681129
5	0xbd2875e9	-0.041128073
6	0xbd50ebf3	-0.05100627
7	0xbd222a67	-0.03959122
8	0x3d522cfd	0.051312435
9	0xbcbd75c4	-0.023127444
10	0xbd27344c	-0.04082136
11	0xbd36f2d4	-0.044665173
12	0x3cf25fed	0.029586757
13	0xbbbee700	-0.005825877
14	0x3bf3c489	0.0074392003
15	0x3d16e006	0.03683474
16	0x3c34fab2	0.011046099
17	0x392d6fd6	0.00016540228
18	0xbd09c678	-0.03363654
19	0xbd8102e5	-0.0629938
20	0x3d189772	0.037253805
21	0x3cd8fd68	0.026488021
22	0x3d0563df	0.032565948
23	0xbc55d223	-0.013050589
24	0x3d33ace5	0.043866057
25	0xbca84969	-0.020542817
26	0x3af1e02d	0.001845365
27	0x3ceb1496	0.02869634
28	0x3cb377bd	0.021907682
29	0xbd2ad528	-0.041707188
30	0xbba950fd	-0.0051671253
31	0x3d94420d	0.07239161
32	0x3cd01713	0.025401628
33	0xbd3ac58c	-0.04559855
34	0xbcf6aa12	-0.030110393
35	0xbca4d968	-0.020123199
36	0xbccb9707	-0.024852289
37	0x3b197d24	0.0023420537
38	0xbd3925de	-0.04520213
39	0x3cc86bce	0.024465468
40	0xbbeb78fb	-0.007186053
41	0x3c69ea69	0.014277079
42	0x3c144710	0.009050146
43	0xbd5adbe0	-0.053432345
44	0x3cce8ad7	0.025212688
45	0x3c121ded	0.008918268
46	0xbd397089	-0.045273338
47	0x3cf78492	0.030214582
48	0x3d282a36	0.04105588
49	0x3d1cf547	0.038319852
50	0xbc24bbf8	-0.010054581
51	0xbca3fd69	-0.020018296
52	0x3d806b43	0.062704585
53	0xbc21d00a	-0.0098762605
54	0x3d823e1d	0.063595034
55	0x3c5f182d	0.013616604
56	0xbd316836	-0.043312274
57	0x3c364a86	0.011126166
58	0x3d18b62c	0.037283108
59	0x3ce35721	0.027751507
60	0x3c15b99e	0.009138493
61	0x3d1028f0	0.03519529
62	0x3d2f3d18	0.042782873
63	0xbd52d3ee	-0.051471643
64	0xbc36bea2	-0.011153849
65	0xbd59e3ff	-0.05319595
66	0xbc75894d	-0.014986348
67	0xbb5af46d	-0.003340985
68	0xbd0d595d	-0.03450905
69	0xbd269c66	-0.040676497
70	0x3d32744b	0.043567937
71	0x3c4e37d6	0.0125865545
72	0x3cddfe64	0.027098842
73	0xbd5a281f	-0.05326092
74	0xbcae9232	-0.021309946
75	0xbd05cf03	-0.032668125
76	0xbc0c3f88	-0.008560069
77	0x3d3a970a	0.0455542
78	0x3d25d6d1	0.040488068
79	0x3ceb776b	0.028743466
80	0x3d742ed4	0.05961497
81	0x3d01d558	0.0316976
82	0x3c9babbf	0.019002793
83	0xbd6dc719	-0.058051202
84	0xbc425336	-0.011860659
85	0x3c9cb525	0.019129345
86	0x3d3abc4e	0.045589738
87	0xbcd28fd5	-0.02570335
88	0x3d2a5d52	0.041592903
89	0xbc6359c6	-0.013876384
90	0xbd8c24bd	-0.06842945
91	0xbd880cd1	-0.066430695
92	0x3d2e7a9d	0.042597402
93	0xbcafbfe1	-0.0214538
94	0xbd25e8e5	-0.04050531
95	0xbd272aaa	-0.040812172
96	0x3c7c0f25	0.01538447
97	0x3d602b81	0.05472899
98	0x3cbc0422	0.02295119
99	0xbd0dfc67	-0.034664538
100	0x3d6961c2	0.056977995
101	0xbd403d4e	-0.046933465
102	0xbc330fa7	-0.010929025
103	0xbd6e2c79	-0.05814788
104	0x3d748ea3	0.05970634
105	0x3d6200bd	0.055176485
106	0xbcfe14c3	-0.03101576
107	0xbd6ab739	-0.05730364
108	0x3d0aee82	0.033918865
109	0xbc76f7be	-0.015073715
110	0xbd74bacb	-0.059748452
111	0xbc810b62	-0.015752498
112	0xbd43bbcc	-0.04778652
113	0x3d53c7ad	0.051704098
114	0x3d5219ce	0.05129414
115	0x3d63f872	0.055656858
116	0x3d1995ce	0.03749638
117	0xbd285100	-0.041092873
118	0xbb43d01e	-0.0029878686
119	0xbc99312a	-0.018700201
120	0x3c83c3db	0.016084602
121	0xbd87d102	-0.06631662
122	0x3d303f5c	0.043029174
123	0xba68a420	-0.0008874554
124	0x3cf533a4	0.02993185
125	0x3b06d89d	0.002057589
126	0x3d61efb6	0.055160247
127	0x3d5381bf	0.051637407
128	0xbd45abdd	-0.048259605
129	0xbbd49c3f	-0.0064883525
130	0x3b22dd60	0.0024851188
131	0x3cf0e683	0.029406792
132	0xbcc8063c	-0.024417035
133	0x3d50699d	0.05088197
134	0xbc9134bf	-0.017725347
135	0x3bdec4b5	0.0067983516
136	0xbccd3d6e	-0.025053706
137	0x3d432a7d	0.04764794
138	0x3d6d33d5	0.05791076
139	0x3bc24881	0.0059290533
140	0x3d50023f	0.050783392
141	0xbd50c990	-0.050973475
142	0xbc21537a	-0.0098465625
143	0xbc77a259	-0.01511439
144	0xbcf3d79c	-0.029765896
145	0x3d810b4c	0.06300983
146	0x3d7c3f66	0.0615839
147	0xbcbd0c57	-0.023077173
148	0xbc945c7b	-0.018110504
149	0xbc3efb25	-0.011656557
150	0x3ccad6b2	0.024760578
151	0x3b2073a2	0.0024482985
152	0xbc801cd5	-0.015638748
153	0x3c262d37	0.010142616
154	0xbc8d966d	-0.017283643
155	0xbccea362	-0.025224391
156	0x3d2ff9c0	0.04296279
157	0xbd2befd5	-0.04197677
158	0xbcc882ee	-0.024476495
159	0xbd6ed5d0	-0.058309376
160	0xbcc1c5ee	-0.02365395
161	0x3b1eb63c	0.0024217507
162	0xbcdf76da	-0.027278353
163	0xbc857a6f	-0.016293732
164	0x3b8bebe3	0.0042700632
165	0xbcdc3220	-0.02687937
166	0xbc46ea2c	-0.012140792
167	0x3bd242d2	0.006416657
168	0x3bcad608	0.0061900653
169	0xbbe9e35e	-0.0071377
170	0x3c8a644f	0.016893534
171	0x3d3f14ad	0.046650577
172	0x3d723dff	0.059141155
173	0x3c9bb9dc	0.019009523
174	0x3bab9518	0.005236279
175	0xbc900cbe	-0.017584201
176	0xbd6b2cd0	-0.057415783
177	0xbd00aa62	-0.03141249
178	0xbd69db97	-0.057094183
179	0xbd46f019	-0.04856882
180	0x3c9b1f24	0.018935747
181	0xbbe08ea3	-0.006852941
182	0x3c99a9a6	0.018757652
183	0xbd3dae1e	-0.04630863
184	0x3bc3db9b	0.0059771067
185	0xbd1c3031	-0.038131896
186	0xbd484baf	-0.048900302
187	0x3d27b255	0.040941555
188	0x3d6e0dea	0.05811874
189	0xbcf0bd14	-0.029387034
190	0xbcf6daf7	-0.030133707
191	0xbd4e6d83	-0.050397407
192	0x3b8d114b	0.00430504
193	0x3d567b76	0.052363835
194	0xbbc820f9	-0.0061074463
195	0x3d683c97	0.056698408
196	0xbd192aa6	-0.03739419
197	0xbd3ca971	-0.04606003
198	0x3d3517bd	0.04421209
199	0x3ce66257	0.028123064
200	0xbc502036	-0.012702992
201	0xbc9d17f6	-0.019176465
202	0xbd0dd27f	-0.034624573
203	0x3cae4895	0.021274844
204	0x3d362705	0.044470806
205	0x3ce52250	0.027970463
206	0xbcac4b8e	-0.021032121
207	0xbbf8fe56	-0.0075986786
208	0xbd1dfafc	-0.038569435
209	0xbc9609c4	-0.018315203
210	0x3d22e81b	0.039772134
211	0xbd342834	-0.043983653
212	0xbca49e21	-0.020094933
213	0x3ba9ef86	0.005186024
214	0x3ca5fb3a	0.020261396
215	0x3d03a6e5	0.032141585
216	0xbd768569	-0.060185824
217	0x3d1ffddb	0.039060455
218	0x3bc002f3	0.0058597266
219	0x3c1165d1	0.008874373
220	0xbbd4edb4	-0.006498063
221	0x3ce74185	0.028229484
222	0x3c1fea54	0.009760458
223	0x3d5c60f9	0.053803418
224	0x3d001a56	0.031275116
225	0x3cd358b6	0.025799137
226	0xbd3dc095	-0.04632624
227	0x3d6964cf	0.056980904
228	0x3c14fe81	0.009093882
229	0xbd775ddc	-0.060392246
230	0xbd8b6825	-0.06806973
231	0x3d1545ca	0.03644351
232	0x3ce89aa8	0.028394058
233	0x3d1baccb	0.038006585
234	0xbcd13d88	-0.025542036
235	0xbd1a9503	-0.037739765
236	0x3d30e506	0.043187164
237	0xbb149041	-0.002266899
238	0xbd2c9ea2	-0.04214347
239	0xbd1b9f93	-0.03799398
240	0xbd811b5a	-0.06304045
241	0xbd736501	-0.059422497
242	0x3d3bfede	0.045897357
243	0xbd12448c	-0.035709903
244	0x3c8634fa	0.016382683
245	0x3d7ca9ad	0.061685253
246	0xbd29107f	-0.041275498
247	0x3d67079e	0.05640375
248	0x3d39673b	0.045264464
249	0xbd1e47fe	-0.038642876
250	0xbd199a51	-0.037500683
251	0x3d06e678	0.032934636
252	0xbc92ee9b	-0.017936042
253	0x3d3ecaac	0.04658
254	0xbd344b61	-0.0440172
255	0x3cfe445d	0.031038458

layers.6.bias f4 [64]
0	0xbba5ce79	-0.005060014
1	0xbcf7cc78	-0.030248865
2	0x3d6c0841	0.05762506
3	0x3a1f5754	0.00060783816
4	0x3cca3c6b	0.024687013
5	0xbd5e1c6c	-0.054226324
6	0x3d71b918	0.05901441
7	0xbce787de	-0.028263029
8	0xbd505c0f	-0.050869044
9	0x3d77d50d	0.060505915
10	0x3c1ae2e3	0.009453508
11	0x3d3da919	0.046303842
12	0x3d4e87c4	0.050422445
13	0x3d07b295	0.033129293
14	0xbc0708a4	-0.008241806
15	0xbd0afdcb	-0.033933442
16	0x3c5075af	0.01272337
17	0xbce0f5d9	-0.02746098
18	0x3d6ae338	0.0573456
19	0x3c66332f	0.014050289
20	0x3d282cf3	0.041058492
21	0xbd6ff274	-0.05858083
22	0x3cf6c8fc	0.030125134
23	0x3c8b4fb6	0.017005783
24	0x3cd5aabf	0.026082395
25	0xbd240de0	-0.040052295
26	0x3cbd8854	0.023136295
27	0xbd3af9f0	-0.045648515
28	0xbcb6192d	-0.022228802
29	0xbd27a0a3	-0.04092468
30	0x3cc1946f	0.023630349
31	0xbced1556	-0.028940838
32	0x3c8cb3ad	0.01717552
33	0x3d0f5500	0.03499317
34	0xbd6a8693	-0.057257246
35	0x3d0d1c63	0.0344509
36	0x3d8d9d9c	0.06914827
37	0xbd6ee6ac	-0.058325455
38	0x3bf75ba1	0.007548765
39	0x3d578b0f	0.05262285
40	0x3ca66472	0.020311568
41	0x3d2ea3ea	0.04263679
42	0xbb50e44e	-0.0031874361
43	0x3d393464	0.04521598
44	0x3b9437ef	0.0045232694
45	0x3d2ca170	0.042146146
46	0x3d591a8c	0.053003833
47	0x3c8766b7	0.01652847
48	0x3cdc9fea	0.026931722
49	0xbd1f4e47	-0.03889301
50	0x3d2a71bf	0.041612383
51	0xbd088296	-0.03332766
52	0x3d22834f	0.039676007
53	0xbd47b506	-0.04875662
54	0xbd09e576	-0.033666097
55	0xbd0d5ea2	-0.034514077
56	0xbd1c90cc	-0.038224027
57	0x3cf11daf	0.0294331
58	0xbd14bca7	-0.036312725
59	0xbd769437	-0.060199942
60	0x3d268f7c	0.04066418
61	0x3d306813	0.043068003
62	0xbda3b3f8	-0.07993311
63	0xbcef062b	-0.029177746

layers.8.weight f4 [64, 64, 3, 3]
0	0xbd3e1709	-0.046408687
1	0xbc2cb445	-0.0105410265
2	0xbc743baf	-0.014906808
3	0xbc69ac55	-0.014262279
4	0x3ca8688a	0.02055766
5	0x3a72d9b2	0.00092640065
6	0x3c866b09	0.01640846
7	0xbc971b0e	-0.018445518
8	0x3cb66bda	0.022268225
9	0x3b641b45	0.0034806293
10	0xbd2ca961	-0.04215372
11	0xbd279fab	-0.040923756
12	0x3d078045	0.03308131
13	0xbc2a0d4f	-0.01037915
14	0x3d03225a	0.032015182
15	0x3cae8574	0.02130387
16	0x3c63ac5b	0.013896073
17	0xbc239b9e	-0.0099858325
18	0xbce69690	-0.028147966
19	0x3d27b575	0.040944535
20	0x39c1c814	0.00036960898
21	0x3d213c9b	0.03936444
22	0xbbd49383	-0.0064873113
23	0x3c92c883	0.017917877
24	0xbb7b846e	-0.0038378495
25	0xbcb56a33	-0.022145366
26	0x3ce19602	0.02753735
27	0x3cca8dd7	0.024725838
28	0xbc600130	-0.013672158
29	0xbcb8f4c4	-0.02257765
30	0xbc17d7a5	-0.009267722
31	0xbc7d27ca	-0.015451381
32	0x3c997055	0.018730322
33	0x3c837a6d	0.016049588
34	0x3d0f89d5	0.035043556
35	0xbcb7c19a	-0.022431184
36	0x3cab15f0	0.020884484
37	0x3c8f1995	0.017468253
38	0xbca9837a	-0.020692576
39	0xbccb5f6d	-0.024825776
40	0xbd2c888d	-0.042122412
41	0xbcc45db6	-0.023970466
42	0xbc845abd	-0.016156549
43	0xbd290b2e	-0.041270427
44	0x3ccc1664	0.02491302
45	0xbb6063f3	-0.0034239262
46	0x3d0f9617	0.035055246
47	0xbc097595	-0.00838985
48	0x3c9ccf15	0.019141713
49	0x3c4e393f	0.012586891
50	0x3c5bd185	0.013416653
51	0x3c4840df	0.012222498
52	0xbcf3f705	-0.029780874
53	0xbd010481	-0.031498436
54	0xb9d3e7a4	-0.00040417642
55	0x3991bb0b	0.00027795913
56	0xbb03a30a	-0.0020086193
57	0x3cc6b771	0.024257394
58	0x3d023fda	0.031799175
59	0x3c504e7f	0.012714027
60	0x3ccab63a	0.024745096
61	0x3caab460	0.020837963
62	0xbc27a458	-0.010232054
63	0xbcb685cc	-0.022280596
64	0xbb24c942	-0.0025144373
65	0x3ba9f605	0.0051867985
66	0xbc647cfc	-0.013945814
67	0x3bfc0fa0	0.0076922923
68	0x3cfcf614	0.030879058
69	0xbc1b3d79	-0.009475105
70	0xbc27e3ab	-0.010247151
71	0x3cceeec9	0.025260346
72	0x3caddbcc	0.021222971
73	0x3d17ec22	0.03709043
74	0x3cf1c592	0.029513154
75	0xbd51fc72	-0.05126614
76	0x3c5cafe9	0.013469675
77	0x3cb465e2	0.022021238
78	0xbbcf4fbc	-0.0063266438
79	0xbc80c14c	-0.015717171
80	0x3cd7a865	0.026325414
81	0xbcd40a8f	-0.025883941
82	0x3caf23ed	0.021379435
83	0xbd0dbcb0	-0.034603775
84	0x3c5cfca0	0.013487965
85	0xbd215a55	-0.039392788
86	0x3ce28fa9	0.027656393
87	0xbc4c5905	-0.012472396
88	0xbd161f17	-0.036650743
89	0xbc96fcdb	-0.018431118
90	0x3d059bf5	0.032619435
91	0x3d197a64	0.037470236
92	0x3be1763e	0.0068805506
93	0x3a397ca0	0.00070757605
94	0xbb9fd72a	-0.0048779445
95	0xbca10c8d	-0.019659305
96	0xbcbb8b0b	-0.02289345
97	0x3c899c51	0.01679817
98	0xbcd8be26	-0.026457857
99	0x3d20a773	0.039222192
100	0x3ab5d799	0.0013873457
101	0xba2f7725	-0.0006693474
102	0xbb64bd0a	-0.0034902715
103	0x3cd9f54e	0.026606228
104	0x3cab26e1	0.020892562
105	0xbc66e52b	-0.014092724
106	0x3d12fdf2	0.035886712
107	0xbd27eb48	-0.040995866
108	0xbb8419b3	-0.004031384
109	0x3c976a83	0.018483406
110	0x3cb71c98	0.022352502
111	0x3ced2fde	0.028953489
112	0x3d281a71	0.04104084
113	0xbd1a2bf7	-0.037639584
114	0x3c87a1ce	0.016556647
115	0xbcef4d43	-0.029211646
116	0x3a95bb9f	0.0011423713
117	0x3cc64f95	0.02420787
118	0x3a8aefbc	0.0010600011
119	0x3d043825	0.032280106
120	0x3b3ab7c6	0.0028490885
121	0x3d1a0159	0.03759894
122	0x3cd4938e	0.025949266
123	0x3d19ff0b	0.037596744
124	0x3bc97f42	0.0061492035
125	0xbc4316d5	-0.011907299
126	0x3c7bd55e	0.015370695
127	0x3c07a371	0.008278714
128	0x3d199318	0.037493795
129	0xbbe31d72	-0.0069310004
130	0x3d194f3a	0.037429072
131	0x3d4b3c45	0.049618024
132	0x3c4dffac	0.012573164
133	0xbd1e3090	-0.03862053
134	0x3cc6d830	0.024273008
135	0xbd285d2f	-0.04110449
136	0x3c5a7716	0.013334056
137	0xbd360de4	-0.04444684
138	0x3ce5e464	0.028063007
139	0x3cde28c7	0.027119054
140	0xbcd6b336	-0.026208501
141	0xbbd25909	-0.006419305
142	0x3ced6576	0.028979044
143	0x3cf63ba3	0.030057734
144	0x3ca681f5	0.02032564
145	0xbce3a850	-0.027790219
146	0x3bddb312	0.0067657316
147	0xbad1dc3a	-0.0016011067
148	0xbce97793	-0.0284994
149	0x3a60a86e	0.000857002
150	0xbc8ff84e	-0.017574456
151	0xbc3b714c	-0.011440586
152	0x3cecf897	0.02892713
153	0x3cda1058	0.026619121
154	0xbcef46f3	-0.029208636
155	0x3b2e9f2a	0.0026645162
156	0xbd51f5c0	-0.051259756
157	0x3bf95976	0.0076095415
158	0xbc04b9bc	-0.008100923
159	0xbc276cc4	-0.010218803
160	0xbd100b1c	-0.035166845
161	0xbcd92117	-0.026505036
162	0x3cb89584	0.022532232
163	0xbcf0298d	-0.029316688
164	0xbb4003ec	-0.0029299213
165	0x3cec5a28	0.028851584
166	0x3c0403e8	0.008057572
167	0x3c53c4d9	0.01292535
168	0x3c9853a5	0.018594572
169	0x3cd51ad7	0.026013775
170	0xbccbe36e	-0.02488872
171	0xbcb7cd79	-0.022436844
172	0x3c0aba55	0.008467277
173	0x3d0513f2	0.032489724
174	0xbc8385d3	-0.016055023
175	0xbcedad7e	-0.029013392
176	0x3ba64e16	0.0050752265
177	0x3d145fa2	0.036224015
178	0x3c54f3e6	0.012997603
179	0x3d1244c0	0.035710096
180	0x3ced4a66	0.02896614
181	0xbcb43eb7	-0.022002561
182	0x3b5b646d	0.0033476606
183	0xbce38c2a	-0.027776796
184	0xbcd92ef0	-0.02651164
185	0xba4632bd	-0.0007560661
186	0x3c860084	0.016357668
187	0x3d0325fa	0.03201864
188	0x3b890db3	0.0041825413
189	0xbc437d36	-0.011931708
190	0xbd0402e1	-0.032229308
191	0x3cc828d3	0.024433529
192	0x3d035c91	0.0320707
193	0x3c3ce544	0.011529271
194	0x3d03b74c	0.032157227
195	0xbc7e4357	-0.015518985
196	0xbd085814	-0.033287123
197	0x3b258356	0.0025255284
198	0xbcf5c0f2	-0.02999923
199	0xbd18eeb7	-0.03733703
200	0x3b697509	0.0035622737
201	0x3cfc9adf	0.030835567
202	0xbd00c828	-0.031440884
203	0x3cb3e885	0.02196146
204	0x3cf71b52	0.030164395
205	0xbc61f59b	-0.013791467
206	0xbcff22b4	-0.031144477
207	0xbccb13a6	-0.024789643
208	0xbc482bd0	-0.012217477
209	0x3c9ec859	0.019382643
210	0xbd029a72	-0.03188557
211	0xbd14ca3e	-0.036325686
212	0xbc066509	-0.0082028
213	0xbc76bc6d	-0.015059573
214	0xbd4ebfed	-0.050476003
215	0xbd26f202	-0.04075814
216	0xbc7311f3	-0.014835822
217	0xbc298d59	-0.010348641
218	0xbd0d964f	-0.034567174
219	0xbb97397b	-0.0046150065
220	0x3caa1134	0.020760156
221	0x3d1c493d	0.038155783
222	0xbcceb7d3	-0.025234139
223	0x3b1c0f39	0.0023812784
224	0xbc2ce263	-0.010552022
225	0x3c8b0d25	0.016974041
226	0xbd2fe2c5	-0.042940874
227	0x3ca48ecb	0.02008762
228	0x3cf2f47f	0.0296576
229	0xbc6ba848	-0.014383383
230	0x3d224116	0.039612852
231	0x3c026fa8	0.007961191
232	0x3d1aae96	0.037764154
233	0x3ce0713f	0.02739775
234	0x3aa6128c	0.0012670322
235	0xbbb9e165	-0.005672621
236	0xbd282fe3	-0.041061293
237	0x3d2d077d	0.04224347
238	0x3cc1bdde	0.023650106
239	0xbc3c6e6f	-0.011500939
240	0x3cece25a	0.028916527
241	0xbcbb4800	-0.02286148
242	0xbd2e4345	-0.042544622
243	0xbc6c69bf	-0.014429509
244	0x3b81600d	0.0039482177
245	0xbb7f466f	-0.0038951894
246	0xbd0b420e	-0.03399854
247	0x3ce89f9c	0.02839642
248	0x3d19add0	0.037519276
249	0x3bbc95fa	0.0057551833
250	0x39bc6d58	0.00035939622
251	0x3d1a0c3e	0.03760933
252	0x3bb8affb	0.005636213
253	0xbad67271	-0.001636101
254	0x3d476764	0.048682585
255	0x3ceb86b3	0.028750753

layers.8.bias f4 [64]
0	0xbd369892	-0.044579096
1	0xbd6c4a78	-0.057688206
2	0xbd3f1f49	-0.046660695
3	0x3c69a9aa	0.0142616425
4	0xbd434142	-0.047669657
5	0x3cab80db	0.020935467
6	0xbd120c8e	-0.035656504
7	0xbc005f13	-0.007835167
8	0x3cd69207	0.026192678
9	0x3ca2fe92	0.01989678
10	0x3c310c03	0.0108060865
11	0xbd078bb7	-0.033092227
12	0xbd0bd8b6	-0.03414222
13	0x3ca5e460	0.0202505
14	0x3d4c7ecf	0.04992562
15	0x3cd34567	0.02578993
16	0x3c3ba8ec	0.011453848
17	0x3ccd5f5b	0.025069883
18	0xbd197632	-0.037466235
19	0xbd22e028	-0.039764553
20	0x3c8974fb	0.016779413
21	0x3ca7daf9	0.020490156
22	0xbd1e0256	-0.038576446
23	0xbcaf0641	-0.021365287
24	0xb9999415	-0.00029292764
25	0xbc86308a	-0.016380567
26	0xbcf1b5cb	-0.029505631
27	0xbd38a10f	-0.045075472
28	0x3c90a8b5	0.01765857
29	0x3c683a9c	0.01417413
30	0xbd44b9b7	-0.048028674
31	0x3ce5a82d	0.028034294
32	0xbb718e4b	-0.0036858495
33	0xbc386ba4	-0.011256132
34	0xbc99a828	-0.018756941
35	0x3ce258b6	0.027630191
36	0x3c1bf053	0.009517747
37	0xbce5378c	-0.027980588
38	0xbc21fbde	-0.00988671
39	0xbd41bd63	-0.047299754
40	0xbd11e2f1	-0.03561682
41	0x3d17d5bf	0.03706908
42	0xbcd795af	-0.026316492
43	0x3caddc33	0.021223163
44	0xbd836b08	-0.06416899
45	0xbc6abac9	-0.01432676
46	0xbd2c335c	-0.042041168
47	0x3d0d8ea1	0.03455985
48	0x3c90b0b8	0.017662391
49	0x3c13990f	0.00900866
50	0xbd0a2ced	-0.03373425
51	0xbcde6b18	-0.027150676
52	0xbd1e629e	-0.038668267
53	0x3d3b3199	0.045701597
54	0x3cfb89aa	0.030705292
55	0xbcf6d7c8	-0.03013219
56	0xbd0c2e22	-0.034223683
57	0x3ce88377	0.028383
58	0xbc1694c4	-0.009190742
59	0xbca5b57f	-0.020228146
60	0x3cc4eec9	0.024039643
61	0xbc1bc792	-0.0095080305
62	0x3bf35182	0.007425488
63	0xbcec1433	-0.028818225

layers.10.weight f4 [64]
0	0x3f810def	1.0082377
1	0x3f82970f	1.020235
2	0x3f82d453	1.0221046
3	0x3f8015e2	1.0006678
4	0x3f82ae7f	1.0209502
5	0x3f821e08	1.0165415
6	0x3f81fffe	1.0156248
7	0x3f80da0a	1.006654
8	0x3f808e27	1.0043381
9	0x3f8296e2	1.0202296
10	0x3f7a19ac	0.9769542
11	0x3f82f030	1.022955
12	0x3f7faa17	0.9986891
13	0x3f8077cf	1.0036563
14	0x3f7e74b5	0.9939683
15	0x3f800f32	1.0004637
16	0x3f7ed1f8	0.99539137
17	0x3f81e8b8	1.0149145
18	0x3f7fb496	0.9988493
19	0x3f837eb6	1.0273044
20	0x3f8061de	1.0029867
21	0x3f81c39a	1.0137818
22	0x3f81da82	1.0144808
23	0x3f8122bf	1.0088729
24	0x3f7c3f46	0.9853405
25	0x3f80bd8b	1.0057844
26	0x3f8334b1	1.0250455
27	0x3f81a8ca	1.0129635
28	0x3f7e5b7b	0.9935834
29	0x3f806f89	1.0034038
30	0x3f7d4cb5	0.9894517
31	0x3f7ceb5d	0.98796636
32	0x3f7d921a	0.9905106
33	0x3f7e1080	0.99243927
34	0x3f826c30	1.0189266
35	0x3f816c00	1.0111084
36	0x3f7f0162	0.99611485
37	0x3f831477	1.024062
38	0x3f80a90a	1.0051587
39	0x3f814b89	1.0101177
40	0x3f8117d7	1.00854
41	0x3f80c317	1.0059537
42	0x3f800bfc	1.0003657
43	0x3f80aff2	1.0053694
44	0x3f839deb	1.0282568
45	0x3f835eeb	1.0263342
46	0x3f80c2a2	1.0059397
47	0x3f8051f7	1.0025014
48	0x3f80b6c9	1.0055782
49	0x3f81013f	1.0078505
50	0x3f7c3968	0.98525095
51	0x3f846165	1.0342222
52	0x3f8194d1	1.012354
53	0x3f7ce72d	0.98790246
54	0x3f81ceb6	1.0141208
55	0x3f808e59	1.0043441
56	0x3f80d0ca	1.0063717
57	0x3f8039a4	1.001759
58	0x3f83cb19	1.0296355
59	0x3f81300b	1.0092787
60	0x3f804df4	1.002379
61	0x3f8171ba	1.0112832
62	0x3f806f7b	1.0034021
63	0x3f7cf8fd	0.98817426

layers.10.bias f4 [64]
0	0xbb8dd461	-0.004328296
1	0xbbefecf3	-0.0073219477
2	0xbca8c862	-0.020603362
3	0xbb373e75	-0.0027960811
4	0x3c9cb0d8	0.019127294
5	0xbcac02d6	-0.020997446
6	0xbabe86b0	-0.001453599
7	0xbb0d6ced	-0.0021579817
8	0xb9cc92d2	-0.00039019302
9	0xbd10ba6f	-0.035334047
10	0x39af881d	0.00033480013
11	0xbc09f21e	-0.008419542
12	0xbc81b28a	-0.015832204
13	0x3ba3aa46	0.0049946634
14	0x3c328e81	0.010898233
15	0xbc897f43	-0.016784316
16	0xbc4e0428	-0.012574233
17	0x38bd2938	9.0199e-05
18	0xbc481c6d	-0.0122138085
19	0x3c44f2a6	0.0120207425
20	0xbb50832e	-0.003181647
21	0xbbbe03b6	-0.005798782
22	0x3c6abacc	0.014326762
23	0xbc00e41e	-0.007866887
24	0xbc53f957	-0.012937865
25	0x3caff05e	0.02147692
26	0x3c2868f4	0.010278929
27	0xbb30b16d	-0.0026961223
28	0xbd1f74f9	-0.038929913
29	0xbad5330e	-0.0016265826
30	0xbc57f2c6	-0.01318044
31	0xbc9b51bb	-0.01895987
32	0xba4bc812	-0.0007773648
33	0x3acf4a60	0.0015815012
34	0x3c3570a3	0.011074218
35	0xbb04dc27	-0.0020272823
36	0x3afa83e2	0.001911279
37	0xbbab2bd9	-0.005223733
38	0xba1c3330	-0.0005958555
39	0xbb8d7a31	-0.004317545
40	0xbcf76fcf	-0.030204682
41	0x3c891f96	0.016738694
42	0x3ca1fd58	0.019774124
43	0xbba5e3ea	-0.00506257
44	0xbbe21da2	-0.006900505
45	0xbbaf4e29	-0.0053498936
46	0x3ba5f990	0.0050651506
47	0xbb6748a4	-0.00352911
48	0x3c2e7cc5	0.010649865
49	0xbc290d7e	-0.010318158
50	0xbcb3ca27	-0.02194698
51	0xbc2b9641	-0.010472835
52	0x3c22aed8	0.009929381
53	0xbc1d089d	-0.009584573
54	0xbc2ff268	-0.0107389465
55	0xbc828363	-0.01593179
56	0x3c8e84fb	0.017397394
57	0x3b401ca8	0.0029313955
58	0xbc9c1ade	-0.01905578
59	0x3b8473bf	0.0040421183
60	0xba6ae523	-0.00089605356
61	0xbbdfbbd5	-0.0068278112
62	0xbc456a11	-0.012049214
63	0xbcf122f1	-0.029435607

layers.10.running_mean f4 [64]
0	0x3da52396	0.08063428
1	0xbb821517	-0.0039697993
2	0x3d3e6472	0.04648251
3	0x3d74a34c	0.059726045
4	0xbce1a480	-0.02754426
5	0x3debf41f	0.11521172
6	0x3d8a54b8	0.0675444
7	0xbcec9d2e	-0.028883543
8	0xbc97d42b	-0.018533787
9	0x3de68df1	0.11257542
10	0x3e051a3c	0.12998289
11	0x3d9e9f01	0.07745171
12	0x3ccbca0e	0.02487662
13	0x3dac71cd	0.08420143
14	0x3e47c173	0.19507389
15	0x3d90f9f7	0.07078927
16	0xbc9bbcd4	-0.019010939
17	0x3dfa2a91	0.1221515
18	0xbd4dc84a	-0.05023984
19	0xbdc2f015	-0.09518448
20	0x3ad41d99	0.0016183137
21	0x3ce5ed92	0.028067384
22	0xbd1aada5	-0.037763257
23	0x3cc27e6a	0.02374192
24	0x3c4bc7f9	0.012437814
25	0xbbec0d5e	-0.007203742
26	0x3ca7de22	0.020491663
27	0xbcd76d05	-0.026297102
28	0x3d90c9a4	0.0706971
29	0xbd03d2a3	-0.0321833
30	0x3c0f274c	0.008737396
31	0xbcbbf501	-0.022943975
32	0x3dfd8f97	0.12380903
33	0x3d3c897a	0.046029545
34	0xbd80780d	-0.06272898
35	0x3e4450b4	0.19171411
36	0x3c1c7544	0.009549443
37	0xbd85cdde	-0.06533407
38	0xbd6abf16	-0.05731114
39	0x3d4d86b3	0.050177287
40	0x3d5e5a3c	0.054285273
41	0x3d128f31	0.03578109
42	0x3e16653f	0.1468706
43	0x3cd4a034	0.025955297
44	0xbd874230	-0.06604421
45	0x3d9af52d	0.07566295
46	0xbd2ac3d4	-0.041690663
47	0xbd9d81ba	-0.07690759
48	0x3cfb639c	0.030687146
49	0xbd8d2791	-0.06892312
50	0xbc6f2428	-0.014596023
51	0x3dcc8f1f	0.09988236
52	0xbd1f555d	-0.03889977
53	0x3d99ca2e	0.07509266
54	0x3dedf544	0.11619046
55	0x3c0f2a19	0.008738064
56	0x3b1529b0	0.0022760443
57	0x3b099161	0.0020991194
58	0x3bcd2a04	0.006261112
59	0xbc5a05be	-0.013307033
60	0xbd81b1cd	-0.06332741
61	0xbc11db24	-0.008902345
62	0x3d94ed6a	0.07271846
63	0xbc568593	-0.01309337

layers.10.running_var f4 [64]
0	0x3ebdf63a	0.37101918
1	0x3eb75dbb	0.35813698
2	0x3eb93908	0.36176324
3	0x3ebcca73	0.36873206
4	0x3eba13f7	0.36343357
5	0x3ebeab5c	0.37240112
6	0x3ebc5f18	0.367913
7	0x3eb7c547	0.35892698
8	0x3eb80cef	0.35947368
9	0x3ebbe6dd	0.36699572
10	0x3ec228d1	0.37921765
11	0x3ebc74a4	0.3680774
12	0x3eb9958a	0.36246902
13	0x3ebedced	0.37277928
14	0x3ecbc2fb	0.39797196
15	0x3ebe5810	0.3717656
16	0x3eb87e27	0.36033747
17	0x3ebe7bb1	0.37203744
18	0x3eb69969	0.35663918
19	0x3eb6279d	0.35577098
20	0x3eb90f6e	0.36144584
21	0x3ebd196e	0.36933464
22	0x3eb798ae	0.35858673
23	0x3eb8a28a	0.36061507
24	0x3eb9f2be	0.3631801
25	0x3eb9c463	0.36282644
26	0x3ebb995f	0.3664045
27	0x3eb719dc	0.35761917
28	0x3ebdc2b2	0.37062603
29	0x3eb68bfb	0.35653672
30	0x3ebaf56d	0.3651537
31	0x3eb69e7f	0.35667798
32	0x3ebe1203	0.37123117
33	0x3ebe7fa4	0.37206757
34	0x3eb6dd8b	0.357159
35	0x3ec6f979	0.38862208
36	0x3eb7943e	0.35855287
37	0x3eb7469c	0.35796058
38	0x3eb553ae	0.35415405
39	0x3ebedbbb	0.37277016
40	0x3ec3f656	0.38273877
41	0x3eb86429	0.36013916
42	0x3ecd4904	0.4009477
43	0x3eb9a84f	0.36261222
44	0x3eb8bd75	0.36082044
45	0x3ebf5bc5	0.37374702
46	0x3eb7884e	0.3584618
47	0x3eb55e0e	0.3542332
48	0x3eb96598	0.36210322
49	0x3eb5f12f	0.3553557
50	0x3eb77fb1	0.35839608
51	0x3ebd7079	0.36999872
52	0x3eb8d389	0.3609889
53	0x3eb8acd2	0.3606935
54	0x3ebe3bc0	0.3715496
55	0x3ebb7a5e	0.36616796
56	0x3ebaa8af	0.3645682
57	0x3eb73e90	0.3578992
58	0x3ebc3982	0.36762625
59	0x3eb78f78	0.35851645
60	0x3eb6327c	0.35585392
61	0x3ebaed61	0.3650923
62	0x3ebb286e	0.36554283
63	0x3ebb21c7	0.36549208

layers.13.weight f4 [10, 576]
0	0x3d290633	0.041265678
1	0x3d3c7845	0.046013135
2	0xbcb243e3	-0.021760887
3	0x3d3a44c9	0.045475755
4	0x3c2e4d94	0.010638613
5	0xbb914047	-0.0044327113
6	0x3d297fce	0.04138165
7	0xbc9bcf64	-0.01901979
8	0xbcccc396	-0.024995606
9	0x3cc64729	0.024203854
10	0x3d2e145e	0.042499892
11	0xbc0e29f3	-0.008676994
12	0xbc87d234	-0.016579725
13	0x3d1e1877	0.03859755
14	0x3cdbb5e2	0.026820127
15	0xbc72bef2	-0.014816033
16	0xbd114e4f	-0.03547507
17	0xbc7833cc	-0.015149068
18	0x3b6aaa6a	0.003580714
19	0x3c9cf8b4	0.01916156
20	0x3d24f146	0.04026916
21	0x3cb0b002	0.021568302
22	0x3ca1b378	0.019738898
23	0x3c4b79b9	0.012419158
24	0x3c8c6920	0.017139971
25	0xbcf91f71	-0.0304105
26	0x3cf68a25	0.03009517
27	0xbd081ac6	-0.03322866
28	0x3ccc08ef	0.024906604
29	0xbc169528	-0.009190835
30	0x3caa603f	0.020797847
31	0xbd25fcff	-0.04052448
32	0xbc4a12b1	-0.012333558
33	0x3c5d21cc	0.013496827
34	0x3b1d5c5c	0.002401135
35	0x3d4a36b3	0.04936857
36	0x3c8bbe48	0.017058507
37	0x3c7c8b09	0.015414008
38	0xbbe31dbb	-0.0069310344
39	0x3a4664b8	0.0007568109
40	0xbd05bd42	-0.032651193
41	0x3d329690	0.04360062
42	0x3d020daa	0.031751312
43	0xbbc68322	-0.0060581127
44	0x3c4b7262	0.012417408
45	0xbc026779	-0.00795924
46	0xbd065f4d	-0.03280573
47	0xbb5918fd	-0.0033126466
48	0xbc0b095c	-0.008486118
49	0xbd29833c	-0.04138492
50	0xbc4d452a	-0.012528697
51	0x3cb82ad3	0.022481358
52	0xbbd54bee	-0.0065092957
53	0xbc506111	-0.012718455
54	0xb9af2004	-0.00033402455
55	0x3cf520da	0.029922891
56	0xbd0f470d	-0.03497987
57	0x3d03c638	0.032171458
58	0xbba1bb39	-0.0049356488
59	0xbcaea402	-0.02131844
60	0xbbcacdef	-0.0061891
61	0x3d03ff14	0.032225683
62	0xbac10be3	-0.0014728274
63	0x3d15ee8d	0.036604453
64	0x3cf75e02	0.030196194
65	0xbbcb0adf	-0.0061963643
66	0xbcaa6d97	-0.02080421
67	0x3c05bb93	0.008162397
68	0x3c6937c0	0.014234483
69	0xbd087435	-0.03331395
70	0x3c3cdbbb	0.011526997
71	0x3d1055e9	0.03523818
72	0xbcdc7acb	-0.026914021
73	0x3cd81f8f	0.026382236
74	0xba43f52b	-0.00074751925
75	0x3cd6bcc8	0.026213065
76	0xbc44e2af	-0.012016936
77	0x3ca099e7	0.019604636
78	0x3d21622a	0.039400257
79	0xbcbdd487	-0.02317263
80	0xbb79abaf	-0.0038096716
81	0x3c0c5af5	0.008566608
82	0xbcd32e79	-0.025778996
83	0x3ca5491d	0.020176465
84	0xbc949935	-0.018139461
85	0xbb1f3f6f	-0.0024299284
86	0xbc91de4c	-0.017806195
87	0xbc8054ee	-0.015665498
88	0x3cc4ac4c	0.024007939
89	0x3cd2fe85	0.02575613
90	0xbcc9cc86	-0.024633657
91	0x3d01ee8d	0.03172164
92	0x3ccd6317	0.025071664
93	0x3cb15f92	0.021652017
94	0x3b862c88	0.004094664
95	0xbd3443ba	-0.0440099
96	0x3be99bc0	0.0071291625
97	0x3c906a8d	0.017628932
98	0xbd24b237	-0.04020902
99	0xbba5b41c	-0.005056871
100	0x3cd7616b	0.02629157
101	0x3d2d8713	0.042365145
102	0x3c214bcd	0.0098447325
103	0x3c9827a2	0.018573586
104	0x3cb02f63	0.02150697
105	0xbc9bf794	-0.019038953
106	0xbc382020	-0.011238128
107	0xbcc6a6e7	-0.024249507
108	0x3af11bea	0.001839516
109	0x3c932c20	0.017965376
110	0x3c2d332e	0.010571284
111	0xbaeec4ae	-0.0018216574
112	0x3c573593	0.013135332
113	0xbc0fd22f	-0.008778139
114	0x3d1d8a70	0.038462102
115	0xbd13896e	-0.036019735
116	0x3cc93ea2	0.024565998
117	0x3c08b282	0.008343341
118	0x3ce10ca9	0.027471857
119	0xbd489c4c	-0.04897718
120	0xbc31fb12	-0.0108630825
121	0x3c382505	0.011239295
122	0x38f45bb0	0.00011651905
123	0xbc3b64a7	-0.011437572
124	0x3ce9de00	0.02854824
125	0x3d2b5721	0.04183114
126	0x3c467ca8	0.012114681
127	0x3c37b403	0.011212352
128	0xbc47317a	-0.012157792
129	0x3ca7bac6	0.020474803
130	0xbd3da4ef	-0.04629987
131	0x3cfe7d94	0.03106574
132	0x3c22f8d8	0.009947024
133	0xbcfcd355	-0.03086249
134	0x3cc8fe0c	0.024535201
135	0x3bb030a7	0.0053768936
136	0xbc5dddc2	-0.013541641
137	0xbd0cd1f4	-0.034379914
138	0x3d26f914	0.040764883
139	0xbccfe589	-0.025378006
140	0x3cb3f8d3	0.021969235
141	0xbcb09073	-0.021553254
142	0xbcda6956	-0.026661556
143	0x3d197b65	0.037471194
144	0x3c8f1361	0.017465295
145	0x3cb50727	0.022098137
146	0x3aa2289a	0.0012371719
147	0x3cc8394f	0.02444139
148	0x3cad00e6	0.021118592
149	0xbccfec2d	-0.025381172
150	0x3cd4124b	0.025887629
151	0x3bbc49b8	0.0057460926
152	0xbc72f4b4	-0.01482885
153	0x3d0dbc9d	0.034603704
154	0xbc74866f	-0.01492463
155	0x3d18408a	0.037170924
156	0xb91261ba	-0.00013960051
157	0xbc321c0b	-0.010870944
158	0x3d13ddd2	0.036100216
159	0xbd133c5d	-0.03594624
160	0xbc6a9601	-0.01431799
161	0xbb62237e	-0.0034506018
162	0xbbee0894	-0.007264206
163	0xbd105f7b	-0.035247307
164	0xbc5420cc	-0.0129472725
165	0xbd2dc9c4	-0.042428747
166	0xbc98fea2	-0.018676106
167	0xbd00b9ce	-0.031427197
168	0xb9defe3c	-0.0004253256
169	0x3bd7ccae	0.006585679
170	0xbcfda97b	-0.030964604
171	0xbd21f814	-0.039543226
172	0xbc923e10	-0.01785186
173	0x3b1ff51a	0.0024407567
174	0xbd0fe3a6	-0.03512921
175	0x3c3fcd4f	0.011706664
176	0x3cf7cea7	0.030249907
177	0xbd017569	-0.03160611
178	0x3d6b13f1	0.057392064
179	0x3cf49185	0.029854545
180	0xbd147361	-0.036242846
181	0xba31bc2a	-0.0006780053
182	0x3bfe6388	0.00776333
183	0xbce989e6	-0.028508138
184	0xbcbffe29	-0.023436623
185	0xbd007837	-0.031364646
186	0x389d82ae	7.5106844e-05
187	0xbb08abcc	-0.0020854352
188	0x3d02ada6	0.031903885
189	0x3c92f4a2	0.017938916
190	0x3cd5509d	0.026039416
191	0x3cd0c0c7	0.025482548
192	0xbd029eba	-0.031889655
193	0xbd257ce7	-0.04040232
194	0xbce2bc36	-0.027677637
195	0xbbbb7fb2	-0.0057220096
196	0x3d003e3d	0.031309355
197	0x3b8f7671	0.004378133
198	0x3d4597da	0.04824052
199	0xbce74c32	-0.028234575
200	0xbd1c921c	-0.03822528
201	0xbd4a5172	-0.04939408
202	0xbb6a241d	-0.0035727092
203	0x3bfef7bb	0.0077809966
204	0x3cad3fea	0.02114864
205	0x3c3fb8cf	0.011701777
206	0x3d276853	0.040870976
207	0xbc859cce	-0.016310122
208	0xbc856a08	-0.016285911
209	0xbc1a0391	-0.009400264
210	0xbccd06f7	-0.025027735
211	0xbbdaee1f	-0.0066812183
212	0xbc91bfda	-0.017791677
213	0xbc213289	-0.009838709
214	0xbc821383	-0.015878445
215	0xbc7adace	-0.015310956
216	0xbcd759eb	-0.026287993
217	0x3cdac226	0.026703905
218	0x3ba91bfb	0.0051608062
219	0xbcdceddc	-0.026968889
220	0xbd143482	-0.036182888
221	0xba439d17	-0.0007462068
222	0x39ee58f3	0.0004546117
223	0x3c92da41	0.017926337
224	0x3a4738fb	0.00075997383
225	0x3c8ef5d8	0.017451212
226	0xbd57ab5b	-0.05265365
227	0xbcd679ba	-0.02618109
228	0xbcf96d60	-0.030447662
229	0x3bfe3198	0.007757377
230	0x3d401647	0.046896245
231	0xbca30ab5	-0.019902566
232	0x3cb87b2b	0.022519669
233	0xbcd92bd0	-0.02651015
234	0xbca17430	-0.019708723
235	0x3d13c0be	0.036072485
236	0xbb87b6b0	-0.004141651
237	0x3d1519c6	0.036401533
238	0x3cf1cb45	0.029515872
239	0xbd21bcb5	-0.039486606
240	0x3d1a56ad	0.037680317
241	0x3d0ab264	0.033861533
242	0x3ce276bd	0.02764451
243	0x3cd4d3cb	0.025979897
244	0xbd38611e	-0.045014493
245	0x3d4b5ef2	0.049651094
246	0xbca1e153	-0.019760763
247	0xbcaf6e33	-0.021414852
248	0xbca2a2d6	-0.019853037
249	0xbd2cd1a8	-0.04219213
250	0x388b24cd	6.634891e-05
251	0xbab5d832	-0.0013873635
252	0x3d2db04b	0.042404454
253	0x3b463530	0.0030244105
254	0x3ccf4c30	0.025304884
255	0xbc090934	-0.008364011

layers.13.bias f4 [10]
0	0x3c88ce1d	0.016699845
1	0x3d6dba37	0.058038916
2	0xbcfe5f4c	-0.0310513
3	0xbcb56e60	-0.022147357
4	0x3ae49f59	0.0017442509
5	0xbc4c33e0	-0.01246354
6	0xbb9c7ea1	-0.0047758375
7	0xbcdb86e9	-0.026797729
8	0x3d00e937	0.03147241
9	0xbbc84564	-0.0061117876
