mnist_convnet/mnist_convnet.webgpu.safetensors (safetensors, 353816 bytes, 18 tensors)

layers.0.weight f4 [32, 1, 5, 5]
00000000: 1d53 18b9 0d0c 0cbe b07a c6bc d2ac f23d
00000010: 1cea e7bd 6141 903d 9fb8 f4bd cce3 edbd
00000020: 557d 353e 7e25 833b 2c6c 97bc 0884 b73d
00000030: 1731 f5bd 5618 f13d 64b9 a33b a3ec 91bd
00000040: 1e2f debd 6dbe 2dbe 7137 11be fc46 f3bc
00000050: 0ff3 253e efaf 1c3e 7f1f 20bd a9f4 343e
00000060: 8e18 42be 68d9 743e c779 9d3b a770 02be
00000070: 21fc 0a3e 0102 5d3d 1e54 123e ce9a 12be
00000080: 152c 39bd becb a2bd fca7 44bd e299 363e
00000090: 43e3 fa3d ac15 21be dd9b cc3c e0c2 e7bd
000000a0: c9a3 183c 22f7 393e fec7 233e f9ae 573d
000000b0: 20b7 c23d 55be 1c3e e885 47bd 4f1a 51be
000000c0: de11 afbc 7af4 823c 0ba3 8cbd 4548 02be
000000d0: 26ec 4abd 8c85 e9bd 1492 cd3d 8255 053e
000000e0: 6ece 8f3d d53d ed3c b717 2ebe 1d75 223e
000000f0: f00c 8f3c e297 b1bd bc24 403e 7356 613d
00000100: 0109 debd 2991 3bbd 175e 2f3e 2cba 72bd
00000110: c58f 5ebb 451d 15bd 2e7a b6bd 9cc1 2f3d
00000120: cb5b 0abe 3fd0 9d3d 98fe 803d 9c34 373e
00000130: db5c 433e 438b 4f3e 24c5 923d d5b8 cebd
00000140: dc9a eabd 5092 bc3d 420a f2bd 845f d83d
00000150: 3420 603d 5598 2dbe 205b d6bd 905f a63d
00000160: d66c 67bd 5f2d c0bd 4ef7 a93d a085 f83d
00000170: f1fc 3ebe f249 52bd f058 2a3d a0ea 69be
00000180: 7138 08bd 7909 e53c 7540 92bd cdc5 c4bd
00000190: fd04 d13d 0a7a f3bd aa82 0ebe 4006 f93d
000001a0: 9e1b 42be 92a6 db3c a2c6 903d 5ae2 13be
000001b0: c0ec 09be 7961 2dbd 2377 2ebe 5374 f3bc
000001c0: 5e71 1abe 6b1c 8b3d 7a20 17bd 0c26 373e
000001d0: 1e18 b03d 2a41 5dbd 04fd 383d 528d 2c3e
000001e0: f266 063e cd4f 213e 75c9 53bd 94a7 f83d
000001f0: 03b3 253e 3a84 193e 22e6 1d3e 5abf 56bd
00000200: 06af dcbd 9d1c 483e f818 d93d 31a8 28be
00000210: 516d 623e 1753 143e 6721 d53d 46d0 8ebd
00000220: 88e1 30bd fd53 1bbe 2888 cabd 7d1e e5bc
00000230: f222 c83d 67ed e8bb 2e86 b1bd a19e 38be
00000240: db9d 3dbe a50a 66bc 3257 28be 5869 ac3b
00000250: 4138 b73c bfd8 2d3e 3231 273e 87d7 ea3d
00000260: e94b 08be cdff eb3d 6380 173d 34a7 0e3d
00000270: 4744 5b3e 41d9 0f3e 02d5 993c 5237 74bd
00000280: e1df b2bd 6d64 0d3e 62c8 f03d 949b 393d
00000290: f3e4 083e fe65 0f3e 99e9 b63c f32a b53c
000002a0: f114 073e 9c06 bf3d 83e4 4bbe 344f 0cbd
000002b0: cf89 5abd 1388 a0bd e066 b73c 5c93 23be
000002c0: 977b cebd af7a 8bbd eea0 e23d 8310 57bc
000002d0: 06c4 4abe 8412 883d bc4b 2d3e 1212 0d3e
000002e0: 481c 0a3e 06c2 003c cc64 3b3e 5baa e13a
000002f0: eae2 973c 7c43 b3bd fec4 273e 9453 643e
00000300: d363 343e 0a16 a13d 37c9 63bc c87d 79bd
00000310: 4100 0e3e 9a72 adbd b53a 983d 4413 d4bb
00000320: 3e47 593d 082d 35be ba1a 473e 8637 e13d
00000330: 430e adbd c5a3 13be 3ef7 bdbd 61c2 293e
00000340: f007 143e ec8d ec3d 42e2 d6bd da1f c03d
00000350: 5f18 083c 4f78 c3bd ff4e 02be 9386 aa3c
00000360: cb80 043d 8f1b 5abc 1c87 adbc df96 b53c
00000370: 3fdd 16be 48d1 463e acad 313e d0ea 1e3e
00000380: 2a05 0fbe 85c2 19be 6103 17bd 874a 9f3d
00000390: f512 503e bf21 0bbe 037c ecbc 125c b13d
000003a0: 7296 0c3e ab83 e23c 1dad 20be 8c7c 063e
000003b0: 122c 4b3e 6f64 f33d 67f6 aa3d 6ffd e5bd
000003c0: f83e 443d dbda eebc 2e64 3abc 9cda b93d
000003d0: faf5 48be 5035 543e fa5f aa3d e998 34be
000003e0: 06cd 18be 1ed5 58be d7e0 29bd 033b 15be
000003f0: 6a70 193e c5f5 46be 1077 1d3e 6821 9b3d
-0.00014526812 -0.13676472 -0.024228424 0.11849369 -0.1132395 0.0704372 -0.11949276 -0.116157144
0.17723592 0.004002272 -0.018484198 0.0896073 -0.11972254 0.1177222 0.0049964655 -0.07125213
-0.10848831 -0.16967173 -0.14181305 -0.029696934 0.16206001 0.15301488 -0.039092537 0.17671455
-0.1895468 0.23911059 0.0048057768 -0.12738286 0.13572742 0.05395699 0.142899 -0.14316866
-0.045208056 -0.07949017 -0.048011765 0.17832139 0.12250378 -0.15730923 0.024976665 -0.11316466
0.009316393 0.1816068 0.1599426 0.0526571 0.095075846 0.15306981 -0.048711687 -0.20420192
-0.021370824 0.015985716 -0.068670355 -0.12722881 -0.049541615 -0.11402425 0.10037628 0.130209
0.07021795 0.028960148 -0.17001234 0.15864988 0.017462224 -0.086715475 0.18764013 0.055014085
-0.10841561 -0.045792732 0.17125736 -0.05925958 -0.0033960205 -0.036404867 -0.08910023 0.04290925
-0.13511579 0.077057354 0.0629856 0.17891163 0.1907839 0.20267968 0.07166508 -0.10093848
-0.11455318 0.092075944 -0.11818363 0.10565093 0.05471821 -0.16952641 -0.104665995 0.08123696
-0.05650028 -0.09383654 0.08299123 0.12134862 -0.18651177 -0.05134005 0.041588724 -0.22843409
-0.03325695 0.027958618 -0.071412005 -0.0960804 0.102060296 -0.118885115 -0.13917032 0.12159395
-0.18955848 0.026812825 0.07069136 -0.14441815 -0.13469219 -0.042329285 -0.17037635 -0.029718554
-0.15082309 0.0679253 -0.036896206 0.17885607 0.0859835 -0.054017223 0.04516317 0.16850784
0.13125208 0.15753098 -0.051705796 0.12141338 0.16181569 0.14991847 0.1541982 -0.05242858
-0.107755706 0.19542165 0.106004655 -0.1647041 0.22112013 0.14484821 0.104067616 -0.06973319
-0.043183833 -0.15168758 -0.09889251 -0.02796864 0.0977229 -0.0071083787 -0.08668171 -0.18029262
-0.18517248 -0.014040624 -0.16439512 0.0052615814 0.022365691 0.16977213 0.1632736 0.1146689
-0.13310207 0.115233995 0.036987673 0.034827426 0.21412764 0.1404772 0.018778328 -0.05962307
-0.08734108 0.1380784 0.1175697 0.045314386 0.13368587 0.1400375 0.022328185 0.022115206
0.13191582 0.093274325 -0.19911389 -0.03425522 -0.05335408 -0.07838454 0.022387922 -0.15974182
-0.10082167 -0.068105094 0.11065851 -0.013126495 -0.1980134 0.066441566 0.16923422 0.13776425
0.13487351 0.007858759 0.1830017 0.0017216908 0.018540818 -0.08753106 0.1638374 0.22297508
0.17616205 0.07865532 -0.013902954 -0.06091097 0.13867284 -0.08469124 0.074330725 -0.006472023
0.053046457 -0.1769296 0.19443789 0.109969184 -0.08449986 -0.14417942 -0.09275673 0.16578056
0.14456153 0.11550507 -0.10492374 0.09381075 0.008306592 -0.095444314 -0.12725447 0.020816123
0.03234939 -0.013312235 -0.02118259 0.022166668 -0.14732836 0.19415772 0.17351407 0.15519261
-0.13966814 -0.1501561 -0.036868457 0.07777887 0.20319732 -0.13587092 -0.028867727 0.08660139
0.13729265 0.027650675 -0.15691037 0.13133448 0.1984103 0.118843906 0.08347779 -0.11229979
0.047911614 -0.029157093 -0.011376424 0.090748996 -0.19625083 0.20723462 0.08319087 -0.17636456
-0.1492196 -0.21175048 -0.04147419 -0.14573292 0.14984289 -0.19429691 0.1537745 0.07574731

layers.0.bias f4 [32]
00000000: 2d06 373e ab84 cf3d b563 3fbd 282b 96bd
00000010: 0a20 2dbe 8f17 503c 294f 27be b753 09bd
00000020: 745f 4cbe e776 a03c ae6e c9bd 3e4f 9dbd
00000030: 98d1 5a3d 18fd 0f3e d6f0 edbd 8929 9ebc
00000040: d043 33be e801 42be e1c2 a5bd e142 00be
00000050: feba c83d e673 a1bc 395b b73d 59f0 143e
00000060: 7e94 4e3d a483 a23d d854 29be dd18 363e
00000070: 75b1 023e 7379 9cbd 6349 adbc b5ca 0e3e
0.1787345 0.10132726 -0.046725947 -0.0733245 -0.16906753 0.012700929 -0.16338791 -0.033527102
-0.19958287 0.019587947 -0.098355636 -0.0768113 0.05342254 0.14061391 -0.116182014 -0.019306915
-0.17506337 -0.1894604 -0.08093811 -0.12525512 0.09801291 -0.019708585 0.08952946 0.1454481
0.050434582 0.07935265 -0.16536272 0.17782922 0.12763007 -0.07640352 -0.021153158 0.13944514

layers.2.weight f4 [32, 32, 5, 5]
00000000: ded4 5fbc e8fd 43bd 30b5 b73c 3dd4 06ba
00000010: 8771 77bb f28f b13c 5b24 81bc a6be c13c
00000020: b725 0f3d 0543 88bc 0fb1 343b 0139 343b
00000030: 873c 1ebb 98f2 1c3d 6a91 13bc ece5 8f3c
00000040: 9113 883c 99b2 ffba c9ad 9b3c a9e5 12bd
00000050: 478c 193d bb82 b8bb 9960 e8bc 150f bb3c
00000060: 3a84 0c39 0214 bfbc 3e69 e7bc e1a9 d93b
00000070: 03a2 d5bc 3891 f5bc 1736 f23b 2670 ccbc
00000080: 4c7e d43c 9b30 b53c 90fe 763c 2b2c c83b
00000090: 0a34 e1bb 677d 493a 2b60 5cb8 6e38 5bbc
000000a0: 237f 09bd e025 243d c7ed c73b 57f0 063d
000000b0: 6d8d a9bc a593 dcba 0342 0b3c 5727 8abc
000000c0: 2c10 df3c 35cb 0ebd 92a6 413c 6482 e43c
000000d0: e7c8 86bb 5144 3eb9 6df3 b03c e8ee 4bbc
000000e0: 2cdf febc 10f2 d43c b82f c33c 7b35 7b3c
000000f0: 613a 96bc 121e cfbc 501c 15bb b7ae b3bb
00000100: 3ed6 883c 45b8 57bc b271 253c 7348 be3c
00000110: b4c4 d9bc d02c 4fbc 210b 673b 8779 6a3b
00000120: ed41 f1bb b462 16bc 52e1 113a 5d25 8b3c
00000130: 387f 173d 2783 923c 05eb acbc 33d8 093b
00000140: 442a 33bc 8bf8 93bc c50f ad3c d210 17bd
00000150: 85b6 f2bc d030 2ebc 52e0 f6bc 3194 cabc
00000160: b0fb a4bc bced 3a3c d898 ab3c c3d6 2cb9
00000170: e4d4 853a dc17 b1bc c7ad 953c d21b 05bd
00000180: 9c33 ac3b d7f7 8a3c c640 fbbc ddc3 80b9
00000190: 3f67 0cbc e757 263c 32f3 ebbc f45b 29bc
000001a0: d63b 8abc 3c57 193a f965 4ebc 0b50 3a3c
000001b0: 2c1f 47bc 7363 20bc abfa c23c 4b8e 903c
000001c0: 90b0 8ebc c0d1 ce3a 60bb fdbc f729 ba3c
000001d0: 6682 c3bb eff1 97bc 0161 dbbc b201 6ebb
000001e0: dd0f 0d3d 4d31 bebc 5dcb 2cbc 4eba 823c
000001f0: 278b 6d3c a947 8b3c e384 893c 0909 08bc
00000200: 8a17 c5bc 7c58 0c3d cbe8 8f3c a7c8 50bc
00000210: e179 babc 4f77 823b df62 783c 0a98 f0bc
00000220: 8ff9 11bd a1e7 f73c 25d2 ba3c f09e 01bc
00000230: 026b 243c da2e e53c a152 6d3c abbf 96bc
00000240: 1a1e 673c 6d00 46bd d8c9 c03b 6abe 9a3c
00000250: e674 af3c 43c9 113c 940d 273c a0d4 39bb
00000260: 542b b8ba 9fa6 f53c 7b00 d43c 5d2b a03c
00000270: 967b 7abb 8bc5 d4bc 8048 15bb 13dd 973b
00000280: 5216 b7ba 802d b03c e823 91bb 0e2c cabb
00000290: 92fe 743c c574 693c ff16 33bc ebb8 79bc
000002a0: e55c f5bb 65da 143b 1e45 11bc dffb 08bd
000002b0: 6d10 6e3c 0784 e83c d230 06bd 4b32 02bd
000002c0: 25fd 443c 12c4 f9bc a7d5 373c c544 033d
000002d0: 7a08 903c ff86 1dbd e715 0bbd 195f 50bc
000002e0: fae2 e93c a451 0ebd 15bd 103c 1081 09bd
000002f0: 7bc3 973c ff3e d33c d33e 01bd 11fd 0e3d
00000300: 5833 45bc 67f0 0c3d 40ba 293c 02cd 1d3d
00000310: 0ac5 043d 912c f83c 2c2b 1c3d 186f ecbb
00000320: c2ce adbb d7b3 9ebc 7bbb 4abc ca86 163d
00000330: ba15 553c d776 d2bc 7bc1 46bc e37c dfbc
00000340: 3cf1 73bc 7811 d53c ab25 e83c 7416 843c
00000350: 35f0 c4bc 11cc 0f3d 146e 0a3c c355 0dbc
00000360: a2e4 bbbb a95e 79bc 2fd2 bb3c 3d50 5d3c
00000370: 7170 fa3c 3701 3cbc bf7c a23b e1e1 b5bc
00000380: 579d 21bc e311 153d 6628 cd3c 032b 20bd
00000390: 3026 82bb daf7 403b a94e 313c ae33 d0bc
000003a0: 55a9 1a39 e571 1f3c 81f2 953c 3666 4f3c
000003b0: e5cd 333c 76ea 923b 7a5e a93b 4acf 443d
000003c0: 0a4b 59bc 67de 423b 3ffb febc 4276 a3bc
000003d0: 00f5 413c de75 9c3c cee3 df3c e8cf 233c
000003e0: d09c 9a3c a1a8 123c ecb5 d5bb 9aa7 d1bb
000003f0: 613c 13bd cb48 86bc 48e3 cb3b f0aa 42bc
-0.013661591 -0.047849566 0.022425264 -0.00051433203 -0.0037756877 0.021675084 -0.015764406 0.023650479
0.034948077 -0.01663352 0.0027571355 0.0027499797 -0.0024144964 0.038317293 -0.009006837 0.01756569
0.016610892 -0.0019508182 0.019003766 -0.035863552 0.037487295 -0.0056308187 -0.028366374 0.02283434
0.00013400699 -0.02332497 -0.028248426 0.0066425656 -0.02607823 -0.029976472 0.007391702 -0.02495582
0.02593913 0.022117903 0.015075341 0.006108781 -0.0068726586 0.0007686228 -5.254165e-05 -0.013380153
-0.033568513 0.040075183 0.0061013433 0.03294405 -0.02069732 -0.001682867 0.008499625 -0.016864462
0.027229391 -0.034861762 0.011819499 0.027894206 -0.004113305 -0.00018145262 0.02160045 -0.012447096
-0.031112276 0.02599433 0.023826465 0.015332575 -0.018338384 -0.025282893 -0.0022752471 -0.005483474
0.016703721 -0.013166492 0.010097908 0.023227906 -0.026583053 -0.0126449615 0.0035254436 0.0035778002
-0.0073625953 -0.009178806 0.00055648864 0.01698559 0.03698656 0.017884804 -0.02110816 0.0021033406
-0.01093537 -0.01806285 0.021125684 -0.036881275 -0.029628048 -0.010631755 -0.030136261 -0.024728866
-0.020139545 0.011409219 0.020946905 -0.00016483203 0.0010210541 -0.021617822 0.01827134 -0.032497235
0.0052551758 0.016963882 -0.030670535 -0.00024559992 -0.008569538 0.0101527935 -0.028802488 -0.010336865
-0.016874235 0.0005849486 -0.012597554 0.011371623 -0.012153428 -0.009789336 0.023801168 0.017645976
-0.017418176 0.0015779063 -0.030973136 0.022725089 -0.0059664724 -0.01854798 -0.026779654 -0.0036316928
0.034438957 -0.023216868 -0.010546532 0.015957978 0.014498509 0.017001944 0.016786998 -0.008302935
-0.024059076 0.034264073 0.017567059 -0.012743152 -0.022763195 0.003981508 0.015160291 -0.029369373
-0.03563839 0.030261816 0.022805283 -0.007911429 0.010035278 0.027976442 0.014485032 -0.018401941
0.014106298 -0.04834025 0.0058834367 0.018889625 0.021418046 0.008898082 0.010196108 -0.0028355494
-0.0014050999 0.029986678 0.025879135 0.019551927 -0.0038220636 -0.025973102 -0.002277881 0.0046345084
-0.0013968444 0.021506071 -0.004429329 -0.0061698025 0.014953272 0.014249031 -0.010930776 -0.015241842
-0.0074878805 0.002271318 -0.0088665765 -0.033443328 0.014530283 0.028383268 -0.032761402 -0.031786244
0.012023245 -0.030489001 0.011220372 0.032048006 0.017582167 -0.03845882 -0.033956435 -0.012717986
0.028550614 -0.034745827 0.008834143 -0.03357035 0.01852583 0.025786875 -0.031554054 0.03490931
-0.012036167 0.034408953 0.010359347 0.03852559 0.032414474 0.030294688 0.03812711 -0.007215392
-0.0053041885 -0.019372864 -0.0123738 0.03674964 0.013005668 -0.025691433 -0.01213109 -0.02728123
-0.014889058 0.026009306 0.028338274 0.016123988 -0.02404032 0.035106722 0.008449096 -0.008626404
-0.0057340423 -0.015220323 0.022927372 0.0135079 0.030571194 -0.011474899 0.0049587185 -0.022202434
-0.009864173 0.03639401 0.025043678 -0.03910352 -0.0039718375 0.0029444606 0.010821977 -0.025415268
0.00014749666 0.009731744 0.018304111 0.012658646 0.010974382 0.0044835163 0.005168733 0.04804925
-0.01326252 0.0029734613 -0.031125663 -0.01995385 0.011838198 0.019099172 0.027330305 0.009998299
0.018873602 0.008951337 -0.006521931 -0.0063981535 -0.035946254 -0.016392132 0.0062221624 -0.011881575

layers.2.bias f4 [32]
00000000: fc65 8cbc 4fe8 0cbc 3eec 03bd 34cf 393c
00000010: b5a2 dcbb 0a56 c6bb c1b5 02bb 8fe7 2bbd
00000020: 1ee1 8abd ad91 1f3c fb7d bebb 4c44 3dbd
00000030: 9dbd 813c eb23 233c fe18 8abc 5b4e c7bc
00000040: 4f5b 36bd 945c 94bc 1127 8bbc e2b6 4bbc
00000050: 9728 10ba f2f3 0cbd 60e0 8abd c5c1 fbbc
00000060: 1a3f e13b cbdf 21bd a217 fdbc e052 f2bb
00000070: f36e 0c3c f2fb 523c 1dd9 21bd ab0c 23bc
-0.017138474 -0.008600309 -0.03220772 0.011340905 -0.0067332634 -0.006052737 -0.001994476 -0.04196888
-0.06781219 0.009739322 -0.005813358 -0.04620771 0.015837485 0.009957294 -0.01685762 -0.024329355
-0.044520672 -0.018110551 -0.016986402 -0.012433739 -0.00054992124 -0.034412332 -0.067810774 -0.030732045
0.0068739774 -0.039520066 -0.030895058 -0.0073951334 0.008571374 0.012877451 -0.039513696 -0.009951751

layers.4.weight f4 [32]
00000000: 86ca 793f c71a 853f cd35 823f d688 7a3f
00000010: 370a 833f cc2c 823f efad 7c3f 4cae 833f
00000020: daec 863f f85e 853f bdda 823f d507 883f
00000030: 9935 7e3f 323a 823f aaf9 803f 44ef 803f
00000040: 1617 813f 9956 833f 3216 7f3f de82 7e3f
00000050: a789 843f c4de 823f e7c7 853f 7e26 803f
00000060: 0979 803f e255 813f 086f 833f fbfc 803f
00000070: 684d 803f 21e7 813f caab 853f 4432 813f
0.9757465 1.0398797 1.0172669 0.97865045 1.0237492 1.0169921 0.987029 1.0287566
1.0541031 1.0419607 1.0223004 1.062739 0.99300534 1.017401 1.0076191 1.0073018
1.008517 1.0260803 0.9964324 0.9941844 1.0354508 1.0224233 1.045163 1.0011747
1.0036937 1.0104334 1.0268259 1.0077204 1.0023623 1.014866 1.0443051 1.0093465

layers.4.bias f4 [32]
00000000: 3788 c9bc 7b82 a5bb 1386 c3bb 7d04 5e3c
00000010: 7e90 bebc 0239 673c 8fa0 a4bc 5a11 21bc
00000020: 6942 c53c 8cbd 723c b89a 123c 7684 0b3d
00000030: 1456 a9bb 1405 85bc f1dd 45bd 96b9 15bd
00000040: 24dd 80bc 9879 4ebb 2001 b9b9 0678 c1bc
00000050: 7934 a43c 4449 823c 828d 8e3d 11d3 99bb
00000060: 6a02 c9bb f405 2a3c 5e02 2d3d e0ba 92bc
00000070: 730b e0bc 6087 153c 7f49 a63c d545 603d
-0.024601085 -0.005050955 -0.0059669106 0.013550875 -0.023262259 0.014112713 -0.020096092 -0.009830797
0.024079518 0.014815699 0.008948021 0.03406187 -0.005167732 -0.016237773 -0.048307363 -0.03655394
-0.015730448 -0.003150558 -0.00035286788 -0.023616802 0.020044552 0.015904076 0.06960584 -0.0046943505
-0.006134321 0.010377396 0.042238586 -0.017911375 -0.02734921 0.009126514 0.020298718 0.054754097

layers.4.running_mean f4 [32]
00000000: 5bc4 313e ee58 9d3d c673 0dbd 9d6a 3dbd
00000010: 9f3e 07bd be37 a23d d989 f2bd 4d04 20bd
00000020: 5614 93bd 80e1 b0bd b973 f5bc 36d7 8fbd
00000030: f152 d7bb 8b1d 13be 6e9c af3d 2cea 4f3e
00000040: 49c8 e1bc 5d0d 43bd 77fd 403e 0563 f63e
00000050: ba9b c03c 0a37 133d 0a39 8f3c 50f8 8a3b
00000060: 87ec a5bd 5441 3d3e 4a01 b93a 6455 f23d
00000070: b150 f6bd e771 4bbd 2863 3db9 39e3 b7bd
0.1736006 0.076829776 -0.03453424 -0.046244252 -0.033018705 0.07920788 -0.118426986 -0.0390666
-0.07181613 -0.08636761 -0.029962407 -0.0702347 -0.0065711667 -0.14366738 0.085747585 0.20304173
-0.027561324 -0.047620166 0.18846689 0.4812242 0.023511756 0.03594116 0.017483253 0.004241027
-0.08101755 0.18481952 0.0014114764 0.11832693 -0.120271094 -0.049669173 -0.00018061383 -0.08978886

layers.4.running_var f4 [32]
00000000: 97c4 ea3c 7895 6a3c 9469 c03c 5ef1 503c
00000010: 7637 583c 7b92 923c d7fb 713c 4e5f be3c
00000020: 39a9 ff3b 7592 193c 2502 e83c 49ab 5c3c
00000030: d325 9a3c d1be 423c a9b9 9a3c d577 d73c
00000040: 3d5e 563c b29d 823c 2fee ed3c d341 093e
00000050: e748 4e3c fad7 8d3c 1795 aa3c 40a2 9a3c
00000060: 93af 903c 242b c93c 9fa0 b23c c237 b83c
00000070: 728c 213c eca1 533c 37c8 6e3c 4efd d33c
0.028658194 0.014317863 0.023487844 0.012752859 0.013196817 0.017892113 0.014769516 0.023238804
0.0078021553 0.009373297 0.028321335 0.013468572 0.018816864 0.0118863145 0.018887358 0.026302258
0.013083992 0.015944336 0.029044239 0.13404016 0.012590623 0.0173149 0.020823045 0.018876195
0.017661845 0.024556704 0.021805106 0.022487525 0.009860145 0.012917023 0.014574102 0.025877621

layers.6.weight f4 [64, 32, 3, 3]
00000000: cf97 023d cfa4 a7bc 8d5b 26ba 6efc 693d
00000010: a7a0 f63b e757 d9bc 8643 9f3c 2811 09bd
00000020: 542a 90b8 ca2a 6e3b 4c72 c7bb 35e2 32bd
00000030: 2ff4 94bc 629d aabc f04e a8ba f897 083d
00000040: 482d d5bc 1ca1 8bbc e9ca 09bd e6e9 64bd
00000050: 499b 443c 71d2 cbbc 30ba 323d 89d6 d2bc
00000060: c854 473a f88f 8c3d 912b c33b 21cc 84bb
00000070: e7e8 e6bb 7ef5 b9bc 2ee8 8cbc e8b5 943c
00000080: d519 5fbc b01e 03bd 79af 3ebd 743e 84bc
00000090: 8d82 74bd 265a efbc e9c2 35bd 12b8 073b
000000a0: 9f5e 123d 6cdf 2abd fdb7 6f3d 006a 98bc
000000b0: 7310 71bd 9eda 2a3d f383 183b d239 ddbc
000000c0: e958 18bd dd02 66bd 1276 573d 1de0 0a3c
000000d0: 6941 693d 9056 0f3d 022a 3d3c 4625 debc
000000e0: de5a f6bc 4c57 b73b 1428 c1ba 8780 f9b9
000000f0: de12 85bc ea70 82bb 752c fe3c 3251 21bd
00000100: c352 9fbc a2eb 12bd 3613 253d 437b a6bd
00000110: 7b11 30bc 3977 86bc 2feb 603d b7ec 863d
00000120: c2c7 41bd ad9b 32bc 3992 9c3a 2516 18bd
00000130: de3e 2cbc 1c72 863c 65e4 2bbd a47c 99bc
00000140: 6cf4 92bc a763 0f3d db06 21bc 2206 17bd
00000150: b050 17bd b463 00bd 0160 883b fd2a 2a3d
00000160: 3cb3 3a3d 984d d9bc a785 a3bc 00ed 8d3c
00000170: 5dbb da3b 215c 9b3c b558 cbbc 0967 71bc
00000180: 9ef7 76bb 4fe9 36bb e535 13bd 88e3 69bd
00000190: 2bcf 183d 1321 9bbb 0a8e 323d 81f6 963b
000001a0: 0ca4 893d 05e7 27bd 7349 e1bc 148f 26bd
000001b0: b009 47bd 8c5b 093d 50f0 a2bc 381b 1abd
000001c0: be45 353d 5e69 7dbd 84f0 203c 2e7e 3fbd
000001d0: 998e 123d d545 c4bb dabe 883c 93be 19bd
000001e0: bac2 e4bc 0ac7 18bd b0d7 c0bb 038b 903b
000001f0: f395 b23c 9171 cb3c 2f33 053c 61cd 4e3c
00000200: 5b07 083c fee1 d2bc b82e 053d c8cf 9f3b
00000210: cd52 eabc 672f ba3c c405 eb3c 5516 29bd
00000220: ad8e 5e3a c6d0 d83c e454 403d 7a86 e23c
00000230: 7ff8 aebc d0c9 52b9 0ad9 97bb 1189 ba3c
00000240: 0eeb c9bc 4631 10bc b538 0dba 72a3 a53c
00000250: f64c 923b 281b b0bc 8909 11bd 3bef 2d3c
00000260: 0088 d93c fedc 6f3c 4ec6 7b3c 14b9 4abc
00000270: b662 2eba fb98 ba3c 3db6 0c3d a1d9 11bc
00000280: c3ac e8bb 0cce f9bc 9943 b8bc 1bbc 3abc
00000290: 0056 a2ba d6e4 6c3d df68 d03b 3bfa aebc
000002a0: 9dbc 2b3d 288b fbbb ba76 473d fa06 45bd
000002b0: dba5 22bc 47dd c33c a8a6 1738 223c c8bc
000002c0: f0db 043d 1445 5f3d 1db4 773d 2670 83bc
000002d0: e168 6ebc c256 30bc b11c da3c e865 b83c
000002e0: 1edb 053c 8cd3 7abd e388 ab3c 1ecc 3bbd
000002f0: 7794 4abc a8d6 553d 0f98 c7bc bc2c 043d
00000300: e567 b0bc 2b71 5ebb 7844 413d 1537 d3bc
00000310: 11ef c83c 74e7 8dbc 34cf 7a3d cf53 663d
00000320: edaa 4fbc 5bcb da3a 93e0 073d 65dc 1e3d
00000330: 7e49 29bc 4c66 41bd 52b6 1b3d eb7f 96bd
00000340: 52ee a93c d085 56bd 3f19 1b3d d396 823b
00000350: 8412 463b f8f3 38bb d9a1 423b 03ed 38bd
00000360: b24a b7bc cf22 abbc 4aac 3c3d 2851 ffbc
00000370: 717b 81bc 1370 26bd 7d59 58bd c711 053d
00000380: ab36 a4bc 72bb 2c3d 6c51 5a3d 31e5 803d
00000390: faf6 043d 2fbb 28bc a214 3e3d 9d9c 5a3a
000003a0: d3d4 6d3c 4333 a4bc 2a1e f23c f822 2c3d
000003b0: 01e4 2f3c bbd9 46bd ab48 523d 8bab d33c
000003c0: b9c0 53bd 7dec 443d a667 de3a be6d 3b3c
000003d0: 763a de3b ff06 083d e1bc 6e3d 000e 7bbc
000003e0: 02d4 c5bc aaf8 4c3d 0819 3d3d 280b 57bc
000003f0: cedb 27bb 00aa fbbc d64c 62bb bf54 f1bc
0.031883057 -0.020464329 -0.00063460396 0.0571255 0.0075264755 -0.026531173 0.019441377 -0.033463627
-6.874339e-05 0.0036341422 -0.0060866233 -0.04367276 -0.018182842 -0.020827 -0.0012840908 0.033348054
-0.026022568 -0.017044596 -0.033640776 -0.055887125 0.0119999135 -0.02488062 0.043634593 -0.025737064
0.0007603881 0.06863397 0.0059561213 -0.0040526544 -0.007046807 -0.022700068 -0.017200556 0.018153146
-0.013616999 -0.032011688 -0.046554063 -0.016143061 -0.059694815 -0.02921779 -0.044375334 0.002070908
0.03573477 -0.041716978 0.058525074 -0.018605232 -0.058853578 0.041712396 0.0023272007 -0.02700511
-0.037194166 -0.056155074 0.052602835 0.008476284 0.056947146 0.03499466 0.01154566 -0.027117383
-0.030072626 0.0055951234 -0.0014736676 -0.0004758874 -0.016244348 -0.0039807456 0.031027058 -0.039384075
-0.019448644 -0.03586925 0.040301524 -0.08128979 -0.010746355 -0.016414272 0.05491179 0.065881185
-0.047309645 -0.010901374 0.0011945433 -0.037130494 -0.010513036 0.016411833 -0.04196586 -0.018736191
-0.017938815 0.035007145 -0.009828295 -0.036871083 -0.036942184 -0.031345084 0.004161835 0.041544903
0.045581087 -0.026526257 -0.019961191 0.017324924 0.0066751675 0.018964829 -0.024822572 -0.014734038
-0.0037684212 -0.002791006 -0.03594007 -0.057101756 0.037306946 -0.0047341674 0.04359249 0.0046070223
0.067207426 -0.0409918 -0.027500844 -0.040663794 -0.048593223 0.03353457 -0.01988998 -0.037623614
0.044255964 -0.061868064 0.009822968 -0.046751194 0.035780523 -0.00598977 0.016692568 -0.03753526
-0.027924884 -0.037299193 -0.005885087 0.0044111027 0.021800017 0.024834426 0.008129879 0.012622208
0.008302535 -0.025742527 0.032515258 0.0048770644 -0.028603936 0.022727681 0.028689273 -0.041281063
0.0008489888 0.026466738 0.046955958 0.027652014 -0.021358727 -0.00020102342 -0.0046340274 0.022770436
-0.024648216 -0.00880081 -0.0005387173 0.020219538 0.004464741 -0.021497324 -0.035409484 0.010616119
0.026554108 0.014640091 0.015367104 -0.012373228 -0.00066522823 0.022778025 0.034353483 -0.008901984
-0.007100673 -0.030493759 -0.02249317 -0.011397387 -0.0012385249 0.057835422 0.006360158 -0.021359554
0.041927923 -0.007676501 0.04869721 -0.048102356 -0.009927238 0.023909224 3.6156416e-05 -0.024442736
0.03243631 0.054509237 0.060474504 -0.016044687 -0.014551372 -0.010762872 0.02662501 0.02250953
0.008169917 -0.061236903 0.020939296 -0.04584896 -0.012364498 0.052206665 -0.0243645 0.032269225
-0.021533916 -0.0033941965 0.047184438 -0.025783101 0.024528058 -0.01732228 0.06123276 0.05623227
-0.012675029 0.0016692685 0.033173155 0.038784403 -0.010332463 -0.0472167 0.03801567 -0.07348617
0.020743523 -0.052373707 0.037865873 0.003985265 0.0030223439 -0.0028221589 0.002969852 -0.045147907
-0.022374485 -0.020890621 0.046062745 -0.031166628 -0.015805932 -0.040634226 -0.052819718 0.032487657
-0.020045599 0.04217095 0.053300306 0.06293715 0.032462098 -0.010298534 0.046406396 0.0008339377
0.014516073 -0.020043975 0.029555399 0.042025536 0.010735513 -0.048547488 0.051338833 0.025838634
-0.051697467 0.048077095 0.0016968146 0.011439739 0.0067818714 0.033209797 0.058285598 -0.015323162
-0.024148945 0.050041832 0.04616645 -0.013125218 -0.0025613192 -0.03072071 -0.003453066 -0.029459355

layers.6.bias f4 [64]
00000000: 54f8 84bc 8cd5 67bd a331 133d 621a 8a3c
00000010: 5732 4cbc 85d4 bbbc 6325 2d3d e183 2cbd
00000020: 0878 273d 73b5 b13d 8689 22bd c6c0 ab3c
00000030: fe77 5e3d 2754 d7bc 8aec 3a3a 63e3 dbbb
00000040: 632d d43c 0618 54bc 9a86 7fbc 2077 da3c
00000050: 2e64 2338 84a4 10bd 12bf 14bd 33fb 09bd
00000060: 7a4e 063d eb7d cf3c 0c4c 23bd b768 c93c
00000070: 365f b33c 0006 fd3c fe4e 843c 0a3b 98ba
00000080: 4f0b 243d 27ae 513c 3900 b13c 605c 45bd
00000090: cdbe 593d 9fcf c83c 747c 953c e942 5bbb
000000a0: 0dd9 943d d87c 33bc a92d d93c a4af 243d
000000b0: 1fdf 0cbd 544b 0ebd 05e4 6fbc 4e88 00bd
000000c0: 0201 20bd f437 743d b8db b93c 5e7b 923c
000000d0: 95af 503d 1d29 3b3d c276 4d3d 17db 0a3b
000000e0: fd27 cc3c d701 6a3d 0ac6 483d 5b55 48bd
000000f0: ea1a 2cba 9225 823a dd86 833d b446 97bc
-0.016231693 -0.05660014 0.03593601 0.016858283 -0.012463174 -0.022928486 0.042271983 -0.042117957
0.040885955 0.08677187 -0.039681934 0.020965945 0.054313652 -0.026285244 0.0007130584 -0.006710456
0.025900548 -0.012945181 -0.015596056 0.026668131 3.8955528e-05 -0.035313144 -0.03631503 -0.033686828
0.032789685 0.025328597 -0.039867446 0.024586065 0.021895986 0.03088665 0.016150948 -0.0011614275
0.040049847 0.012797869 0.021606551 -0.0481838 0.053160477 0.024513064 0.01824782 -0.003345663
0.07267962 -0.010955058 0.02651103 0.040206566 -0.034392472 -0.034739807 -0.014641766 -0.03137999
-0.03906346 0.059623674 0.022687778 0.017881092 0.050948698 0.045693506 0.050162084 0.0021187717
0.024921412 0.05713066 0.04901699 -0.048909526 -0.000656529 0.000992941 0.064222075 -0.018466331

layers.8.weight f4 [64, 64, 3, 3]
00000000: 435b bd3c 2e64 7dbc 0519 903c b28e e8bc
00000010: 94ea f83b c9aa c6bc ce09 2c3c 7b2e 623c
00000020: 29d0 2dbd 8e08 0dbd 59df 0ebc 82f9 cebb
00000030: d81f 413c 5e22 243d 98f3 0ebd b804 dbbc
00000040: 42eb 8a38 9100 98bc d260 263d 21f6 fdbc
00000050: fba3 c63a 0ff2 073d a03d 093d 7108 243d
00000060: a45a 0dbd ac75 0e3d d898 263d 375e 8ebc
00000070: 7354 5ebb 1911 e73c 7af1 1f3d 633b 373c
00000080: 84ab 4bbc e041 183b 6a96 153d 791f e83c
00000090: 9687 6c3c d5e1 d23c 8d82 70bc 3ebb e93b
000000a0: 22ec b63b 1c15 46bc ebb9 b13b 9049 d2bb
000000b0: 21f0 283d b6b5 0fbd b87c 41bb 6240 34bd
000000c0: 99a9 873c eef9 113d 5b64 f9bc fb26 2a3c
000000d0: 10a3 323c 9cc9 b43c 6360 77bb 01fb 02bc
000000e0: a2dc f6bb 5563 3b3d 9aaa c7bc 2d0b ac3c
000000f0: 94a8 6dbb a010 c03c 8bbe 073d 9f26 e0bc
00000100: 4cbb 8cbc 0458 77ba 3b75 a9bb d13d 06bd
00000110: 8841 6c3c 4e6b 013d 86d4 9ebc 7f01 ab3c
00000120: 81ab 063d 9482 853c ce9d bcba 3657 dbbc
00000130: 1a05 b0bc e22c c5bc c42e bdbc 5ac2 d13a
00000140: ee9c 073d 5851 823b e238 f83b a9c1 2cb9
00000150: 4f0d 9ebc 08e0 e8bc a237 c93b ebe8 e8bc
00000160: cc98 3d3d c560 b83c 9bcd 673c cbe3 0a3d
00000170: 1856 d8ba 97bf 82bc 13e3 aa3c 5b2c dd3c
00000180: ee9d 073d 8867 c3bc fddb b8bc d97f c1bc
00000190: d944 82bc 9436 7f3c 931b fe3b 18fd e3bb
000001a0: e1a3 683b 1537 3dbc dbac 303d e9d3 cc3b
000001b0: 0d81 9cbb c25b 323d 027a 7dbc 315c 8cbc
000001c0: 69f0 b83b 98df c7bc a9a6 6b3d 1798 23bd
000001d0: 5c28 c0bb c41d 2f3b 5f4d ecb9 964e 90bb
000001e0: 7a56 013d d32d d63c 9926 293b 9404 493c
000001f0: 6a35 90ba 4fda 113b 694c 86bc b4fc 2ebc
00000200: 7741 4dbb 6c5b 013d 4aee 55bc d6dc 073d
00000210: dfa9 80bc 9cb0 b2bc 5a1b 11bb 1c36 853c
00000220: 6d15 173d 4787 843c 4cb8 2f3b dd34 92bc
00000230: 4724 e93c d373 2c3d 85da a73c d849 053c
00000240: b5ab 2bbd 53e4 033d ba64 4abc 443b 153d
00000250: 1218 21bd c666 72bb e5be 0c3d d2b3 30bd
00000260: be2a 1bbd 8830 0ebd 76a8 203d f4e4 4b3c
00000270: 0e3a 163c d84c ffbb 4fe3 23bc 3158 2e3c
00000280: f2a1 94bb 5109 093d 2446 68bc d396 cfbc
00000290: 6de8 7c3c 2b69 113d c8c6 983c 8af1 dfbb
000002a0: 5552 703c dca8 1fb9 4952 96bb d851 0b3c
000002b0: 4da4 21bd 179b db3b 5ac6 b53c ca47 d53c
000002c0: a2f8 ce3c fd63 2bbd fcc6 86bc 440f f63c
000002d0: 6d34 df3c 5f92 76bc c8bc 1cbd 9338 7f3c
000002e0: 5c74 a23c c32a 1b3d 0f6d c9bc 3ffa bcbc
000002f0: 995e 2e3c c5fa 543c a2b0 f73b bde8 e83b
00000300: 2933 11bc 6c56 81bc 60d2 123d cf10 f0bc
00000310: baa8 27bd 2c2b f7bc e450 f23c 81ed f1bb
00000320: f22e 563c fe19 41bd 338a b33c 456a fe3c
00000330: 4b9c c9bc 32a7 cd3c ba2b 3f3d b7bd 16bd
00000340: 6a0f 0ebd 0ebc b83c e421 4dbc 09cc b3bc
00000350: d309 15bd d446 993c e46c 823c 9609 c0bb
00000360: a686 c6bc 076d 6c3c 4dea 563d 63ef b43b
00000370: 59b5 a33c c471 ba3c de8a f73c 2cc2 0bbd
00000380: 1be4 79bc 749f af3c 036b 13bd ef04 18bd
00000390: 8dfa 37bc 32ac 8fb9 5c78 59bc 4ea7 eabc
000003a0: 6a9e 11bd 9295 64bc 82f4 6dbc 846e 4fbb
000003b0: f522 01bd c683 cd3c 1bf0 59bc 628a 8cbc
000003c0: be4f 4b3c 4ae6 253d d73e 193d efc0 2fbd
000003d0: 7566 d83c 394b 403d 1f88 6d3c ca4c 07bc
000003e0: f426 853a f65b 45bc e398 4b3d 8c2c 933c
000003f0: 0ddc ecbc 44c2 313b 1758 f33c d316 ef3c
0.023114806 -0.015465779 0.017590055 -0.028388355 0.0075963233 -0.024251359 0.0105003845 0.013805027
-0.042434845 -0.034431987 -0.008720242 -0.0063163647 0.011787377 0.040071838 -0.034900278 -0.026735649
6.624173e-05 -0.018554958 0.04061968 -0.031001152 0.0015155071 0.03318983 0.033506036 0.040047113
-0.03451027 0.03478019 0.040673107 -0.01737891 -0.0033924847 0.028206395 0.03904865 0.0111835925
-0.012431029 0.0023232624 0.0365204 0.02833532 0.014436623 0.02574245 -0.014679563 0.0071329167
0.0055823484 -0.012089994 0.0054237745 -0.0064174607 0.04124463 -0.035085402 -0.00295238 -0.044006713
0.016560363 0.035638742 -0.030443361 0.01038527 0.010903135 0.022068791 -0.003774666 -0.007994414
-0.0075336257 0.045749027 -0.024373341 0.021001423 -0.003626381 0.023445427 0.0331407 -0.027362166
-0.017179154 -0.00094354176 -0.0051714457 -0.032773796 0.014419921 0.031596474 -0.019388448 0.020874737
0.032878403 0.016297616 -0.0014390291 -0.026774984 -0.021486808 -0.024069253 -0.023093589 0.0016003356
0.033108644 0.003976982 0.0075751403 -0.00016475342 -0.019293455 -0.028427139 0.006140665 -0.028431376
0.046288297 0.02250708 0.014148141 0.033908647 -0.001650515 -0.015960498 0.02086023 0.02699869
0.033109598 -0.023853078 -0.022565836 -0.023620533 -0.01590197 0.015576977 0.007754752 -0.0069576614
0.003549807 -0.011548777 0.043133598 0.0062508476 -0.0047761262 0.04354454 -0.015470983 -0.017133804
0.0056438935 -0.02439861 0.057531986 -0.039939966 -0.005864186 0.0026720623 -0.00045071074 -0.0044038994
0.03157661 0.026144898 0.002581036 0.012269158 -0.0011002247 0.0022255366 -0.016393857 -0.010680366
-0.0031319538 0.031581327 -0.013057301 0.03316959 -0.015706 -0.02181273 -0.0022141547 0.016261153
0.036885668 0.016177787 0.002681273 -0.017847473 0.028459681 0.042102646 0.02048994 0.0081352815
-0.0419118 0.03220017 -0.012353117 0.036433473 -0.039329596 -0.0036987527 0.03436174 -0.04314024
-0.03788256 -0.03471425 0.039223157 0.012444723 0.009169115 -0.007791143 -0.010002925 0.010641144
-0.004535907 0.03345615 -0.014176879 -0.025340473 0.015436274 0.035500687 0.018649474 -0.0068342136
0.014668067 -0.00015226327 -0.004587446 0.0085034 -0.03946333 0.0067018378 0.022189308 0.026035208
0.025265042 -0.041843403 -0.016452305 0.030036576 0.027246678 -0.015049546 -0.038265973 0.015577453
0.019830875 0.037882578 -0.024588136 -0.023068545 0.010642671 0.012999241 0.007558898 0.0071078227
-0.008862295 -0.01578828 0.03584516 -0.02930489 -0.040932395 -0.030171953 0.029579587 -0.007383049
0.013072716 -0.04714393 0.021916484 0.031056533 -0.02461066 0.025104139 0.04667256 -0.03680202
-0.03468267 0.022550609 -0.012520287 -0.021947877 -0.036386322 0.018710531 0.015921064 -0.0058605177
-0.024234127 0.014430291 0.05246954 0.005521701 0.019983934 0.022759326 0.030217584 -0.034120724
-0.0152521385 0.021438338 -0.035990726 -0.03711408 -0.01122917 -0.0002740338 -0.013273325 -0.02864423
-0.035551466 -0.013951676 -0.014523627 -0.0031651566 -0.03152748 0.025087249 -0.0133018745 -0.01715583
0.012409149 0.040502824 0.037413444 -0.042908605 0.026416043 0.046946738 0.014497786 -0.008258054
0.0010158704 -0.012045851 0.04970635 0.017965578 -0.028913522 0.0027123848 0.02970509 0.029185688

layers.8.bias f4 [64]
00000000: 5532 033d 0fa0 11bd 0daf 4ebd 4024 00bd
00000010: 1b3e 18bd 07f3 64bb 44c4 8eba 357c 83bc
00000020: d871 1fbd fa88 9338 51f1 14bd df3c c9bd
00000030: bd05 ca3c 6031 e33c a356 87bc 4c76 c03c
00000040: 8fb6 033c 5684 c53c 1f67 4dbc d2f0 943c
00000050: ae01 b1bc 7905 6bbd cc06 c5bc e049 a83b
00000060: a796 e3bc b61a 12bc 6d0e 6cbb c6eb 92bc
00000070: 2adb 003d a969 cfbc 7ab4 c7bc d3e3 c73c
00000080: 10fe ac3b 8f37 b6bc 8140 1abc a9db 1ebc
00000090: 98d2 89bc 4703 1d3c 6c77 dabc 32f9 6f3b
000000a0: c5db 65bd 082f 01bd 3b97 4abc 73fb ccbb
000000b0: 2aba 3f3c 7d32 7e3b 8047 13bd baea 0bbd
000000c0: 4709 f1bb df7e 2abb f5bb efbc 1772 f03b
000000d0: 9ec2 053d 0762 5abb e5a7 27bc 399e fbbb
000000e0: 6b97 1dbd b092 af3c 6387 29bc 1b79 babc
000000f0: 345c 58bd 213d d73c 908e bfbc 8be4 36bd
0.032030422 -0.035553034 -0.05045991 -0.03128457 -0.037168603 -0.0034934895 -0.0010892232 -0.016050437
-0.03892693 7.03502e-05 -0.03636295 -0.09826063 0.02466094 0.027733505 -0.016520804 0.023493908
0.008039131 0.024110954 -0.012536793 0.018181238 -0.021607246 -0.057378266 -0.024051093 0.0051357597
-0.027781798 -0.008917501 -0.003601934 -0.017934691 0.03145901 -0.025318937 -0.02437805 0.024400627
0.00527931 -0.02224329 -0.009414793 -0.009695926 -0.016824052 0.009583301 -0.026668273 0.0036617038
-0.05611779 -0.031538993 -0.012365158 -0.006255561 0.0117021 0.0038787418 -0.03595686 -0.0341594
-0.0073558423 -0.0026015562 -0.02926443 0.0073378193 0.032656305 -0.003332259 -0.0102329 -0.0076787737
-0.03847448 0.02143225 -0.01034722 -0.022762826 -0.052822307 0.026274266 -0.023383409 -0.04465155

layers.10.weight f4 [64]
00000000: fba3 823f 8b7f 803f 28c1 803f 6725 813f
00000010: b582 7f3f d442 7e3f 8d5f 813f 38a5 833f
00000020: 689e 813f 8f37 803f 6c6b 823f 4f42 853f
00000030: f48f 803f 0462 803f cecf 823f 2009 803f
00000040: 8c05 813f 1cf3 813f f1ef 813f 125c 813f
00000050: b2e4 7f3f 1041 853f 6daa 803f c0fa 803f
00000060: 3747 843f 6ea7 823f 6923 823f a4fe 803f
00000070: 7d8f 7f3f 6d4c 823f 6910 813f 7237 823f
00000080: b2d5 853f 1805 823f 9fbb 813f d9be 823f
00000090: 4e5a 823f 0cb3 803f b314 813f e539 833f
000000a0: f73a 833f 7b8f 813f 8a86 813f 7217 813f
000000b0: 39a4 813f 1a3b 833f fe80 813f 9a7e 813f
000000c0: 1537 843f 62f4 813f f0f1 823f 5c54 813f
000000d0: 3692 803f ac68 823f 2ff1 803f 8906 813f
000000e0: c820 833f 3942 7e3f 4785 823f 8f2a 823f
000000f0: 888a 833f 4b65 833f 2cda 7f3f 48a6 843f
1.0206293 1.0038923 1.0058947 1.0089539 0.9980882 0.9932072 1.0107285 1.0284796
1.0126467 1.0016955 1.0189033 1.0410861 1.0043931 1.0029912 1.0219667 1.0002785
1.0079818 1.0152316 1.0151349 1.0106223 0.99958336 1.041048 1.005201 1.0076523
1.0334233 1.0207345 1.0167056 1.007771 0.9982832 1.0179573 1.0083133 1.017317
1.045584 1.0157804 1.0135382 1.0214492 1.0183809 1.0054641 1.0084442 1.0252043
1.025237 1.0121912 1.0119183 1.008528 1.0128242 1.0252411 1.011749 1.0116761
1.032931 1.0152705 1.0230083 1.010387 1.004462 1.0188193 1.0073603 1.0080119
1.0244379 0.993198 1.0196923 1.0169238 1.0276651 1.0265287 0.9994228 1.0363245

layers.10.bias f4 [64]
00000000: c1c4 2b3b efae 5fbc 6923 97bc ba13 37bd
00000010: dc47 f63b 572d 99bc 9bfc 0dbc 590e 61ba
00000020: 75e1 0fbc 797c 353b 3b90 ddbb 6728 edbb
00000030: bbbb 37bb 7455 89bb 025f 073c 9699 65bb
00000040: b825 26b9 1611 20bd 6951 0bbc ea51 1dbd
00000050: 1e6d 6fbc 049f 343c 4039 a2bc a8ca eabb
00000060: 870b e8bb a958 f03b 95d8 c4bb 36d1 d0bb
00000070: 8804 01bd fdbc 5d3b 2b52 9dbc 1751 fd3c
00000080: 4306 fd3c 20c9 53bc e2d9 d1bb bf3f 0a3c
00000090: ab94 60bc bc0f afbb 360b 92bc 38e7 55bc
000000a0: 702d f7bb e1b3 713c a698 48bc cb72 99bb
000000b0: 2ac0 e7ba ab60 8d3c d203 07bc 46ef f3bc
000000c0: fe00 79bc c61a b9ba 8f56 863c 6797 bd3b
000000d0: 99cd 17bc 55c5 d53b 48c7 27bc ee5d 8fbb
000000e0: 187e 15bb 8bce babc 5d89 723b f6c2 a0bc
000000f0: 893f eebb aa17 503a 0e26 b83b 6b71 fa3b
0.0026209804 -0.013652547 -0.018449502 -0.044696547 0.0075158905 -0.018698378 -0.008666183 -0.0008585207
-0.0087817805 0.00276926 -0.0067615784 -0.0072374824 -0.002803548 -0.004191095 0.008262398 -0.0035034171
-0.00015845045 -0.039078794 -0.008503296 -0.038408197 -0.014613418 0.01102424 -0.01980269 -0.007165272
-0.0070814523 0.007334788 -0.006007264 -0.006372596 -0.031498462 0.003383457 -0.01920422 0.030922456
0.030886775 -0.01292637 -0.0064041475 0.00843805 -0.01370732 -0.005342452 -0.017827611 -0.013055615
-0.0075432584 0.014752359 -0.0122434255 -0.004682874 -0.0017681171 0.017258009 -0.008240657 -0.02977718
-0.01519799 -0.0014122359 0.016398696 0.005785871 -0.009265327 0.006523768 -0.010240383 -0.004375211
-0.0022810753 -0.022803565 0.0037008144 -0.019624215 -0.0072707576 0.00079380965 0.005619771 0.007642915

layers.10.running_mean f4 [64]
00000000: 175a 433e 64a6 c8bd ebf1 e03d a60d b23d
00000010: a6e6 0e3d 6fb3 373d 42ee 5f3d 56ce 803d
00000020: 999c c0bd 9e8f 803d 6623 44bc 516c 2d3c
00000030: f834 663e 6752 1a3c 39d9 c83c 873b 9abd
00000040: c290 543d c30f 4e3c 97eb aebd c99a 4cbd
00000050: 31e9 ca3d ce1d 0b3e b21a f53d 7f78 a43d
00000060: bd8e e73d 528e 973d e013 c33d ca30 ccbd
00000070: 956c 653d 713c f5bd a1f8 b33d 4c77 d3bb
00000080: 840f ebbc 1ffc fd3c bedb 65bd 0b7e 153e
00000090: 8075 a83d ac3b 873d 6441 bbbd a5d7 393e
000000a0: 9a17 5f3d a473 f6bd 09e4 313d 3861 15be
000000b0: ed4a f33d c283 a3bc cbbe 05bd 1255 4bbe
000000c0: 8dff 123d 8400 51bd 8167 5d3d d3fa cabb
000000d0: cb21 333e fba9 cebd 0783 1e3d 6b8f ea3d
000000e0: c8da acbd 18db debd ffc6 70bd e936 91bd
000000f0: d575 113e 6305 893e 6b75 223e 7a67 32be
0.19077335 -0.097973615 0.10983642 0.086940095 0.034887932 0.044848856 0.05467058 0.062893555
-0.09404869 0.06277393 -0.01197133 0.010584907 0.22481143 0.00941906 0.024517642 -0.07530885
0.051895864 0.012577 -0.08541029 -0.049952302 0.09907759 0.13585588 0.11967982 0.08030795
0.11306522 0.07400192 0.09525275 -0.09970243 0.056011755 -0.11974419 0.087876566 -0.0064534303
-0.028693922 0.03100401 -0.056117766 0.14598863 0.08225536 0.066031784 -0.09143332 0.18148668
0.054465868 -0.120337754 0.043430362 -0.14587867 0.11879525 -0.019960288 -0.032652657 -0.1985667
0.035888243 -0.051025882 0.054053787 -0.0061944514 0.1749336 -0.10091015 0.038699176 0.11453136
-0.08440167 -0.108816326 -0.058783527 -0.070905514 0.14205106 0.26761922 0.15865104 -0.17422286

layers.10.running_var f4 [64]
00000000: 132f 703d d778 cd3c 6824 f43c 7299 0f3d
00000010: ecf7 f53c d634 1c3d dffb 023d 61c8 e73c
00000020: 7ac0 7b3c 89aa 203d bc98 bc3c 36fd a93d
00000030: 9e6a 3d3d bb73 173d bd64 093d 507f 823c
00000040: 6305 263d 7445 a13c 0d27 993c 346f 0c3d
00000050: 2ee5 1d3d b54b 5c3d eaeb 393d aec5 ec3c
00000060: f5a1 4f3d b50f 263d 81a4 0c3d effc 843c
00000070: ed62 613d 4e6d d33c bc29 0d3d ad2e ef3c
00000080: 092d f73c 8194 f93c 126b 073d 27f5 3e3d
00000090: 71e7 233d 559f 073d 6c52 943c d74b 2b3d
000000a0: 9dd5 e43c f964 953c bc69 673d 8fc1 5d3c
000000b0: 925e 2a3d a54c d33c e01a a33c a0ca 343c
000000c0: 65c4 3a3d aef0 b53c dcef 123d b057 cf3c
000000d0: 3a0d 8a3d 848b bc3c 8ba4 423d fd54 f03c
000000e0: 9cf3 903c bb9e 7a3c 01d6 963c 3f2a d23c
000000f0: 3216 0a3d e484 813d a73a 8f3d ab79 613c
0.058638643 0.025082035 0.029802516 0.035058446 0.030025445 0.038136326 0.031978484 0.02829379
0.015365714 0.039225135 0.023022048 0.08300249 0.046244256 0.036975604 0.033543337 0.015929848
0.04053248 0.019686438 0.018695379 0.03428574 0.03854864 0.053783137 0.045391 0.028902855
0.050691564 0.040542323 0.03433657 0.01623389 0.055025984 0.025808956 0.03446363 0.029197061
0.030172842 0.03046632 0.033061095 0.046620514 0.04001564 0.033110935 0.018105708 0.041820373
0.02793389 0.018236624 0.05649732 0.0135349175 0.041594096 0.025793383 0.019910276 0.011034638
0.045597453 0.022209492 0.03587328 0.025310367 0.06740804 0.023015745 0.0475202 0.0293374
0.017694287 0.015296633 0.018412592 0.02565491 0.033712573 0.06324175 0.06993609 0.013761918

layers.13.weight f4 [10, 576]
00000000: 6421 f33b 1097 8b3b 1d72 2f3c 5770 173c
00000010: 1031 b23c 06c0 61bc f76b f83b 31e0 a03c
00000020: 3336 173d 1be4 b3bc 87d2 5a3c 3709 2bbd
00000030: 6a4b 02bc 7fd0 e9bc f8ed 04bc 2edd acbc
00000040: 6f57 ac3c ab97 07bb b42b 7ebb d8a6 633c
00000050: 15ab bdbb ef93 94bc 0f78 9b3a e2ec 3fbc
00000060: 38d3 3dbd 54f6 09bd 4889 f7ba cc31 bebb
00000070: 522f ccbb a7d4 0fbd c606 29bd d4d2 4bbd
00000080: e065 2ebd 22fe f6bc 44bd 2ebd 8d30 f73c
00000090: 0303 193d ce65 1abc bb34 073c afba b3bb
000000a0: 1686 6a3c 9105 743c fd76 9cbc f7c8 0e3d
000000b0: 8a81 eb3b d92d a93c 6df8 10bd 0fe2 c3bb
000000c0: 4146 363c 6515 05bd d569 d83c 4f3f 07bd
000000d0: b27f 14bd af4f 0fbc 2b8f 9ebc cb59 22bb
000000e0: 0f99 81bc 6421 4d3d c09d a8bc 5cf5 1f3d
000000f0: 8123 163d 66d4 d8ba 977b c43c 8894 bd3c
00000100: 8d57 7ebc a5ff 0ebb 8d6e a9bc 874e 2bbd
00000110: 5a17 633d 6029 28bc 1d5c 5cbc 06fa 4c3d
00000120: cad1 1fbd 40d8 a9bb eccb 803c 4e6b 0d3d
00000130: d0bf bd3c 3a08 f7bc 685d f5ba 6eac 1bbc
00000140: 41ab 47bd a60c 1cbd 0b58 0b3d e701 24bd
00000150: ae0f 153d 8dd8 18bd 9594 0b3d b5b6 8bbc
00000160: 63eb 1abc 8b94 e2bc 78fa 793c 1048 4d3d
00000170: 0a7f 213d de9f ac3c b4b6 303d b1e7 1ebd
00000180: 3c12 053d 6662 753c 9e40 c2bc d436 a1ba
00000190: 9f9f f7bc 3100 433b e9d9 a93a ea2d 7a3b
000001a0: 7b8f 043d bab7 923c 544c 9fbb 8e19 113d
000001b0: 2036 9f3c 0bde 2d3d ab0f 063d 9fca 043d
000001c0: 7688 d93c ba6c c3bc 1f62 40bc 29ef 1bbc
000001d0: 4889 d0bc 8978 1dbd e842 e0bc 9ff1 073d
000001e0: ffa7 3cbb 2bea 43bc 7a5f 2abc 1f14 a9bb
000001f0: 7b78 ef3c bc24 0c3d d215 1d3c 50c3 0e3d
00000200: 66a5 c3bc 4db2 df3c 0652 74bb dfbb 163d
00000210: 0b4b 8b3c 4f71 e43c a603 bdbc 93aa 31bb
00000220: 9c86 eb3a b2f6 dd3c b5f3 b73c 7a04 ffbc
00000230: 75c3 7dbc a6ce c03c e7f8 fcbc 4b95 853b
00000240: 5a4b c8bc 0d3f b1bc 1501 35bb b1ec 6b3c
00000250: 5e4d c63b 6960 843c 5a17 d9bc 620b 97bc
00000260: 0fea 4b3d a206 193a e602 4dbd 0b70 e7bc
00000270: 7468 cdbc 1c43 f2bc 66ee e5bc ffc8 68bc
00000280: dea3 9c3b 5ad4 183c 8333 833c 3819 373d
00000290: 8f75 f5bc f549 ea3c f264 ec3c f336 813c
000002a0: 7fc1 3a3d 3da0 3dbc 6c5a 1abd f08d 4dbc
000002b0: 0bd4 123c 7f39 6abc a1a0 c83c 3ceb ecbc
000002c0: ab81 d9bc c71c a1bb 7bcf ccbb ead2 1abc
000002d0: b312 e5bc baa6 efbc 9122 cfbc 8b54 ac3c
000002e0: fbbd a8bc c3cf c5bc 00cd 1a3d f5d6 bfbb
000002f0: 2a68 583c a463 2b3c bbe9 7cbc 4070 b73a
00000300: b116 02bd e911 d43b ad50 643a d90d 143d
00000310: 8390 2b3d 4203 0cbd f0ef 2a3d de9e 08bd
00000320: a5a2 a3bc b706 103d 910d 26bd a569 f2bc
00000330: 2bde 573a 45b3 b0bc 34b3 233b a218 1fbc
00000340: 04ce f1bc a8dd 3e3b 086e d43c c9cb 063d
00000350: 8a3c d53b 8ded 8b3c 5d66 13bd 7e21 ba3c
00000360: b2ef 05bd 5688 243d 96ac aa3c ed98 26bd
00000370: 4ad8 a53c 0e93 fe3c d7c0 a4bc efac 8cbc
00000380: 9399 c23c 93bc 81bc 05a9 f63c 56fe 133d
00000390: cc70 283d b32b 473d 0a29 b5bb bc21 27bc
000003a0: d2a6 45bd c57c 9e3b 5481 823c acc0 64bc
000003b0: 77c5 04bd 353a 0e3a 2181 c0bc 25c7 243d
000003c0: e57f f8bc 71b4 b43c c2fb 5c3d f49d d3bc
000003d0: c99a a3bc 4fcf 333c f366 8fbc aa0c 91ba
000003e0: 5b29 1b3d ff0d 353d 2192 c5ba 1e43 8ebc
000003f0: 42db eabc 5d3d 09bd 4838 03bc a08e 13bd
0.007419752 0.0042599514 0.010708359 0.0092430925 0.02175191 -0.013778692 0.00758123 0.019638153
0.036916923 -0.021959355 0.013355858 -0.041756835 -0.00795255 -0.028541801 -0.008113377 -0.02110156
0.021037785 -0.0020689766 -0.0038783373 0.013894759 -0.005788217 -0.018136946 0.0011861342 -0.011714192
-0.046344012 -0.033682182 -0.0018885517 -0.005804276 -0.006231227 -0.03511491 -0.041266225 -0.04976161
-0.042577624 -0.030150477 -0.042660967 0.030174518 0.037356388 -0.009423686 0.008252318 -0.005484901
0.014314195 0.014893905 -0.019099707 0.034859624 0.007187073 0.020651745 -0.035393167 -0.005977876
0.011125148 -0.032491107 0.026417652 -0.03301936 -0.036254592 -0.008747025 -0.019355377 -0.002477276
-0.015820054 0.050080672 -0.020583034 0.039052352 0.036654953 -0.0016542792 0.023984713 0.023142114
-0.015523803 -0.0021819856 -0.020682598 -0.041822936 0.05544219 -0.010263771 -0.013449696 0.05004313
-0.03901843 -0.0051832497 0.015722238 0.03452616 0.023162752 -0.03015529 -0.0018719854 -0.00950156
-0.048747305 -0.038098 0.03401951 -0.040040877 0.036391906 -0.037315894 0.034077246 -0.017054895
-0.009455535 -0.027658721 0.01525747 0.050117552 0.039427795 0.021072324 0.04314299 -0.038795177
0.032488093 0.014977073 -0.023712453 -0.0012299665 -0.03022748 0.0029754753 0.0012958619 0.003817434
0.032363396 0.017909873 -0.004861394 0.03542476 0.019434988 0.042448085 0.032729786 0.032419797
0.026554327 -0.023855556 -0.011742144 -0.009517469 -0.025456086 -0.03844503 -0.027375653 0.033189412
-0.0028786657 -0.011957685 -0.01039874 -0.0051598693 0.029232254 0.03421472 0.009587722 0.034854233
-0.023882579 0.0273067 -0.0037280335 0.03680026 0.017003557 0.027886061 -0.023073029 -0.0027109727
0.0017969194 0.027095173 0.022455076 -0.031130064 -0.015488495 0.023536038 -0.030880405 0.004076635
-0.024449993 -0.02163651 -0.0027619053 0.014399693 0.0060517034 0.016159253 -0.026500393 -0.018438045
0.049783763 0.0005837475 -0.050051592 -0.028251668 -0.025074221 -0.029573016 -0.028067779 -0.014208077
0.0047802767 0.009327972 0.016015774 0.044701785 -0.029963283 0.028599719 0.028856728 0.015773272
0.04559469 -0.011573848 -0.03768389 -0.012546048 0.008961688 -0.014295935 0.024490656 -0.028920762
-0.026551088 -0.0049167606 -0.0062503195 -0.0094497 -0.027963018 -0.029254306 -0.025285037 0.021036407
-0.020598402 -0.02414692 0.03779316 -0.0058544823 0.013208428 0.010460768 -0.015436585 0.0013995245
-0.03175992 0.0064718616 0.00087095314 0.03614602 0.041885864 -0.034182794 0.04173273 -0.033354633
-0.019975016 0.035162654 -0.04054028 -0.02959139 0.0008234705 -0.021569857 0.002497864 -0.009710463
-0.029517181 0.0029123817 0.025931373 0.03290919 0.006507461 0.017081046 -0.035986293 0.022721048
-0.032699294 0.040169083 0.020834249 -0.040673185 0.020244736 0.03107598 -0.020111484 -0.017172305
0.02375487 -0.01583699 0.030109892 0.036131226 0.041123196 0.04862566 -0.005528574 -0.010200914
-0.048254795 0.004836651 0.01593081 -0.013961952 -0.03241488 0.00054255436 -0.023499073 0.04022898
-0.030334422 0.022058697 0.053951032 -0.025832154 -0.019971268 0.010974719 -0.017505145 -0.0011066396
0.037881237 0.0442028 -0.0015073457 -0.017365988 -0.028669003 -0.033505786 -0.008009024 -0.03602469

layers.13.bias f4 [10]
00000000: 14a2 9e3d eded 893c d472 c3bc 7842 40bd
00000010: 1604 883d 8dbf 1fbc 5994 723d 5529 18bd
00000020: bdc6 4ebc c4ab 5ebc
0.07745758 0.016837085 -0.023858465 -0.04693839 0.06641404 -0.009750259 0.059223507 -0.037148792
-0.012620625 -0.013590757
