mnist_convnet/mnist_convnet.webgpu.safetensors (safetensors, 353816 bytes, 18 tensors)

layers.0.weight f4 [32, 1, 5, 5]
0	0x3d5c4538	0.05377695
1	0xbd302e0e	-0.04301267
2	0xbda4765b	-0.08030387
3	0xbe3e3a25	-0.18576868
4	0x3d58368e	0.052786402
5	0x3d484ec1	0.04890323
6	0x3dbbb0f5	0.09164611
7	0xbda78e5e	-0.08181451
8	0xbddee89d	-0.10884211
9	0x3e1245c2	0.14284423
10	0x3dd6c19b	0.10486146
11	0xbe2c9353	-0.16853075
12	0xbe121aed	-0.14268084
13	0xbd6ab92c	-0.0573055
14	0x3e28f1a9	0.16498436
15	0xbe23ee2d	-0.16008826
16	0xbd8d0a95	-0.06886784
17	0xbde2e61c	-0.11079046
18	0x3d8a8cfe	0.067651734
19	0x3e17bf3c	0.14819044
20	0xbe439c98	-0.19102705
21	0xbe4ae8c6	-0.19815359
22	0x3dd897cb	0.10575827
23	0xbe1e7ca5	-0.15477236
24	0xbdfe30db	-0.12411662
25	0x3b78516f	0.0037890335
26	0x3deff535	0.117166914
27	0xbcb95170	-0.02262184
28	0x3e2044f2	0.156513
29	0x3e539e93	0.2066596
30	0x3d5da2eb	0.05411045
31	0xbe432c05	-0.19059761
32	0xbd6ee832	-0.058326907
33	0x3e22e51f	0.15907715
34	0x3d782a8f	0.060587462
35	0xbc37b8d0	-0.011213496
36	0x3cc3b1b6	0.02388845
37	0x3d12fc7f	0.03588533
38	0x3e403992	0.18771961
39	0xbd32467f	-0.04352426
40	0x3e425074	0.18976003
41	0x3da8497d	0.08217142
42	0x3de6356e	0.1124066
43	0xbc8116a6	-0.01575787
44	0xbbf0d9fe	-0.0073502054
45	0x3e2b31ae	0.1671817
46	0x3daa4c79	0.08315367
47	0x3da5515d	0.080721594
48	0xbda57005	-0.08078007
49	0x3e014eda	0.12627736
50	0x3da36e8d	0.0798007
51	0xbcfd0604	-0.030886658
52	0x3d9e4bb2	0.077292815
53	0x3e6fb57a	0.23409072
54	0x3e876ed9	0.26451758
55	0xbe4313a1	-0.19050457
56	0xbdc3d3f9	-0.09561915
57	0x3d8cc96b	0.06874355
58	0x3cdff701	0.02733946
59	0xbdc92be9	-0.09822828
60	0xbdae1c21	-0.08501459
61	0x3e05773a	0.13033763
62	0x3d33492b	0.04377095
63	0xbe4b3485	-0.19844253
64	0xbe57fa95	-0.21091683
65	0xbd482e76	-0.048872434
66	0x3d4a69d8	0.049417347
67	0xbde4d008	-0.11172491
68	0xbcd66459	-0.026170896
69	0xbcb88d7b	-0.0225284
70	0xbdf7d755	-0.12101618
71	0xbe66e574	-0.22548467
72	0xbdfb4efa	-0.12270923
73	0x3d725100	0.05915928
74	0x3c1d6894	0.009607453
75	0x3e4b9f5c	0.1988501
76	0xbd5587b2	-0.052131362
77	0x3cabe237	0.020981891
78	0x3e2b575f	0.16732548
79	0x3e2adec3	0.1668654
80	0x3c954f75	0.018226365
81	0xbd91dc6f	-0.071221225
82	0xbdc679c2	-0.09691192
83	0xbc929bcd	-0.017896557
84	0x3c03fd18	0.008055948
85	0x3df1e4b0	0.11811197
86	0xbdd2d0cb	-0.1029373
87	0xbde9ebcb	-0.11421927
88	0x3dfeba00	0.124378204
89	0x3dfd9264	0.123814374
90	0xbd33eb34	-0.04392548
91	0xbcbf72ee	-0.023370232
92	0x3db6186a	0.08891375
93	0x3e295067	0.16534577
94	0xbcad5c4e	-0.021162178
95	0x3d0ba216	0.034090124
96	0x3df91509	0.12162215
97	0x3cb55f79	0.022140251
98	0xbcc4004f	-0.023925928
99	0x3ddb46e0	0.10706878
100	0xbdae4a08	-0.08510214
101	0x3ca31ff3	0.019912696
102	0x3cd9c0b1	0.02658114
103	0x3de40890	0.11134446
104	0x3cca54a5	0.024698565
105	0x3e36a39d	0.17835851
106	0x3d75804b	0.059936803
107	0xbd8be92b	-0.06831583
108	0x3e70a47b	0.23500244
109	0x3ca2007c	0.019775622
110	0x3dc2ac5b	0.095055304
111	0xbe11d97d	-0.14243121
112	0x3e22a5a1	0.15883495
113	0xbc074557	-0.008256278
114	0xbe25119e	-0.16120002
115	0x3db630b8	0.08896011
116	0x3cdb39db	0.026760986
117	0xbd207f00	-0.039183617
118	0x3e042e8a	0.12908378
119	0x3e181ae1	0.14854003
120	0x3c91a86e	0.017780509
121	0x3d5cc6f8	0.05390069
122	0xbe128b83	-0.14311032
123	0xbd6ced7d	-0.057843674
124	0x3e1b8d58	0.15190637
125	0xbca30e15	-0.019904176
126	0x3e4e22b4	0.20130426
127	0x3d67ecd5	0.056622345
128	0x3ca62708	0.020282283
129	0xbe31a45a	-0.17347851
130	0xbaf22f59	-0.0018477245
131	0xbe0ae7bb	-0.1356496
132	0xbde7def2	-0.1132182
133	0x3e6b4f8a	0.2297956
134	0x3dd8f700	0.105939865
135	0xbcd6aa1d	-0.026204163
136	0xbde5402a	-0.11193879
137	0xbd5d66cd	-0.054053117
138	0x3e548ccf	0.20756839
139	0x3d8e5c64	0.06951216
140	0xbc96735d	-0.018365556
141	0xbe087cce	-0.13328859
142	0x3d68cd89	0.05683664
143	0x3e5be679	0.21474637
144	0xbda7f572	-0.08201112
145	0x3d83b4c3	0.06430962
146	0xbda9cb93	-0.08290782
147	0xbdbeea34	-0.093220145
148	0x3de0b34e	0.109717
149	0x3d06d372	0.032916494
150	0xbe03542b	-0.12825076
151	0xbe31a4fd	-0.17348094
152	0x3d5f2d19	0.054486368
153	0x3b9446b8	0.004525032
154	0x3de339fd	0.11095045
155	0xbd0fe331	-0.035128776
156	0xbd922f9e	-0.071379885
157	0x3df38c7c	0.1189203
158	0x3e3597d2	0.17733696
159	0xbd9fc2de	-0.0780084
160	0xbe182af6	-0.14860138
161	0xbce301c2	-0.0277108
162	0x3c002442	0.007821145
163	0xbd2b3cec	-0.041806147
164	0x3d66f6ed	0.05638783
165	0x3d646a91	0.055765692
166	0x3e0cf934	0.13766938
167	0x3e1f4dd6	0.15557036
168	0xbcb3599b	-0.021893313
169	0x3d11b4bb	0.03557275
170	0x3dfd21de	0.12359975
171	0x3e232905	0.15933616
172	0x3e08732f	0.13325189
173	0x3d9c2b55	0.076254524
174	0x3b809333	0.0039237975
175	0x3df68ef0	0.12038982
176	0xbc890380	-0.016725302
177	0xbe1220bc	-0.142703
178	0xbdbe7e65	-0.093014516
179	0x3e01d925	0.1268049
180	0xbe3f9e10	-0.1871264
181	0xbc8b7c08	-0.017026916
182	0x3c9a47e4	0.018833108
183	0xbcb07881	-0.021541836
184	0xbd8b3606	-0.067974135
185	0xbdd1aedb	-0.10238429
186	0xbda218ef	-0.07914912
187	0x3c7ba313	0.015358704
188	0xbcd804dd	-0.026369506
189	0xbd14a343	-0.03628851
190	0xbd5ebf93	-0.05438192
191	0x3e1ac49c	0.15114063
192	0xbdb5ba72	-0.08873452
193	0x3db4993f	0.08818292
194	0xbd661c1b	-0.056179147
195	0xbd9d5b43	-0.076834224
196	0xbe1b930b	-0.15192811
197	0x3b670e55	0.0035256345
198	0x3ddd8fa0	0.1081841
199	0x3d05d1d4	0.03267081
200	0xbe8b1e59	-0.2717159
201	0xbd34231a	-0.043978788
202	0xbe546d26	-0.20744762
203	0xbe0111c0	-0.12604427
204	0xbd2fb126	-0.04289355
205	0x3dc861a9	0.09784252
206	0x3dc9b63c	0.098492116
207	0xbe14e749	-0.14541353
208	0xbde44142	-0.111452594
209	0x3e453246	0.19257459
210	0x3d5c016b	0.05371229
211	0xbe1b977c	-0.15194505
212	0xbe79625e	-0.2435393
213	0x3e040354	0.12891895
214	0xbe2ee3c2	-0.1707907
215	0x3de93457	0.11386936
216	0x3dffb121	0.124849565
217	0xbdde9dbd	-0.1086993
218	0x3dc0d567	0.09415703
219	0x3e2b2491	0.16713168
220	0xbe323fb9	-0.17407121
221	0xbe81ed9f	-0.25376603
222	0x3d8d9665	0.06913451
223	0x3ddc50ca	0.10757597
224	0xbe3c7e5f	-0.18407582
225	0xbe1e8d3b	-0.15483563
226	0xbdbfa868	-0.09358293
227	0xbe4a2c51	-0.19743468
228	0xbe48a29a	-0.19593278
229	0xbe12d14a	-0.1433765
230	0x3e1ed3aa	0.15510431
231	0xbe5310f0	-0.2061193
232	0x3c687cef	0.014189943
233	0x3dea6194	0.11444393
234	0xbe0db135	-0.1383713
235	0x3e6b5059	0.22979869
236	0x3e34ded8	0.17663133
237	0x3dd95a8f	0.10612976
238	0x3e189dde	0.14903972
239	0x3bf2dd19	0.007411611
240	0xbe4c9e7d	-0.19982333
241	0x3dfcb6b8	0.12339538
242	0xbda4ef3f	-0.08053445
243	0xbe04c15a	-0.12964383
244	0xbe4edd57	-0.20201622
245	0xbe34ef66	-0.17669448
246	0xbdf76aa1	-0.12080885
247	0xbcbbdcf1	-0.022932502
248	0xbd489f63	-0.048980128
249	0xbda36262	-0.079777494
250	0xbd2365f7	-0.039892163
251	0x3da18b7d	0.078879334
252	0x3cb2a00f	0.021804838
253	0xbe5d522c	-0.21613377
254	0xbe1f50ca	-0.15558162
255	0x3e1ad25c	0.15119308

layers.0.bias f4 [32]
0	0xbd9d22d8	-0.076726615
1	0xbe32e5b0	-0.17470431
2	0x3de47056	0.11154239
3	0xbe3bfdc1	-0.18358518
4	0x3e59bc51	0.21263243
5	0x3d2cf042	0.042221315
6	0x3d31fa57	0.043451633
7	0xbe1247d3	-0.14285211
8	0xbddda6aa	-0.10822804
9	0xbd869274	-0.065709025
10	0xbe320c01	-0.17387392
11	0xbd0ce471	-0.034397546
12	0xbe0a597a	-0.13510695
13	0x3cd3db06	0.025861274
14	0x3dbf3c1c	0.09337637
15	0x3e300220	0.1718831
16	0xbd78f8d9	-0.060784195
17	0xbe3fc6cf	-0.18728183
18	0xbdf63068	-0.120209515
19	0xbe231ce2	-0.15928987
20	0xbe172c46	-0.14762983
21	0x3e04ccd1	0.12968756
22	0xbd94bae1	-0.07262207
23	0xbe6dfaf9	-0.2324027
24	0xbd58aa11	-0.052896563
25	0x3d77809e	0.060425393
26	0xbc300537	-0.010743431
27	0x3db48ce7	0.088159375
28	0x3e33bd09	0.1755258
29	0xbdffb6b7	-0.12486022
30	0x3df18320	0.11792588
31	0x3d2a1109	0.041520152

layers.2.weight f4 [32, 32, 5, 5]
0	0xbcfb2e29	-0.03066166
1	0x3d30034e	0.0429719
2	0x3d2dc4ec	0.042424127
3	0xbd0ccec7	-0.034376886
4	0xbc146601	-0.009057523
5	0xbbf2ef0c	-0.0074137505
6	0xbd0964cd	-0.033543397
7	0xbc8faf04	-0.017539509
8	0x3cb22440	0.021745801
9	0x38e41e75	0.0001087756
10	0xbcbabcbf	-0.02279508
11	0xbca447bf	-0.020053742
12	0x3cd65db1	0.026167722
13	0x3cdaafe8	0.026695207
14	0x3b00d5ea	0.0019658753
15	0x3c099f1c	0.008399751
16	0xbc1031c1	-0.008800925
17	0x3d3635c6	0.044484876
18	0x3c82ec9d	0.015981967
19	0xbbc357ba	-0.0059613856
20	0xbc96f4dd	-0.018427307
21	0x3ca70d3d	0.020392055
22	0xbbe38c49	-0.0069442135
23	0xbcbfcf41	-0.023414256
24	0x3bef5beb	0.0073046586
25	0xbd225bee	-0.039638452
26	0xbd486d94	-0.048932627
27	0x3d0e62c1	0.034762148
28	0xbc94a694	-0.018145837
29	0x3b569a02	0.0032745604
30	0xbc7a08c4	-0.015260879
31	0xbd05beb0	-0.032652557
32	0xbd03befa	-0.03216455
33	0x3d1976b5	0.037466723
34	0x3c1b414d	0.009476018
35	0xbd14c58a	-0.0363212
36	0xbc87827a	-0.016541708
37	0xbce7676e	-0.028247561
38	0x3d313c5a	0.043270446
39	0x3c496ed0	0.012294486
40	0xbd0c2207	-0.03421214
41	0xbc414bae	-0.011797829
42	0x3ca53e48	0.0201713
43	0x3d03acab	0.03214709
44	0x3c2999d2	0.010351615
45	0x3bdefa1a	0.006804717
46	0xbbcb95db	-0.0062129325
47	0x3d1d1e94	0.03835924
48	0xbb9445e6	-0.004524934
49	0xbd487586	-0.048940204
50	0xbcb55dcc	-0.022139452
51	0xbc389688	-0.011266358
52	0xbc221a4e	-0.009893967
53	0xbcefe8b0	-0.029285759
54	0xbceda81f	-0.02901083
55	0x3b83adfe	0.004018544
56	0x3c7f5c3b	0.015585954
57	0xbc03ab5b	-0.00803646
58	0xbd154ca5	-0.036450047
59	0xbc82528f	-0.015908508
60	0x3d40cd4d	0.04707079
61	0x3be9af9c	0.00713153
62	0x3d44ff8c	0.04809527
63	0x3c8e3971	0.017361375
64	0x3cdb8a64	0.026799388
65	0x3d2ff105	0.042954464
66	0x3b529f3d	0.003213837
67	0xbb12adc5	-0.0022381407
68	0x3cc08346	0.023500096
69	0x3bd2c4e9	0.006432165
70	0x3c5f1765	0.013616418
71	0x3c104377	0.008805147
72	0x3cd5a66a	0.026080329
73	0x3bd664be	0.006542771
74	0x3c87d131	0.016579242
75	0xbb1089ab	-0.0022054713
76	0x3b1832b9	0.0023223592
77	0x3cbb4bd4	0.022863306
78	0x3d1e775e	0.038688056
79	0xbc52f907	-0.012876756
80	0xbab9b26d	-0.0014167555
81	0x3cac6978	0.021046385
82	0x3c250096	0.0100709405
83	0x3c76b8af	0.01505868
84	0x3c6c2924	0.014414106
85	0x3cc6a66b	0.024249276
86	0x3c5fed26	0.01366738
87	0x3c0523cc	0.00812621
88	0x3b636446	0.0034697219
89	0x3d09692e	0.033547573
90	0x3b1b7f69	0.0023727065
91	0x3b8f11fe	0.0043661585
92	0x3bcc8a0d	0.006242043
93	0xb9e2de03	-0.0004327149
94	0xbcfec9d6	-0.031102102
95	0x3cb46574	0.022021033
96	0xbb6af99e	-0.003585435
97	0x3b9d9c9d	0.0048099295
98	0xbd0cb948	-0.034356385
99	0x3bc343e2	0.00595902
100	0xbcd84496	-0.026399892
101	0x3bb0bab4	0.0053933505
102	0xbd28de39	-0.041227553
103	0xbbed539a	-0.007242632
104	0x3cb02a4e	0.021504547
105	0xbc0b8e85	-0.008517866
106	0xbcbaebbd	-0.022817487
107	0xbba6baa0	-0.0050881654
108	0xbc098ac1	-0.008394898
109	0x3d457be1	0.048213843
110	0xbc53fc1e	-0.012938527
111	0x3c90da93	0.01768235
112	0x3b4d98c0	0.0031371564
113	0xbc1f17dc	-0.009710278
114	0x3d3458ec	0.044030115
115	0xbba80f3a	-0.0051287683
116	0xbc3edc29	-0.01164917
117	0x3c22d110	0.00993754
118	0x3cb9c026	0.022674631
119	0x3d1be9d4	0.038064793
120	0x3c1c9f99	0.009559535
121	0x3cef2726	0.029193472
122	0xbc803b77	-0.015653355
123	0x3b96c535	0.0046011456
124	0xbd11582d	-0.03548448
125	0x3a0f2efd	0.0005462019
126	0xbc4375d6	-0.01192995
127	0x3d3d46db	0.04621015
128	0x3c7dbfca	0.015487621
129	0x3cc20a95	0.023686687
130	0x3d2b85e7	0.041875746
131	0xbae59569	-0.0017515841
132	0xbb18f425	-0.002333888
133	0xbb008004	-0.0019607553
134	0x3b74c992	0.003735159
135	0x3d434b70	0.047679365
136	0xbcff7162	-0.031181995
137	0x3c0b0530	0.0084851235
138	0xbd1b86a9	-0.03797022
139	0xbc9df738	-0.019282922
140	0x3c53da64	0.012930486
141	0xbcb9c8af	-0.022678701
142	0x3cf165f2	0.029467557
143	0x3c83cd48	0.016089097
144	0x3bb63208	0.0055601634
145	0x3c8f6091	0.017502101
146	0x3cbc74aa	0.023004849
147	0x3d101dd4	0.035184696
148	0x3c9711a3	0.018441027
149	0xbcf4ee76	-0.029898863
150	0xbd5d99a0	-0.054101586
151	0xbd15a913	-0.036538195
152	0xbd654849	-0.05597714
153	0x3c9889ef	0.01862046
154	0x3b980ca7	0.00464018
155	0xbb1d940c	-0.0024044542
156	0x3c05cf23	0.008167061
157	0xbad9a8c8	-0.0016606087
158	0xbbfabcbb	-0.007651893
159	0x3d1cc6f2	0.038275667
160	0xbd19492a	-0.03742329
161	0xbb9dbc79	-0.0048137275
162	0x3c7f3621	0.01557687
163	0xbcdea750	-0.02717939
164	0x3cc433f3	0.023950553
165	0x3a54d428	0.0008118772
166	0x3cace873	0.021106934
167	0x3c7e7ec8	0.015533157
168	0x3d019e1b	0.03164492
169	0x3becce94	0.0072267745
170	0x3d0b1977	0.033959832
171	0x3cb859f8	0.022503838
172	0x3c8314c2	0.016001109
173	0x3c483941	0.012220682
174	0x3c5bb026	0.013408696
175	0xbd20ef08	-0.039290458
176	0xbcea37c2	-0.02859104
177	0xbd063af6	-0.032771073
178	0xbc4ece0b	-0.012622367
179	0x3ccfb177	0.025353177
180	0x3c114af8	0.008867972
181	0x3cc0dc20	0.023542464
182	0x3cc748cc	0.024326704
183	0xbc7efb64	-0.015562866
184	0x3c2064b7	0.009789637
185	0x3cadd089	0.021217601
186	0x3d2487aa	0.04016844
187	0xbcb2106d	-0.021736348
188	0x3ccad232	0.024758432
189	0xbd5b90a4	-0.053604737
190	0x3c18cfbd	0.009326872
191	0xbd19a800	-0.037513733
192	0x3c607460	0.013699621
193	0xbbfd9cad	-0.0077396245
194	0xbb5529b8	-0.0032526087
195	0xbc9c0d24	-0.019049235
196	0x3c947a8e	0.018124845
197	0x3cff0050	0.031128079
198	0xbc76aa2b	-0.01505522
199	0x3d19b62b	0.037527245
200	0xbb91857c	-0.0044409614
201	0xbd7f0074	-0.06225629
202	0x3c30112f	0.010746284
203	0x3cfabea1	0.030608477
204	0x3c746e0b	0.014918814
205	0xbc3eecd6	-0.011653146
206	0xbcdbc674	-0.026828028
207	0xbcc6162b	-0.024180492
208	0xbcba87fa	-0.022769917
209	0xbcf0a64c	-0.029376172
210	0x3b378064	0.002800011
211	0x3a08514b	0.0005200102
212	0xbc9ca9db	-0.019123962
213	0x3cc4e956	0.024037044
214	0xbd398f5a	-0.045302726
215	0x3cbcddd9	0.023055004
216	0xbc9abc5f	-0.01888865
217	0xbc0a2b5e	-0.008433191
218	0xbd0f36ec	-0.034964487
219	0xbcd50c67	-0.02600689
220	0x3d131565	0.035909075
221	0x3d2f74e3	0.04283608
222	0x3cdf8ba5	0.027288267
223	0xbc68869d	-0.014192251
224	0x3d21ea96	0.03953036
225	0xbc8b41fe	-0.016999241
226	0xbb265986	-0.002538295
227	0x3cb3b991	0.02193907
228	0xbcad65f5	-0.021166781
229	0x3d0c2b79	0.034221146
230	0x3cf2cf81	0.029639961
231	0xbc22b75b	-0.009931411
232	0xbb71b36a	-0.003688062
233	0x3d1c3cd7	0.03814396
234	0x3c8b4c34	0.01700411
235	0x3d089d3d	0.03335308
236	0xbc126dc6	-0.008937305
237	0x3cc1396f	0.023586957
238	0x3bfae213	0.0076563447
239	0xbcf8ef3e	-0.030387517
240	0xbd25c4d3	-0.04047091
241	0xbb452407	-0.0030081288
242	0xbc413c48	-0.011794157
243	0xbbdec66c	-0.006798556
244	0xbd42fdc2	-0.047605284
245	0x3cc9cb41	0.024633052
246	0x3cccdea3	0.025008505
247	0x3c320b58	0.010866962
248	0xbc8c4de4	-0.017126985
249	0x3be1c2d0	0.0068896785
250	0xbcc7f6c1	-0.024409654
251	0x3b8dc426	0.004326361
252	0x3c2745a2	0.010209473
253	0xbcd25856	-0.025676887
254	0xbcb2bd5b	-0.021818807
255	0xbc008376	-0.007843843

layers.2.bias f4 [32]
0	0x3c8d9cc8	0.017286673
1	0xbdcac236	-0.09900324
2	0xbd337024	-0.043808118
3	0x3d1b4421	0.03790677
4	0xbc2810d7	-0.010257921
5	0xbce6b9e8	-0.028164819
6	0x3d0f8ff4	0.035049394
7	0xbc21f3a0	-0.009884745
8	0xbc5fa2b0	-0.013649628
9	0xbc56ef11	-0.013118521
10	0xbd810c90	-0.06301224
11	0x3c971e9b	0.018447211
12	0x3d5b4a55	0.053537685
13	0xbcc143a8	-0.023591831
14	0xbd88da47	-0.06682258
15	0x3c0c3bd8	0.00855919
16	0x3c863e81	0.016387226
17	0x3ca648f3	0.020298457
18	0xbc8c23ae	-0.017106857
19	0x3c83af89	0.016074913
20	0xbdb15275	-0.086583056
21	0xbde55d14	-0.11199394
22	0x3d06e95e	0.0329374
23	0x3cd5d877	0.026104195
24	0x3af75ae0	0.0018871687
25	0xbd25354a	-0.040334024
26	0xbd92a024	-0.07159451
27	0xbd1ae191	-0.037812773
28	0xbcab2726	-0.02089269
29	0xbd5498ad	-0.051903415
30	0xbd091320	-0.033465505
31	0xbc9260f8	-0.017868504

layers.4.weight f4 [32]
0	0x3f7d3ac7	0.9891781
1	0x3f873833	1.0564026
2	0x3f7c052b	0.98445386
3	0x3f833493	1.0250419
4	0x3f8842be	1.0645368
5	0x3f9162e5	1.1358305
6	0x3f800681	1.0001985
7	0x3f8198c6	1.0124748
8	0x3f80b67d	1.0055691
9	0x3f82cd36	1.0218875
10	0x3f86b195	1.0522944
11	0x3f7604f5	0.96101314
12	0x3f8060a9	1.0029498
13	0x3f86ad68	1.0521669
14	0x3f8b396a	1.0876896
15	0x3f893887	1.0720376
16	0x3f876d89	1.0580302
17	0x3f82b0a4	1.0210156
18	0x3f785587	0.97005504
19	0x3f8aaf87	1.0834817
20	0x3f86204d	1.0478607
21	0x3f8cce7f	1.1000518
22	0x3f7991a5	0.9748786
23	0x3f84c69c	1.0373111
24	0x3f863fab	1.048818
25	0x3f868c86	1.0511634
26	0x3f82098d	1.0159165
27	0x3f87b754	1.0602822
28	0x3f875ea5	1.0575758
29	0x3f813646	1.0094688
30	0x3f8728bf	1.055931
31	0x3f7d47e9	0.9893785

layers.4.bias f4 [32]
0	0xbc9b7663	-0.01897735
1	0x3c869fc1	0.016433598
2	0xbc54a99f	-0.012979894
3	0xbdd1c4c6	-0.1024261
4	0x3e0d3bf0	0.13792396
5	0xbd2c2208	-0.042024642
6	0x3d319958	0.04335913
7	0xbda0ba2c	-0.078480095
8	0xbb8273ac	-0.0039810743
9	0x3d4fa67f	0.050695892
10	0xbbc45edd	-0.005992754
11	0xbcd772b7	-0.026299817
12	0x3cb24eea	0.021766145
13	0xbca1ad44	-0.01973594
14	0x3c17192a	0.009222308
15	0xb9ac0791	-0.00032812034
16	0x3d4670c9	0.048447404
17	0xbd8d05c6	-0.06885867
18	0xbdadf182	-0.084933296
19	0x3da97bc6	0.08275561
20	0xbc68bf63	-0.014205786
21	0xbd4e517a	-0.05037067
22	0xb998bf04	-0.00029134017
23	0xbc70e959	-0.014704072
24	0x3d812807	0.06306463
25	0x3c0b1a55	0.008490165
26	0xbd80a4a9	-0.062814064
27	0xbd4a92e8	-0.049456507
28	0x3aeca42a	0.0018054296
29	0x3c717de0	0.014739484
30	0x3c6603ef	0.014039024
31	0x3ccffea0	0.02538997

layers.4.running_mean f4 [32]
0	0x3d628b46	0.055308603
1	0x3e292f89	0.1652204
2	0x3e92cd0d	0.28672066
3	0xbc996281	-0.018723728
4	0xbdd6534d	-0.10465107
5	0xbde283d4	-0.110603005
6	0x3d4cd45a	0.0500072
7	0xbe3d42d8	-0.1848253
8	0x3d7959d5	0.060876686
9	0xbd2dcbdd	-0.042430747
10	0x3e320c0f	0.17387412
11	0xbd3449ca	-0.044015683
12	0xbc7fcbc7	-0.015612549
13	0x3e7bb787	0.24581729
14	0x3e393fbc	0.18090719
15	0x3cd48384	0.025941618
16	0xbb8e711f	-0.004346981
17	0xbe0f33a2	-0.1398454
18	0x3cd968b5	0.026539186
19	0xbc824b2e	-0.01590499
20	0x3d7cad84	0.061688915
21	0xbe1b0ab9	-0.15140809
22	0xbe06a664	-0.1314941
23	0xbdf08cc2	-0.117455974
24	0x3d64b9bf	0.055841204
25	0x3d678a7e	0.05652856
26	0xbd9b43ba	-0.07581277
27	0xbd873fee	-0.066039905
28	0x3e00404d	0.12524529
29	0x3e6d943e	0.23201081
30	0xbcd27cf7	-0.025694354
31	0x3c97cec7	0.018531216

layers.4.running_var f4 [32]
0	0x3d034139	0.032044623
1	0x3d25ffb8	0.040527076
2	0x3d95ad07	0.07308393
3	0x3ce155f5	0.027506808
4	0x3cc9ab2f	0.02461776
5	0x3c4ffed1	0.01269503
6	0x3d25dda2	0.04049457
7	0x3c3da612	0.011575239
8	0x3d007984	0.031365886
9	0x3d2f2842	0.042763002
10	0x3d83bafd	0.064321496
11	0x3cbd8131	0.023132892
12	0x3cadfcc6	0.021238696
13	0x3d7de785	0.061988372
14	0x3d5a8feb	0.053359907
15	0x3d13dfd7	0.036102142
16	0x3d079d0e	0.033108763
17	0x3c5902c9	0.013245293
18	0x3d305e7a	0.04305885
19	0x3c62b04d	0.013835979
20	0x3d20cca7	0.03925767
21	0x3c7650ab	0.015033881
22	0x3d0aa6a4	0.033850327
23	0x3c69f841	0.01428038
24	0x3d8fc144	0.07019284
25	0x3cd9acd6	0.026571672
26	0x3cc420f8	0.023941502
27	0x3c296e12	0.010341184
28	0x3cd4c453	0.025972521
29	0x3d82338b	0.06357487
30	0x3caa531a	0.020791579
31	0x3d18e04f	0.037323292

layers.6.weight f4 [64, 32, 3, 3]
0	0xbc42dfc5	-0.011894171
1	0xbd77d0f3	-0.060502004
2	0xbd47797f	-0.048699852
3	0xbcec2ce3	-0.028829997
4	0x3da4abb6	0.08040564
5	0xbce3931a	-0.027780104
6	0xbd3c21ea	-0.04593078
7	0xbc0e99af	-0.008703633
8	0x3cb825ea	0.022479016
9	0xbbefcf0b	-0.0073183826
10	0xbc90646e	-0.017626014
11	0xbdac184b	-0.08403071
12	0xbcdf00e6	-0.027222108
13	0xbd820475	-0.06348506
14	0xbcf1f53b	-0.02953588
15	0x3d194c8b	0.037426513
16	0xbc4ffa5d	-0.012693969
17	0xbcdc3654	-0.026881374
18	0xbd219652	-0.039449997
19	0x3d44fbc7	0.048091676
20	0xbcbb6c0a	-0.022878665
21	0x3caf1b67	0.021375371
22	0xbc75dc50	-0.01500614
23	0x3d618a09	0.05506328
24	0x3d9b284b	0.07576045
25	0xbd079b22	-0.03310693
26	0xbcf9e5b0	-0.030505031
27	0x3baa3af3	0.0051950156
28	0xbc308f3c	-0.010776337
29	0xbc29afd6	-0.010356864
30	0x3d813b68	0.06310159
31	0x3b6ad744	0.0035833875
32	0xbd5c48eb	-0.053780477
33	0xbd36b46c	-0.044605657
34	0x3c58c1ea	0.013229826
35	0xbc8e631a	-0.01738124
36	0xbc90cf7f	-0.017677067
37	0xbd20dc9d	-0.039272893
38	0xbd411483	-0.047138702
39	0xbc94e182	-0.018173937
40	0x3ca27e00	0.019835472
41	0x3d254f6f	0.040358957
42	0xbc15778a	-0.009122739
43	0x3c9a4c12	0.018835101
44	0x3d346db5	0.044049937
45	0xbaa86417	-0.0012847212
46	0xbcf4c121	-0.029877247
47	0x3bbddc51	0.005794086
48	0xbd821e8a	-0.06353481
49	0xbbe1cc99	-0.006890845
50	0x3bcbf43e	0.0062241843
51	0xbbfc9991	-0.007708736
52	0xbd6d957b	-0.058003884
53	0x3cde15ee	0.027110066
54	0x3d20a724	0.039221898
55	0x3cc199d1	0.023632916
56	0x3d250e0f	0.04029661
57	0x3cdb2845	0.0267526
58	0x3be6fb84	0.007049026
59	0x3d60cf39	0.054885123
60	0xbd15d048	-0.036575586
61	0x3caa1ff7	0.020767195
62	0xbc1f7f04	-0.009734873
63	0xbc618789	-0.013765224
64	0xbd474325	-0.04864802
65	0x3a4ffc72	0.00079340406
66	0xbd6fa702	-0.05850888
67	0xbc0dec0e	-0.008662237
68	0x3c214a93	0.00984444
69	0xbcc1cc35	-0.023656944
70	0x3bd74eea	0.0065706866
71	0x3d697e11	0.057004992
72	0x3c8e5d21	0.017378392
73	0x3d903826	0.070419595
74	0xba1ae9f7	-0.0005909497
75	0xbd182e55	-0.03715356
76	0x3d63122a	0.055437244
77	0x3d49f43b	0.049305182
78	0xbd251d43	-0.04031111
79	0xbcb0a49e	-0.02156287
80	0xbc22583a	-0.00990873
81	0xbd7e7e03	-0.062131893
82	0xbcc1f36e	-0.023675647
83	0x3dacd593	0.084391735
84	0xbd16fd41	-0.036862615
85	0x3ce73c91	0.028227123
86	0x3ae23394	0.0017257803
87	0x3d4da98d	0.050210524
88	0x3d0ceae9	0.034403715
89	0x3da84f50	0.08218253
90	0xbd4e9759	-0.050437305
91	0xbaca7bde	-0.0015448292
92	0xbd2fee28	-0.042951733
93	0x3b476a51	0.003042836
94	0xbd04f525	-0.03246035
95	0x3bb37e40	0.0054776967
96	0xbd2daa5a	-0.042398788
97	0x3d896ee7	0.06710606
98	0x3d6b227c	0.057405934
99	0x3cefd576	0.02927659
100	0xbc03841f	-0.008027106
101	0x3c18ee2c	0.009334128
102	0xbd764c3e	-0.060131304
103	0x3d7aceff	0.061232563
104	0xbd0fae62	-0.035078414
105	0xbc4033aa	-0.011731068
106	0xbd4f9a73	-0.050684404
107	0xbcd4931e	-0.025949057
108	0x3d511d5d	0.051053394
109	0x3933993a	0.00017127852
110	0x3c484d83	0.0122255115
111	0xbc5111b6	-0.01276057
112	0x3d8e8438	0.069588125
113	0xbd38c60e	-0.045110755
114	0x3c98c703	0.018649584
115	0x3d142e23	0.036176812
116	0xbd3a36e7	-0.045462515
117	0x3d587375	0.052844483
118	0xbcd5efd0	-0.026115328
119	0xbcbd6441	-0.023119094
120	0xbcf18209	-0.02948095
121	0x3bfdfc9f	0.007751062
122	0xbd3c21a0	-0.045930505
123	0xbc0d0220	-0.008606464
124	0x3ccadec9	0.024764435
125	0xbbb6a99b	-0.0055744178
126	0x3bd07358	0.0063614063
127	0xbd532854	-0.05155213
128	0xbbb86a8b	-0.0056279353
129	0x3b26dd94	0.002546166
130	0xbd3a0df7	-0.045423474
131	0x3c4a932e	0.012364192
132	0xb9f6e46e	-0.0004709097
133	0xbc56f52c	-0.013119977
134	0xbd33328a	-0.04374937
135	0x3d4519bb	0.04812024
136	0x3d0c605e	0.03427159
137	0x3c2a7eb0	0.010406181
138	0xbd173591	-0.03691632
139	0x3b535492	0.0032246453
140	0xbd38e3b3	-0.045139026
141	0xbd67754b	-0.056508344
142	0x3bdeb646	0.006796631
143	0xbc2f67fe	-0.010705946
144	0xbd156c71	-0.03648037
145	0xbd4e082f	-0.050300773
146	0x3d37dbd7	0.04488739
147	0x3d3a9fae	0.04556244
148	0x3d9895a7	0.07450419
149	0x3d6052fb	0.054766636
150	0x3cd9f873	0.026607728
151	0xbcd56822	-0.026050631
152	0x3c68853e	0.014191924
153	0xbcf0d51e	-0.029398497
154	0xbd419073	-0.047256898
155	0x3ced353c	0.028956048
156	0xbd381a51	-0.044946972
157	0xbcb89527	-0.022532059
158	0x3c9025e0	0.017596185
159	0xbdb1907b	-0.086701356
160	0x3baed86e	0.005335859
161	0x3d3d1ad0	0.04616815
162	0x3d2e8005	0.042602558
163	0xbad08097	-0.0015907463
164	0xbb17c41f	-0.0023157669
165	0x3cb9d0ea	0.022682626
166	0x3cdee50a	0.027208824
167	0xbc8fcb97	-0.017553134
168	0x3ca3dea8	0.020003632
169	0x3c8d1b94	0.017225064
170	0x3cc7d92c	0.024395548
171	0xbc999c51	-0.018751295
172	0x3d897bfd	0.06713102
173	0x3d0c651d	0.034276117
174	0xbc058b12	-0.008150833
175	0xbc78c93d	-0.015184698
176	0xbcef2cc0	-0.029196143
177	0x3c97e991	0.01854399
178	0x3d1fc2b0	0.039004028
179	0xbc8f8702	-0.017520431
180	0x3cdc9009	0.02692415
181	0xbce4016c	-0.02783271
182	0xba7a6269	-0.00095514074
183	0xbc9cbf6c	-0.019134246
184	0x3d57eee3	0.052718055
185	0xbd12b64d	-0.035818387
186	0x3b37dd4c	0.0028055487
187	0xbd0fb4a9	-0.0350844
188	0xbd510823	-0.05103315
189	0xbcb873f6	-0.022516232
190	0xbd18a33e	-0.037265055
191	0x3c43868a	0.011933932
192	0x3d962ad4	0.073323876
193	0xbd29957e	-0.041402332
194	0xbcb778ef	-0.022396533
195	0xbd0e5147	-0.03474548
196	0xbd0cf6d4	-0.03441508
197	0x3c5bfbb7	0.013426713
198	0x3bd7eba2	0.006589369
199	0x3d4bc076	0.049744092
200	0x3d478a6e	0.048716
201	0xbccbcd95	-0.024878303
202	0x3d4c564f	0.049886998
203	0xbd19ef10	-0.037581503
204	0x3c4eaff2	0.012615191
205	0xbbbdd658	-0.005793374
206	0xbc72f292	-0.014828341
207	0xbd2288b2	-0.039681144
208	0x3b4ae3e8	0.0030958597
209	0x3d533fd1	0.051574532
210	0xbca3f925	-0.020016262
211	0x3d53fda4	0.051755562
212	0xbd590c65	-0.052990336
213	0x3c9efbd2	0.019407187
214	0xbcccfbe7	-0.02502246
215	0xbd496f57	-0.049178448
216	0x3da398f7	0.0798816
217	0xbd12d12f	-0.035844024
218	0x3cfa01e7	0.030518485
219	0x3c00f470	0.007870778
220	0x3c88a9ab	0.016682466
221	0xbc8dcf9c	-0.01731091
222	0x3c5d2433	0.0134974
223	0x3cec20b5	0.02882419
224	0xbd5c8761	-0.053840045
225	0x3baa813b	0.0052033938
226	0xbd4a6678	-0.049414128
227	0xbc0af658	-0.0084815845
228	0xbd394ba9	-0.04523817
229	0xbd74eac9	-0.05979422
230	0x3bd17cf7	0.006393071
231	0xbb572487	-0.0032828168
232	0xbadb1ad9	-0.0016716375
233	0xbc41a646	-0.011819428
234	0x3d41883a	0.047249056
235	0x3d6ccaad	0.057810474
236	0x3c4fb160	0.012676567
237	0xbc94612a	-0.018112738
238	0x3d3ad202	0.045610435
239	0xbd4360da	-0.047699787
240	0xbc9e9e81	-0.01936269
241	0x3cc07267	0.023492051
242	0xbcd1920a	-0.025582332
243	0x3d368479	0.04455993
244	0x3da4b32c	0.08041987
245	0x3d562323	0.052279603
246	0xbd4d6ab7	-0.0501506
247	0xbd1e1e5b	-0.038603168
248	0xbcbb9bdc	-0.022901468
249	0x3d1a8f73	0.03773446
250	0x3da864de	0.08222364
251	0xbd499555	-0.04921468
252	0xbcf86521	-0.03032166
253	0xbc9d5aa4	-0.01920826
254	0x3cc19806	0.02363206
255	0xbd5fa134	-0.054597095

layers.6.bias f4 [64]
0	0x3d22a904	0.039711967
1	0xbc80df4d	-0.015731478
2	0x3c4f7860	0.012662977
3	0x3cceff8d	0.02526834
4	0x3c47c0b1	0.012191937
5	0x3d601b21	0.054713372
6	0x3ca9490d	0.020664716
7	0x3cdd3681	0.027003529
8	0x3d2d62b9	0.042330477
9	0xbda38bc4	-0.079856426
10	0x3d0d9fee	0.03457635
11	0x3cd3e8bc	0.025867812
12	0xbd979699	-0.07401771
13	0x3d300eae	0.04298275
14	0xbc5d7f9f	-0.013519197
15	0xbcf4832c	-0.029847704
16	0x3db5fe2b	0.08886369
17	0x3cdab377	0.026696904
18	0xbd245abd	-0.040125597
19	0x3d3fce18	0.046827406
20	0xb937f52b	-0.00017543572
21	0xbdb9dc15	-0.090751804
22	0x3b280099	0.0025635122
23	0xbcc635e7	-0.024195625
24	0x3ccd8dff	0.025092123
25	0xbd05d138	-0.03267023
26	0xbd2ac728	-0.041693836
27	0xbd0f9bae	-0.035060577
28	0x3d6874e6	0.056752108
29	0x3d5d6635	0.05405255
30	0x3c84736c	0.016168319
31	0x3cbfd9f5	0.02341936
32	0x3ce4887d	0.027897114
33	0x3cf0415f	0.029328046
34	0x3cf0f119	0.02941184
35	0x3cc7352c	0.024317347
36	0xbd0f9cec	-0.03506176
37	0x3b9b4039	0.0047378805
38	0xbd004fbf	-0.03132605
39	0x3d45e33d	0.048312414
40	0x3dac7886	0.084214255
41	0xbcf6b394	-0.030114926
42	0x3e1fac7e	0.15593144
43	0xbcb66a7a	-0.022267569
44	0xbd912e4f	-0.07088911
45	0x3d8b592d	0.06804118
46	0xbdaa57e5	-0.08317546
47	0x3c819c2c	0.015821539
48	0xbc06d5d4	-0.008229692
49	0x3ce1e07e	0.027572867
50	0x3ded6969	0.11592371
51	0x3b1e8634	0.0024188878
52	0xbd7fab08	-0.062418967
53	0xbd199fbd	-0.037505854
54	0xbcae74e1	-0.021295967
55	0xbb2ef6ed	-0.0026697472
56	0x3cafb760	0.021449745
57	0xbd12c6ea	-0.03583423
58	0xbd8175f3	-0.06321325
59	0xbc5e9785	-0.01358593
60	0x3bf45675	0.0074565955
61	0x3cfb564b	0.030680796
62	0xbd88988a	-0.066697195
63	0xbd33e8bb	-0.04392312

layers.8.weight f4 [64, 64, 3, 3]
0	0x3bafb172	0.0053617293
1	0x3cb0d107	0.021584047
2	0xbc8f3347	-0.017480506
3	0x3d034f87	0.032058265
4	0x3c7112a5	0.014713918
5	0x3cd3c5a8	0.025851086
6	0xbcb72537	-0.022356613
7	0x3b62cf8c	0.003460857
8	0xbd044475	-0.03229185
9	0x3cba3d33	0.02273426
10	0x3d05e526	0.032689236
11	0x3d4b958e	0.049703173
12	0xbc9e782c	-0.019344412
13	0xbd3575ad	-0.044301677
14	0xbb868628	-0.004105348
15	0x3bf8465f	0.0075767483
16	0x3c334eba	0.010944063
17	0xbc8d7a54	-0.017270245
18	0x3ba9dab6	0.005183543
19	0x3d14fbba	0.036372878
20	0x3d1358b0	0.03597325
21	0x3bd80d2a	0.006593366
22	0x3d0a64ff	0.033787724
23	0x3cf517c0	0.029918551
24	0xbd461e38	-0.048368663
25	0xbca1fc5f	-0.01977366
26	0x3d5ff828	0.05468002
27	0xbca7a950	-0.020466477
28	0x3c2e475a	0.010637129
29	0xbc7e2e7f	-0.015514015
30	0x3c9b5f17	0.01896624
31	0xbb2f9e58	-0.002679726
32	0x3ccd5c8e	0.025068548
33	0x3d0d3227	0.034471657
34	0x3d7167e3	0.058936965
35	0x3b877d0a	0.004134779
36	0x3c442a3c	0.01197296
37	0xbccda525	-0.025103161
38	0xbc645352	-0.013935881
39	0x3d215a36	0.039392672
40	0xbc912a86	-0.017720472
41	0xbccfb24d	-0.025353575
42	0xbcde5a91	-0.027142795
43	0xbc8df4eb	-0.0173287
44	0xbce6aaf6	-0.028157692
45	0xbd13aa50	-0.036051095
46	0x3c0d58e6	0.008627152
47	0xbc3e66d0	-0.011621192
48	0x3cda3ba3	0.026639765
49	0x3cfe80be	0.031067248
50	0x3cf19508	0.029490009
51	0x3ce60113	0.028076684
52	0x3b6ad143	0.0035830296
53	0x3d07ee6a	0.033186354
54	0x3d2498bc	0.04018472
55	0x3d6080d1	0.05481035
56	0x3c4e668d	0.012597692
57	0xbd09d9d6	-0.03365501
58	0x3c1e3c40	0.009657919
59	0x3b083ff9	0.0020790084
60	0xbc8ee9ec	-0.017445527
61	0xbcbe97a0	-0.02326566
62	0xbc6ebd8a	-0.014571557
63	0x3d6c66b0	0.057715118
64	0xbcc07b65	-0.02349634
65	0xbc9148b0	-0.017734855
66	0x3ce149b8	0.027500972
67	0x3ca4043c	0.02002155
68	0x3cb18e2e	0.021674242
69	0x3d38fb5a	0.045161583
70	0x3ca10128	0.019653872
71	0xbcfb889a	-0.030704785
72	0xbce4d135	-0.027931789
73	0xbce241cd	-0.027619267
74	0x3b719b7b	0.0036866355
75	0x3c66b056	0.014080128
76	0xbcc138dd	-0.023586685
77	0x3ca250ba	0.019813884
78	0xbcd66975	-0.026173333
79	0xbce566d7	-0.02800314
80	0xbd1a6c9f	-0.037701245
81	0x3c65ad48	0.014018364
82	0xbc8c6908	-0.017139927
83	0x3cc46c7b	0.023977509
84	0x3bbd0cfc	0.00576937
85	0xbb4560e0	-0.0030117556
86	0xbc3957c8	-0.011312433
87	0x3c8505d8	0.016238138
88	0xbbfca4f6	-0.0077100946
89	0xbbb864c0	-0.0056272447
90	0xbcf88f21	-0.030341687
91	0xbb5317f7	-0.003221033
92	0x3b5251ed	0.0032092289
93	0x3d51fe32	0.05126781
94	0x3d2e8ae3	0.04261292
95	0xbc707940	-0.014677346
96	0x3cf38d94	0.029730596
97	0xbad31d7b	-0.0016106808
98	0x3d3cc017	0.04608163
99	0x3a381a50	0.0007022964
100	0x3cc0d666	0.023539733
101	0xbd1887bf	-0.037238833
102	0x39abb139	0.00032747703
103	0x3d3b30c2	0.045700796
104	0x3d053ba8	0.032527596
105	0xbcfb8c2a	-0.030706484
106	0x3c933c7d	0.017973179
107	0x3d38972a	0.045066036
108	0x3bb973ad	0.0056595416
109	0xbc5c7e8c	-0.0134579055
110	0x3c48a91d	0.012247351
111	0xbc9408d7	-0.018070621
112	0x3d14812d	0.036256004
113	0xbc0821db	-0.008308853
114	0x3b8737ba	0.004126516
115	0xbcd6d358	-0.026223823
116	0xbb72aa58	-0.0037027802
117	0xbd0e736d	-0.034778047
118	0x3b918649	0.004441057
119	0xbcc0ee1d	-0.023551041
120	0x3c6ce364	0.014458511
121	0x3b938004	0.0045013446
122	0xbc01532d	-0.007893366
123	0x3cfa76b9	0.03057419
124	0xbc91bbd2	-0.017789755
125	0x3caa7d1b	0.020811608
126	0x3cff6583	0.031176334
127	0xbbca4eb3	-0.0061739325
128	0xbc78394f	-0.015150382
129	0xbb894c20	-0.004189983
130	0xbd2cf355	-0.042224247
131	0xbc8f7c22	-0.017515246
132	0xbce1f962	-0.027584735
133	0x3cf4ae86	0.029868376
134	0x3d00d142	0.031449564
135	0xbc800642	-0.015627984
136	0xbd1f1cbd	-0.038845766
137	0xbd336a8f	-0.043802794
138	0x3c698036	0.014251759
139	0xbcd31d68	-0.025770858
140	0xbc0b6fbc	-0.008510526
141	0xbc3fdb8f	-0.011710062
142	0xbc993c86	-0.018705618
143	0x3cd422f4	0.025895573
144	0x3c222dfa	0.009898657
145	0x3d1357dd	0.035972465
146	0xbb81d486	-0.0039621023
147	0x3cc6fb35	0.024289707
148	0xbc65b58f	-0.014020338
149	0xba837eff	-0.0010032355
150	0xbc80271f	-0.015643654
151	0x3cd9497d	0.0265243
152	0xbcdd2757	-0.026996298
153	0xbd13941a	-0.036029913
154	0xbc12e08d	-0.00896467
155	0x3cb946ff	0.022616861
156	0x3b5fec44	0.0034167925
157	0x3cc76579	0.024340378
158	0x3c7d2c3e	0.015452443
159	0xbbfc15d2	-0.007693031
160	0xbd2fd59f	-0.042928334
161	0xbd425bc1	-0.047450785
162	0xbc2b679f	-0.010461717
163	0xbcec2cc9	-0.028829949
164	0xbbdc1170	-0.006715946
165	0xbc61398e	-0.013746632
166	0xbc552a58	-0.013010584
167	0x3a24e8b6	0.000629078
168	0x3bd41ac7	0.0064729187
169	0x3c9939a6	0.018704247
170	0xbcd0be09	-0.02548124
171	0xbd534b01	-0.0515852
172	0xbd1e5778	-0.038657635
173	0xbd32203c	-0.043487772
174	0xbd42083b	-0.04737113
175	0xbd343ad8	-0.04400143
176	0xbcfe290e	-0.031025436
177	0x3cb43934	0.021999933
178	0xbcc4e1d8	-0.024033472
179	0x3ce21058	0.027595684
180	0x3c58ad2a	0.013224879
181	0x3d0bdf8a	0.03414873
182	0xbc85b98e	-0.016323831
183	0x3d2419fd	0.040063847
184	0xbc7dadad	-0.015483302
185	0x3c045a29	0.0080781365
186	0xbd18874c	-0.037238404
187	0xbd318fa5	-0.04334988
188	0xbd1a947b	-0.03773926
189	0x3bd32854	0.0064440165
190	0x3c9bca09	0.019017236
191	0x3d00d973	0.031457376
192	0xbce1e1f1	-0.027573558
193	0xbd13ee2f	-0.03611582
194	0x3c9df059	0.019279646
195	0xbd37efdd	-0.044906486
196	0xbc24a787	-0.010049707
197	0xbc957698	-0.018245026
198	0x3d3e69a3	0.04648746
199	0x3d16c62f	0.036810096
200	0x3beed4f6	0.0072885705
201	0xbd07e0e4	-0.033173457
202	0xbbce2651	-0.0062911888
203	0x3cbb6d4a	0.022879262
204	0x3ba42092	0.0050087655
205	0x3d0a66cc	0.03378944
206	0x3c16e8f9	0.009210818
207	0xbc9b8bb8	-0.018987522
208	0xbae38ec0	-0.0017361268
209	0xbd077c35	-0.033077437
210	0xbcf9c63d	-0.030490035
211	0xbd1ea2ca	-0.038729466
212	0xbbbd9dd3	-0.0057866364
213	0x3d2495eb	0.040182035
214	0xbb1181c1	-0.0022202583
215	0xbb8c63f0	-0.0042843744
216	0x3c111f98	0.00885763
217	0x3d1b6122	0.03793443
218	0x3ce94a77	0.02847789
219	0x3d41ab4e	0.04728251
220	0x39f6f424	0.00047102675
221	0xbd2fbba8	-0.042903572
222	0x3c903eaf	0.017608015
223	0x3d0e98c2	0.03481365
224	0x3c9ca625	0.019122193
225	0x3c6c6b21	0.014429838
226	0x3b9cccfb	0.0047851778
227	0x3d27e837	0.04099294
228	0xbc273f07	-0.010207898
229	0x3c8b046d	0.016969884
230	0xbc69b74f	-0.014264896
231	0x3ce35aa5	0.027753184
232	0xbabcf8f1	-0.0014417452
233	0xbceea308	-0.029130474
234	0xbc9526bc	-0.018206947
235	0xbd1fa656	-0.03897699
236	0xbc854646	-0.01626886
237	0xbd31428c	-0.043276355
238	0xbc8cce8f	-0.017188339
239	0x3c063799	0.008191966
240	0xbd2c4df4	-0.04206653
241	0x3b8c29a2	0.004277424
242	0xbbe2e4ae	-0.0069242334
243	0xbd0f5b4a	-0.03499917
244	0x3c2f7d1c	0.010710981
245	0x3d0dd44e	0.034626298
246	0x3d1409a0	0.03614199
247	0xbc86d794	-0.016460218
248	0xbb390148	-0.0028229523
249	0xbc96667b	-0.018359413
250	0xbcd0d675	-0.025492886
251	0xbc8887cb	-0.016666314
252	0xbb1c58a4	-0.0023856545
253	0xbc1591ce	-0.009129001
254	0x3c4968e0	0.012293071
255	0x3ca4019a	0.020020295

layers.8.bias f4 [64]
0	0x3c24249f	0.010018497
1	0xbc715e2f	-0.014731928
2	0xbcafe813	-0.021472966
3	0xbce59207	-0.028023733
4	0xbd4e3764	-0.050345793
5	0x3bc98a29	0.006150503
6	0xbcca4886	-0.024692785
7	0x3c39b135	0.011333753
8	0xbccad2f0	-0.024758786
9	0xbd1227e0	-0.03568256
10	0xbc7adf05	-0.015311961
11	0xbc63dc7c	-0.013907548
12	0xbd1769ca	-0.036966123
13	0xbd1b169d	-0.037863363
14	0xbd440e7a	-0.04786537
15	0xbd1f841c	-0.03894435
16	0xbcad8beb	-0.021184882
17	0x3c98ca43	0.018651133
18	0xbd3af38e	-0.045642428
19	0xbcdd8e73	-0.027045464
20	0xbc2903df	-0.010315864
21	0xbd470335	-0.048587043
22	0xbd0c6c50	-0.034282982
23	0xbd29270e	-0.04129701
24	0xbd5985c6	-0.053106092
25	0xbcbac3ad	-0.022798384
26	0xbc5fec53	-0.013667184
27	0xbd85d7e8	-0.065353215
28	0x3c6c63c8	0.014428087
29	0xbda447d4	-0.08021513
30	0xbd8176d4	-0.06321493
31	0x3ccccb7e	0.024999376
32	0xbb968bc9	-0.0045943004
33	0x3c17d197	0.009266279
34	0xbd7eb1c7	-0.06218126
35	0x3c24b427	0.010052717
36	0xbc15f36d	-0.0091522755
37	0xbcf586d0	-0.02997151
38	0xbd558d0f	-0.052136477
39	0xbd76c85e	-0.06024968
40	0xbd45b9db	-0.04827295
41	0xbd8d1ba4	-0.06890038
42	0xbd074e8f	-0.033033904
43	0xbd9d5750	-0.07682669
44	0xbcf2ba20	-0.029629767
45	0x3bb09279	0.0053885547
46	0x3cbb2c6c	0.02284833
47	0xbd132620	-0.03592503
48	0xbd87414a	-0.0660425
49	0xbd910a39	-0.07082028
50	0xbd8d04fd	-0.06885717
51	0xbd617396	-0.055041872
52	0xbca59e8a	-0.020217199
53	0xbbbea3c0	-0.0058178604
54	0xbdb5436c	-0.0885075
55	0xbd29699a	-0.041360475
56	0xbd3f06ff	-0.04663753
57	0x3bd2cfc3	0.0064334585
58	0xbd270751	-0.04077846
59	0xbd882ff9	-0.06649775
60	0xbd745119	-0.059647653
61	0xbdb42364	-0.08795813
62	0xbc9a7d0d	-0.018858457
63	0xbdcfbfd2	-0.10144009

layers.10.weight f4 [64]
0	0x3f8aa8e6	1.0832794
1	0x3f844129	1.0332385
2	0x3f81a50c	1.0128493
3	0x3f826aae	1.0188806
4	0x3f832cfc	1.0248103
5	0x3f85032f	1.0391597
6	0x3f8652c4	1.0494008
7	0x3f8254f8	1.018218
8	0x3f8639bf	1.0486373
9	0x3f855edd	1.0419575
10	0x3f81d966	1.014447
11	0x3f7df032	0.99194634
12	0x3f856a97	1.0423154
13	0x3f889687	1.0670937
14	0x3f811cfe	1.0086973
15	0x3f839726	1.0280502
16	0x3f83a7b7	1.0285558
17	0x3f830b2c	1.0237784
18	0x3f823a6b	1.0174078
19	0x3f8388d8	1.0276136
20	0x3f830d97	1.0238522
21	0x3f865b6a	1.0496647
22	0x3f855742	1.0417254
23	0x3f8492e0	1.0357323
24	0x3f80c89f	1.0061225
25	0x3f81eee8	1.0151033
26	0x3f83d223	1.0298504
27	0x3f8411ff	1.0317992
28	0x3f8141de	1.0098226
29	0x3f82d217	1.0220364
30	0x3f864c0c	1.0491958
31	0x3f82008e	1.0156419
32	0x3f85d986	1.0457008
33	0x3f84393f	1.032997
34	0x3f86818e	1.0508287
35	0x3f8029d6	1.0012767
36	0x3f82d6e6	1.0221832
37	0x3f88eff7	1.0698231
38	0x3f8150e2	1.0102808
39	0x3f83aa33	1.0286316
40	0x3f80d64b	1.0065397
41	0x3f832d02	1.024811
42	0x3f822014	1.016604
43	0x3f83946a	1.0279667
44	0x3f8321f6	1.0244739
45	0x3f8690e4	1.0512967
46	0x3f80efa5	1.0073134
47	0x3f85a0d5	1.0439707
48	0x3f867a1f	1.0506018
49	0x3f887636	1.0661075
50	0x3f88128c	1.063066
51	0x3f83119f	1.0239753
52	0x3f7f9268	0.99832773
53	0x3f84b5f2	1.0368025
54	0x3f862472	1.0479872
55	0x3f81bef0	1.0136395
56	0x3f853e46	1.0409629
57	0x3f84f9f8	1.0388784
58	0x3f878b96	1.0589473
59	0x3f844028	1.0332079
60	0x3f8703cd	1.0548035
61	0x3f825b44	1.0184102
62	0x3f84cb7f	1.0374602
63	0x3f88d3f9	1.0689689

layers.10.bias f4 [64]
0	0xbbe9815f	-0.007126018
1	0x3cd425c3	0.025896912
2	0xbca96bf1	-0.020681353
3	0xbcadf60d	-0.02123549
4	0xbd2d547c	-0.0423169
5	0xbd1f3b39	-0.03887484
6	0xbd4f6173	-0.050630044
7	0xbd398afb	-0.045298558
8	0xbd33149b	-0.043720823
9	0xbcee6603	-0.029101377
10	0xbbcfb8f9	-0.006339189
11	0xbb160e7c	-0.0022896817
12	0xbcd47f54	-0.025939621
13	0xbcb721b0	-0.02235493
14	0xbcc66f01	-0.024222853
15	0x3bfdf9b7	0.0077507156
16	0xbc80bc20	-0.015714705
17	0xbcea844c	-0.028627537
18	0xbcc1aba8	-0.023641422
19	0xbc652d15	-0.013987799
20	0xbd7c0445	-0.06152751
21	0xbc831392	-0.016000543
22	0xbc06c3a6	-0.008225357
23	0xb9c2e31e	-0.0003717178
24	0xbc61f723	-0.013791832
25	0xbd0b966e	-0.034079008
26	0xbc8647b6	-0.016391616
27	0x3cd62ba0	0.026143849
28	0xbb1732a4	-0.0023070956
29	0xbc446692	-0.011987345
30	0xbcea9ebe	-0.028640147
31	0x3c263869	0.010145285
32	0xbc8ac467	-0.016939355
33	0xbb24dae7	-0.002515489
34	0xbcb6b83d	-0.022304649
35	0xbc2f8965	-0.01071391
36	0xbc6decd7	-0.014521799
37	0xbc6f383d	-0.014600811
38	0xbcb74143	-0.022369986
39	0x3c8728d4	0.01649896
40	0x3c7075f4	0.01467656
41	0xbc39421f	-0.011307268
42	0xbd1346e2	-0.03595627
43	0xbcae8db3	-0.021307802
44	0x3cf287ea	0.029605825
45	0xbbf6237d	-0.0075115548
46	0x3b9946eb	0.0046776435
47	0xbd4f96af	-0.050680812
48	0x3c413cce	0.011794282
49	0xbd036d7c	-0.032086834
50	0x3d1cf691	0.03832108
51	0xbbb3ed8d	-0.0054909647
52	0xbcbade19	-0.022810983
53	0xbcd09ddf	-0.025465904
54	0xbb8b6a9c	-0.004254652
55	0x3c07dbed	0.0082921805
56	0xbb67ea7a	-0.0035387562
57	0xbcfc70e2	-0.030815545
58	0x3bb42138	0.005497124
59	0xbd265eec	-0.04061787
60	0x3c0fe7d4	0.0087832995
61	0xbd9280c6	-0.07153468
62	0x3a86c6d3	0.0010282643
63	0xbadb2af0	-0.001672117

layers.10.running_mean f4 [64]
0	0x3dc12e76	0.0943269
1	0xbe241fd2	-0.16027763
2	0xbc2a1009	-0.0103798
3	0x3ecc7e5f	0.39940163
4	0x3dcdc1d5	0.10046736
5	0xbe3595af	-0.17732881
6	0xbd991c22	-0.07476069
7	0x3e09b653	0.13448457
8	0xbe67e302	-0.2264519
9	0x3e36c17c	0.17847246
10	0xbe2cc843	-0.16873269
11	0xbe1902fc	-0.14942545
12	0x3ee4318e	0.44569057
13	0xba0eee3a	-0.00054523686
14	0x3dccc716	0.0999891
15	0x3cb36f06	0.021903526
16	0x3dcdfaa2	0.1005757
17	0x3e65e252	0.22449616
18	0x3e125853	0.14291506
19	0xbe210b45	-0.15726955
20	0x3ee8eba7	0.45492288
21	0x3d23f210	0.04002577
22	0xbe330f16	-0.17486224
23	0x3eb61790	0.35564852
24	0xbe05c69a	-0.13064042
25	0x3e351718	0.17684591
26	0x3dfdb179	0.12387366
27	0x3e5beb73	0.21476535
28	0x3de443a8	0.11145717
29	0xbd9bc4ea	-0.07605918
30	0xbe17e9b1	-0.1483524
31	0x3dea7130	0.1144737
32	0xbe25855d	-0.16164155
33	0x3e837151	0.2567239
34	0x3d9bb94d	0.07603703
35	0x3e7c7201	0.24652864
36	0xbd58ae86	-0.052900814
37	0x3e0bc328	0.13648665
38	0xbd994e15	-0.07485596
39	0xbdeee1b7	-0.116641454
40	0x3ee03dd9	0.43797186
41	0x3d512235	0.051058013
42	0x3eb38c04	0.3506776
43	0xbdbe28d1	-0.09285129
44	0xbdf5a0ff	-0.11993598
45	0xbd091ea8	-0.0334765
46	0x3d9e5356	0.07730739
47	0xbe186138	-0.14880836
48	0x3e04b0d0	0.12958074
49	0xbcd5a951	-0.026081713
50	0xbd400283	-0.046877395
51	0x3cac79a0	0.02105409
52	0x3d997776	0.074934885
53	0xbd954377	-0.072882585
54	0x3db6ab04	0.089193374
55	0x3e073639	0.13204278
56	0xbe21fd44	-0.1581927
57	0x3e0f08ba	0.13968173
58	0x3f061939	0.52382237
59	0xbd05a34b	-0.03262643
60	0xbb6b6830	-0.0035920255
61	0xbe2c95fc	-0.1685409
62	0xbdff881d	-0.124771334
63	0xbdc256ed	-0.09489236

layers.10.running_var f4 [64]
0	0x3e06ba71	0.13157059
1	0x3ce6b0a6	0.028160404
2	0x3d579749	0.05263451
3	0x3e1ea3fe	0.15492246
4	0x3e0782a4	0.13233429
5	0x3c971b80	0.01844573
6	0x3d96d80f	0.07365429
7	0x3df2ac9d	0.118493296
8	0x3c218904	0.009859327
9	0x3de326f3	0.11091413
10	0x3cb5f2d2	0.022210512
11	0x3d6668ae	0.056252174
12	0x3e88e425	0.2673656
13	0x3d5cbd1c	0.053891286
14	0x3df16589	0.117869444
15	0x3dd9f952	0.10643257
16	0x3e3066b3	0.17226677
17	0x3e108790	0.14114213
18	0x3da3df23	0.08001544
19	0x3d08a2ae	0.03335827
20	0x3e5be16a	0.21472707
21	0x3dcb13f1	0.09915913
22	0x3ca0aa4a	0.01961245
23	0x3e06d3d9	0.13166751
24	0x3d075c27	0.033046868
25	0x3e1a32bf	0.1505842
26	0x3d8f37cf	0.069930665
27	0x3df6c1bb	0.1204867
28	0x3daab442	0.08335163
29	0x3d833e47	0.06408363
30	0x3d1e9fc0	0.03872657
31	0x3d8ab238	0.06772274
32	0x3ce72604	0.02821637
33	0x3e311090	0.17291474
34	0x3dfa42ca	0.1221977
35	0x3de77d92	0.113032475
36	0x3d51d05d	0.0512241
37	0x3dc777f3	0.097396754
38	0x3d6b20cc	0.057404324
39	0x3d823ae4	0.06358889
40	0x3e775bc1	0.24156095
41	0x3db00cb1	0.08596171
42	0x3e8411e2	0.25794894
43	0x3d1f1049	0.03883389
44	0x3d1fe257	0.039034214
45	0x3d4be413	0.049778055
46	0x3db2aa03	0.087238334
47	0x3d3a6569	0.04550687
48	0x3d9ba071	0.07598961
49	0x3d6854cc	0.056721494
50	0x3db4b356	0.08823268
51	0x3d776cf6	0.060406648
52	0x3db5ef89	0.08883578
53	0x3d1ef038	0.03880331
54	0x3dd1daaf	0.10246789
55	0x3e05c7b5	0.13064463
56	0x3cd19f34	0.02558861
57	0x3e06924e	0.13141748
58	0x3ec03e2e	0.3754744
59	0x3d43da16	0.047815405
60	0x3e14f972	0.14548281
61	0x3d019848	0.031639367
62	0x3d451ebc	0.048125014
63	0x3d13c003	0.03607179

layers.13.weight f4 [10, 576]
0	0xbc2607db	-0.010133709
1	0x3c0a4d25	0.008441244
2	0x3db57914	0.088609844
3	0x3d1d5e9f	0.038420316
4	0x3d2fdebc	0.042937025
5	0xbc774ba6	-0.01509372
6	0x3bd580a2	0.0065155784
7	0xba401fd1	-0.000732896
8	0xbcf8cc8e	-0.030370977
9	0x3cf4a964	0.029865928
10	0x3c9a3f65	0.018829057
11	0xbce14910	-0.02750066
12	0x3d40d398	0.04707679
13	0x3ca4243e	0.020036813
14	0xbc76a74f	-0.015054538
15	0xbc0e6dd1	-0.008693174
16	0xbc14925a	-0.009068096
17	0x39c5f0ba	0.00037754123
18	0x3c0f23d4	0.008736569
19	0x3be5e534	0.0070158485
20	0xbb6e4009	-0.0036354086
21	0xbca17bb0	-0.0197123
22	0x3c68b2d4	0.014202792
23	0xbd583a1f	-0.052789804
24	0xbd4a63a9	-0.04941145
25	0x3c88b383	0.01668716
26	0x3d2b4b67	0.041819956
27	0x3d0c746b	0.034290712
28	0x3c1610e7	0.009159303
29	0xbce78191	-0.028260024
30	0xbc98be5d	-0.01864546
31	0xbcd8cbae	-0.02646431
32	0xbd170a4a	-0.036875047
33	0x3d1107ff	0.035408016
34	0x3b9f2e63	0.0048578246
35	0xbce82627	-0.028338505
36	0xbcb92ebe	-0.022605296
37	0xbc3916a9	-0.0112969065
38	0x3bd0c4c3	0.006371112
39	0x3d61014a	0.05493287
40	0xbcb1edf1	-0.021719905
41	0xb8c22ddf	-9.259185e-05
42	0x3b9d7752	0.004805484
43	0xbcf92f79	-0.030418145
44	0xbc1f69c1	-0.009729804
45	0xbc6effcb	-0.014587353
46	0xbb5b4fdc	-0.0033464348
47	0xbd2c928a	-0.042131938
48	0x3d49b519	0.049244974
49	0x3d27ba8c	0.04094939
50	0xbcdb6cd0	-0.026785284
51	0xba0ca954	-0.0005365808
52	0xbd42e1a9	-0.047578488
53	0x3ca55db6	0.020186286
54	0x3ca8c2f8	0.02060078
55	0xbd3ec259	-0.046572063
56	0xbd3c0212	-0.045900412
57	0xbced7e1c	-0.028990798
58	0xbd1d0020	-0.038330197
59	0xbca1ca18	-0.019749686
60	0xbd7a915a	-0.061173774
61	0x3c149971	0.009069786
62	0x3c60a3f1	0.013710962
63	0x3a757805	0.00093638926
64	0xbd7efaa1	-0.062250737
65	0xbcf8dff5	-0.030380229
66	0xbcce8114	-0.025208034
67	0xbd5ebd71	-0.054379884
68	0xbce5bfd8	-0.02804558
69	0x3bf4ba1e	0.007468476
70	0x3d31f5df	0.04344737
71	0x3d319bfb	0.043361645
72	0xbd0208ad	-0.031746555
73	0xbd346797	-0.044044103
74	0xbdab46f7	-0.08363145
75	0x3ba2b02e	0.00496485
76	0xbd213197	-0.039353933
77	0xbd6019bb	-0.05471204
78	0xbd05f527	-0.0327045
79	0x3c05f05c	0.008174982
80	0x3c29924b	0.01034982
81	0xbba5cdd1	-0.0050599356
82	0xbcb0f3a9	-0.021600561
83	0x3d10aa4d	0.03531866
84	0xbce9d3ea	-0.028543431
85	0xbd49ffd0	-0.049316227
86	0xba9c6b5c	-0.0011933851
87	0x3cd6e7d0	0.026233584
88	0x3c23066f	0.009950264
89	0x3c67bc01	0.014143945
90	0x3c34c179	0.011032456
91	0xbceba756	-0.028766315
92	0xbcc7364f	-0.024317889
93	0x3cb38d14	0.021917857
94	0xbc3893a1	-0.011265666
95	0x3ae34554	0.0017339387
96	0x3b68fc70	0.0035550855
97	0xbd0ffa99	-0.035151098
98	0x3cbe1903	0.023205286
99	0x3c1327df	0.008981674
100	0x3cb1b0c6	0.021690737
101	0xbcfd3393	-0.030908382
102	0x3ccd48a2	0.025059048
103	0x3d29f23a	0.04149077
104	0xbc0dd530	-0.008656785
105	0x3d325188	0.043534786
106	0x3b886579	0.004162487
107	0xbc6842d1	-0.0141760865
108	0xbc14cbdc	-0.009081807
109	0xbd023a76	-0.031794034
110	0x3d551a19	0.05202684
111	0xbcf5d2b9	-0.030007707
112	0xbd58f9f5	-0.052972753
113	0xbcdf294b	-0.02724137
114	0x3c3174a9	0.010831037
115	0xbc13baf9	-0.009016746
116	0x3bdd6dea	0.0067574875
117	0xbcd1a5b5	-0.02559171
118	0xbc7bdbda	-0.015372241
119	0x3d4f8e53	0.05067284
120	0xba9ca2bd	-0.0011950355
121	0xbd1be018	-0.03805551
122	0x3c75dbf4	0.015006054
123	0x3d15d9cf	0.03658467
124	0xbd0f0b04	-0.034922615
125	0xbc89e66b	-0.016833505
126	0x3c9912b4	0.018685676
127	0xbd0ba489	-0.03409246
128	0xbd0d5d47	-0.034512784
129	0xbc56d3db	-0.013112034
130	0xbcbf67a2	-0.023364846
131	0xbc95e2f7	-0.018296702
132	0xbc46f6aa	-0.01214377
133	0x3c69f530	0.014279649
134	0xbcad1ec9	-0.021132844
135	0xbb30f7ef	-0.0027003249
136	0x3d359a40	0.044336557
137	0x3bb9e911	0.0056735356
138	0x3ca6d9e4	0.02036757
139	0x3c7f3e77	0.015578858
140	0x3b82c605	0.003990891
141	0xbc26b612	-0.010175245
142	0x3c2aef3d	0.010433015
143	0x3c5c6a0a	0.013453016
144	0x3d876093	0.06610217
145	0xbbe96b71	-0.0071234037
146	0xbcc1856b	-0.023623189
147	0xbc72d331	-0.01482086
148	0x3c3b7b91	0.011443035
149	0x3d375357	0.044757213
150	0xbd871b91	-0.06597055
151	0x3d28fd75	0.04125734
152	0x3b5e4fad	0.0033922002
153	0x3c601abb	0.013678248
154	0xbcf1032f	-0.029420463
155	0x3c307fbb	0.010772641
156	0x3c0d16af	0.008611365
157	0x3ccc1c08	0.02491571
158	0x3d011be4	0.03152074
159	0xbcc584a8	-0.024111107
160	0x3c62a47e	0.013833163
161	0x3bfb27aa	0.0076646404
162	0x3d6c18f2	0.057640977
163	0x3cd26baf	0.025686113
164	0x3d06ef63	0.03294314
165	0xbc94e8a3	-0.018177336
166	0xbbc4b3ef	-0.006002895
167	0xbca2c9a4	-0.01987154
168	0x3c09301b	0.008373286
169	0xbc47cf18	-0.012195371
170	0x3b960eee	0.0045794165
171	0xbc184b5b	-0.00929531
172	0xbc779ae2	-0.0151126105
173	0x3d03e386	0.032199405
174	0x3baef081	0.005338729
175	0x3d7a684e	0.06113463
176	0xbc5d0f36	-0.013492396
177	0x3d77420c	0.06036572
178	0x3b4b73cc	0.0031044362
179	0xbd0519e3	-0.03249539
180	0xbc990cd6	-0.018682878
181	0xbd52c964	-0.051461592
182	0xbce50ea2	-0.027961079
183	0x3d288531	0.041142646
184	0x3cffcd05	0.03122569
185	0xbbebc073	-0.0071945726
186	0xbcc2263c	-0.023699872
187	0xbce96ac9	-0.028493302
188	0x3d07528a	0.0330377
189	0x3d019637	0.031637397
190	0x3d39009f	0.045166608
191	0xbc6ef077	-0.0145836985
192	0x3d0313df	0.032001372
193	0xbaab3b3e	-0.001306392
194	0xbd32ea2e	-0.043680362
195	0x3d1789a1	0.036996488
196	0x3d29050d	0.041264582
197	0xbcdc5ac4	-0.02689875
198	0xbce523ef	-0.027971236
199	0x3c4c57f5	0.012472142
200	0x3d142ad1	0.036173645
201	0xbd3d0570	-0.046147764
202	0x3d159f05	0.036528606
203	0x3cbb2c6c	0.02284833
204	0xbc834fb9	-0.016029226
205	0xbc97a739	-0.018512355
206	0x3d020a98	0.031748384
207	0xbbeac5d9	-0.0071646986
208	0x3b3cfc62	0.0028836955
209	0xbd150ce6	-0.036389254
210	0x3d0b07e2	0.033943065
211	0x3cee187f	0.029064415
212	0x3c39851e	0.0113232415
213	0x3c6fc409	0.014634141
214	0x3cb25330	0.021768183
215	0x3d331161	0.043717746
216	0x3cd3d2b0	0.0258573
217	0xbbbe6f11	-0.00581158
218	0xbcf36453	-0.029710924
219	0xbca21ce3	-0.019789165
220	0xbcc7bd69	-0.02438231
221	0xba9e7b52	-0.0012091196
222	0x3ca52898	0.020160958
223	0xbc506d5d	-0.012721387
224	0xbc736f79	-0.01485812
225	0xbd4f47ed	-0.050605703
226	0xbcb4dec4	-0.02207888
227	0x3d5b70cd	0.053574372
228	0xbd2be86a	-0.041969694
229	0x3ad54de6	0.0016273826
230	0x3ca382d9	0.019959854
231	0xbd4613cb	-0.04835872
232	0xbc95e3a8	-0.018297032
233	0x3d148203	0.0362568
234	0x3cbe2c06	0.023214351
235	0x3b981d48	0.0046421625
236	0x3cf3d992	0.029766832
237	0x3ce3637b	0.027757397
238	0x3d1a5a5c	0.03768383
239	0xbb5da8d8	-0.0033822563
240	0x3d026424	0.031833783
241	0xbd58e5fd	-0.05295371
242	0x3ce08279	0.027405964
243	0x3d2cb4de	0.042164676
244	0x3d803e09	0.06261832
245	0x3cac6bbd	0.021047467
246	0x3d01f3d1	0.031726662
247	0x3ca2d64e	0.019877579
248	0x3c90b9af	0.017666666
249	0xbcbc2bc2	-0.022970084
250	0xbcf61ab2	-0.030042026
251	0x3d635d74	0.055509046
252	0xbcea99d9	-0.028637813
253	0x3c841605	0.016123781
254	0xbcc5dee8	-0.024154142
255	0xbb4113f2	-0.0029461351

layers.13.bias f4 [10]
0	0x3df24edb	0.11831447
1	0x3df41a31	0.11919058
2	0x3d982d2b	0.0743049
3	0xbdcdc4b5	-0.100472845
4	0xbc9be080	-0.019027948
5	0xb9992beb	-0.00029215156
6	0xbd211d8f	-0.03933483
7	0x3d1ccc0b	0.038280528
8	0xbc1b7bc9	-0.009489962
9	0xbde9502d	-0.113922454
