docs/mnist_convnet/mnist_convnet.safetensors (safetensors, 353816 bytes, 18 tensors)

layers.0.weight f4 [32, 1, 5, 5]
00000000: ec8f 54bd 7031 0bbe b7e4 b03d b1c8 473d
00000010: 2d5f ac3d 5143 eb3d d180 6b3d 3cea 9e3c
00000020: 048f e9bd a5aa ae3d 2c4c 1dbe a4d6 3a3e
00000030: 08ce 283e 79ea e33c 2a69 34be 9395 883d
00000040: 8f25 543d 3916 54be b1e8 a33d 00cb 633d
00000050: f101 1d3d 05e7 123d 6ea1 77bd 4d53 c0bc
00000060: 3bd2 f0bc 99d8 b33d d712 053e 8896 763e
00000070: 3e3d 1b3d 8819 09be 5631 683e 8bff 573d
00000080: 2e3d 9cbd e2c1 86bd 1411 56be 154e 033e
00000090: 8576 3fbe 9874 923d 698e f0bd 34d2 0b3e
000000a0: 53d0 1ebc 9274 803d 2d78 5d3d 5eed 00bd
000000b0: ede3 633e 8472 3a3e f520 be3b efa9 973d
000000c0: a340 a5bc bde3 2abe 632b 63be a434 b93d
000000d0: 507e 80be ec75 e6bd f365 893d e63e f8bd
000000e0: 3c91 4ebe 770f 8bbd 0102 d93d 65d2 cabd
000000f0: 35f8 b1bd 1738 d6bd cd00 49bd eadb 18bb
00000100: 666e 9abd 1a7d 713e 2bcf a13c 92c0 893e
00000110: b66f 853d 5a38 75bc 5233 043d fb6e 4c3e
00000120: a909 633d 17c6 99bd 0e6b 413e fadd f13d
00000130: 0118 f1bd f2c1 e7bc 4a60 adbd 5efb a7bc
00000140: dec9 bdbd 873a 963c f47a 403d 6fa3 79bc
00000150: ce10 0bbe 0828 c6bd 893d 7bbd 1517 fb3d
00000160: a12d 18be 007e 30be 3e72 b03d 3680 9dbd
00000170: 2c41 f63d 7ca0 0a3e 3a8a 0d3e 6e3e ecb9
00000180: 04fb cc3d 11dc 4bba d086 0fbe 997b 353d
00000190: 2f7c 76bc 4087 abbc 8aec a0bd 34bf 733c
000001a0: fef6 04be c1bf b53d 0e3f 8bbd 8f32 30bc
000001b0: a6d5 5abd 5b13 a2bc f330 ffbd 13c2 eebd
000001c0: 20e3 de3d 3701 483e 2c92 d7bd 82a6 cbbd
000001d0: 14a2 f9bd d3f3 53be 8752 443e 6b36 32be
000001e0: 73f6 17be 39dc 37be f5cb debd e8a6 5f3c
000001f0: e6f1 f73d aef7 8b3d 18a1 3d3d c380 ec3d
00000200: 54eb 3abd 2e39 f2bd 27db 253d 8223 24be
00000210: 976c 8b3d 26ad 3e3e a733 363e 42e5 4d3c
00000220: e5df 25bd 4400 7fbd 38d8 593e fbb8 953e
00000230: ba4e 973d cc6b 16bd 88a1 703d 61b1 60bd
00000240: 45e5 d2bd 9d0d 01bd 7612 afbd bd5c bdbd
00000250: da39 7abe f7b7 dabd 3fe4 6fbd 2c84 febd
00000260: 1f2a 6abd 5b2a 37be fb5c c5bd df4e 6dbb
00000270: 217f 14bd b771 993d 14fe 103c 6ca1 4e3e
00000280: 6325 aabd 0034 283d 9260 b2bd 4a2e 8b3d
00000290: a3fe e93d 5f4e e13d d984 fe3d 1b0d 5fbd
000002a0: 1d9e 823d 6f8f a0bd f4eb 2b3e 017d 133e
000002b0: 1153 9b3c 8200 22bd 5b3e c4bd c062 12be
000002c0: 7aa2 febd d1f7 d03d 1641 c6bc bf80 f13c
000002d0: 9fc2 29be 5de2 013e cab4 d93c 2118 62bd
000002e0: 8057 4cbe ab5f 8a3d 5fcf ae3c 49f9 933d
000002f0: c4a3 a3bd 9dd0 4f3e daa8 9ebd 6985 db3c
00000300: dcb0 a53d 814f c7bd 6243 0bbe 2e67 a2bc
00000310: be44 423d cbbd 15be c76c 043e 2a13 d83d
00000320: a466 f9bd a0b8 dd3d 14ff 22bd 489c 8c3e
00000330: 8738 1e3e 107b f33b b5b3 36bd 1746 213b
00000340: bd17 793c 9500 31be 7fd7 15be 1442 463d
00000350: 4db2 59be 23bb 6e3c b80f 363e f8ab 183e
00000360: f210 b4bd 7c0a edbd cf9d 7d3d 1d6c f3bb
00000370: 2be6 193e 3e4f b93d 8012 e4bd 9a42 46bc
00000380: b078 12be 18cf 913d 9114 363e ba9d c1ba
00000390: 7e42 1dbe 182f 9b3b fbd6 4b3d 4467 2abe
000003a0: 268d 5f3e de87 14be 2823 2fbe d45d e33d
000003b0: 267d 8f3d 5cba 0a3e 793b 08be 8f44 28be
000003c0: db55 643e c284 8a3e 0e88 f8bd f826 19be
000003d0: 30b0 4cbe 7943 473d a4ec e0bb 6c77 85bd
000003e0: 4c93 59bd 8e51 ed3d ac8a bebc 465f 0bbe
000003f0: 6539 a63d e1d0 d2bd 08d1 08be 1138 05bd
-0.051895067 -0.13593078 0.08637374 0.04877538 0.08416591 0.11487449 0.057495896 0.019398801
-0.11404231 0.085286416 -0.15361089 0.18245941 0.16484845 0.027821766 -0.17618242 0.06669154
0.05179363 -0.20711602 0.08003367 0.055613518 0.03833193 0.03586485 -0.060456686 -0.02347722
-0.02939712 0.08781547 0.12995468 0.2408086 0.037900202 -0.13388646 0.2267507 0.05273394
-0.076288566 -0.06579949 -0.20904952 0.12822755 -0.18697555 0.07151145 -0.117459126 0.13654405
-0.009693223 0.06272234 0.054069687 -0.03147637 0.22254916 0.18207747 0.0058022686 0.07405459
-0.020172423 -0.16688438 -0.2218452 0.090432435 -0.2509637 -0.112529606 0.067088984 -0.12121372
-0.2017259 -0.06790059 0.10596085 -0.09903411 -0.0868992 -0.10459917 -0.04907303 -0.0023324438
-0.07540588 0.23582879 0.019752106 0.26904732 0.06515448 -0.014967049 0.032275505 0.1996421
0.055429135 -0.07508486 0.18888494 0.11809917 -0.117721565 -0.028290723 -0.08465631 -0.020505603
-0.09267019 0.018338455 0.046992257 -0.0152367195 -0.13580629 -0.09675604 -0.06133798 0.12260262
-0.14861156 -0.17235565 0.0861554 -0.0769047 0.12024149 0.13537782 0.1382226 -0.00045059941
0.10008815 -0.0007776628 -0.1401627 0.044307325 -0.015044256 -0.020938516 -0.07857616 0.014877129
-0.12984845 0.08874465 -0.06799136 -0.010754242 -0.053426407 -0.01978462 -0.12460508 -0.116581105
0.108831644 0.19531713 -0.10525927 -0.09943868 -0.12189117 -0.2069848 0.19172107 -0.17403571
-0.14840107 -0.17955102 -0.108787455 0.013650633 0.12106685 0.068343505 0.04629621 0.11547997
-0.045634583 -0.118273124 0.040492203 -0.1602917 0.06807821 0.18620738 0.17793141 0.012566866
-0.040496726 -0.062256113 0.21273887 0.2924269 0.07388063 -0.036723897 0.0587478 -0.05485666
-0.10297636 -0.031507123 -0.08548443 -0.09246204 -0.24436131 -0.1067962 -0.05856728 -0.124275535
-0.057169076 -0.17887251 -0.09636875 -0.003621034 -0.036254052 0.074923925 0.008849639 0.20178765
-0.08307912 0.041065216 -0.087098256 0.06795938 0.11425521 0.11001276 0.124276824 -0.054455858
0.06377814 -0.07839858 0.16789228 0.14403154 0.018960508 -0.039551266 -0.09582206 -0.14295483
-0.12433334 0.10203517 -0.024200957 0.029480336 -0.16578148 0.12684007 0.026575465 -0.055198792
-0.19955254 0.067565285 0.021339117 0.07225282 -0.0799022 0.20294423 -0.0774705 0.026797013
0.08090374 -0.09731961 -0.13599923 -0.01982459 0.04742884 -0.14623182 0.1293212 0.1055053
-0.1217778 0.1082623 -0.039794043 0.27462983 0.15451251 0.0074304417 -0.044604976 0.0024608427
0.015203414 -0.17285378 -0.14632986 0.04840286 -0.21259423 0.014570984 0.17779434 0.14909351
-0.087922946 -0.11574265 0.061918076 -0.0074286596 0.15029208 0.090483174 -0.11136341 -0.01210084
-0.14303851 0.07119578 0.17781283 -0.0014771738 -0.15357396 0.0047358386 0.04976557 -0.16640955
0.21831188 -0.14504954 -0.17103255 0.11101881 0.07006292 0.13547653 -0.13303937 -0.16432403
0.22298376 0.2705441 -0.12135325 -0.14956272 -0.19989085 0.04864833 -0.0068641473 -0.065169185
-0.05311899 0.11587821 -0.023259483 -0.13610563 0.08116416 -0.10293747 -0.13360989 -0.032524172

layers.0.bias f4 [32]
00000000: 47a1 06be 6aa1 b83d 23b9 ff3d 0993 27be
00000010: cb0d fcbd 8ca6 bcbd 791d 52be e633 c13d
00000020: 6b43 f83d cf21 ed3c 178d b43d 1d5b 373e
00000030: 6031 4abe 17bb bcbd d91f 1a3e 34a1 113e
00000040: d07a 253d 46af b73d e1ae 0c3e e637 d53c
00000050: 190a 2ebe 9d8d fcbd 2db2 433e 2156 90bc
00000060: bb3c 843d 0c76 003e f31a 4c3e cb95 ba3d
00000070: c5c3 aebc bfba 1cbb 0a97 4cbe 1183 153e
-0.1314746 0.09015162 0.12486484 -0.16364683 -0.12307318 -0.09211454 -0.20519055 0.09433727
0.12122234 0.028946785 0.08815973 0.1790585 -0.19745398 -0.09215372 0.15051211 0.1422165
0.040400326 0.08968978 0.13738586 0.026027631 -0.1699604 -0.12331698 0.19110937 -0.017619194
0.06456896 0.12545031 0.19932155 0.09110602 -0.021333585 -0.002391502 -0.19979492 0.14600779

layers.2.weight f4 [32, 32, 5, 5]
00000000: b4e8 aabc c897 1b3d 2c3b 513b ea7b c2bc
00000010: 5b4e aabc 9a3a c0bc 9baa 873a 5ccf 30bc
00000020: 1cb8 c6bb 995b 1cbc 42d7 09bd 8314 5d3c
00000030: 2131 88bc 2364 23bb 8a39 a03c 6689 1fbd
00000040: fd71 77bc 1932 a9bc 3a14 f53c c82a 4b3c
00000050: 6783 e8bc d78a ff3a ea2f ba3c 3e48 f4bc
00000060: f030 d43b 38a9 30bc 32ab a93c 56aa cabc
00000070: ad8c 193d 8592 b1bc ecd7 023c 2a2b 3abd
00000080: e549 9b3c b5ae e9bc 039d 3dbc eb9d 2e3c
00000090: 29bb 1dbd 8199 b6bb 28bd 73bc b4e3 2c3c
000000a0: c40d f03c b5b0 e23c d355 01ba df4d 4dbc
000000b0: 88c3 0dbc 0fd1 f0bc cf1e afbc dc76 e1bc
000000c0: b0d0 15bd 5def a8bc c763 d8bc 4f06 a73b
000000d0: 3df5 63bc c272 5bbb 0186 a73c 666b edbc
000000e0: ef6d 8c3c 3734 20bd 4ad5 c2bc 0a51 003c
000000f0: 9707 81bb 07b6 e9bc 034e 60bd 554d 073c
00000100: 8764 17bb 3f8f 293c 87a1 933c 8653 813a
00000110: c15b 8cbc 1418 333c 8b2e f5bc 1342 8bbc
00000120: 9b51 233d b333 a03c 0fbe 193d ebcf babc
00000130: b582 b9bc 1885 063c 0166 883a ecca c83c
00000140: 5f12 bfbc 4e7d 333c 3aad a9bc 4c42 b73c
00000150: add4 903c 8260 1ebd 4bbb dd3c d9e0 f73c
00000160: ea22 183d b91d 753c dbbd bfbc df6a e3bc
00000170: 7fc9 3fbc 6142 08bd fdb9 1ebc c61c 4d3c
00000180: c61b ae3b 5b83 adbc a7b5 1bbc f351 62bb
00000190: 089f 06bd 7c94 ffba 2d99 e43c 2bf8 c13b
000001a0: 2d44 043d bcf3 8fbb 571e d03c ffdb bcbb
000001b0: 09fb 6e3c ff9b 8dbc bf87 693c 7b44 ee3c
000001c0: 9ebd 1e3d 7bba fb3c ce76 32bd e8f7 15ba
000001d0: 06c4 16bb bb02 143d 584e db3c 197b 9cbb
000001e0: 63c7 8c3c daf3 423d d556 3e3c a481 12bd
000001f0: eccf fabb b156 dc3b d7c6 9abc 3031 893a
00000200: 427c 993b 80b1 88bc 221d 00bc ac51 78bc
00000210: 1656 5b3c ed4e 54bc 466e 17bd 3f30 e8bc
00000220: ba9b ff3c 3193 d8bc 604c 9cbc fe9c ecbc
00000230: 474b 54bb 8f62 6fbc da47 9f3c c56f 8d3c
00000240: 164e de3c f76d e13b 859d b03c efa4 6b3c
00000250: e147 e8bc 5d2a 07bd a8e9 83bc 80e8 c23c
00000260: 2c44 c03c bb87 93bc a96e d23b 3fef adbc
00000270: c10b 903c ce25 0b3c 7495 523c b703 a2bc
00000280: 0794 713c dd7c 35bc 5bd7 ddbc a391 9a3b
00000290: da90 b63c a0e7 e4bc 7146 2c3c a1f4 3abd
000002a0: 8f21 a53c f7c5 0d3d 89ad 19bd 1d57 15bd
000002b0: 785c 583c 747a 75bc 0a21 d03c d3df 84bc
000002c0: b1c5 58bc 4376 f1bc 4896 d9bb 4102 fd3c
000002d0: c57c 993c 20a8 d7bc 2155 ffbc 2b72 4f3d
000002e0: 45ba 96bb 0e5b c1bc 567d 05bd 8acb bc3c
000002f0: af15 08bb 9d0f 133b 5e0d 123c 89be 9fbc
00000300: 47c3 1bbc fc21 093c b4b1 53bd ddca e7bb
00000310: 1ce6 cd3c 3b1c 5fbb ca7c 26bc 2122 603a
00000320: 8606 10bd cb99 f43c 8bbe e5bb 5aef 1fbc
00000330: c552 9a3c be96 edbc 1f6a e8bb 9f13 bebc
00000340: cf95 87bc 123f 09bc 45ed aabc 26c7 b33c
00000350: a5e7 70bc a2de a5ba e79c 7e3a ccca 7a3b
00000360: 414a 0d3d fd6b c63b 92a3 cdbc 11c7 a53c
00000370: 2e77 d33b e703 e5b9 b6c0 2cbd b628 983c
00000380: 4ced dbba 0f88 063d 6e38 663c 24ef 153c
00000390: 276f 50bb 8a38 6d3c 702e 8bbc 9474 253c
000003a0: be06 343d ca18 f83c d4d6 ecba f289 35bc
000003b0: 47de c5bc 9fa3 88bc f188 533c 6d8a ce3b
000003c0: 4284 5b3b 9072 03bc d83a d1bc 938d 1c3d
000003d0: 90c5 54bd e17b 5fbc 0859 cfba 806a 853c
000003e0: bad0 10bd 736a 34bd 6ff8 04bd 091d c13a
000003f0: 6102 c7bc bd29 40bc 095c 67bc 65a4 083d
-0.020862915 0.037986547 0.0031926138 -0.023740727 -0.020789316 -0.023465443 0.0010350527 -0.010791626
-0.006064428 -0.009543323 -0.03365255 0.01349366 -0.016624989 -0.0024931512 0.019558687 -0.038949393
-0.0151028605 -0.020653771 0.029916871 0.012400337 -0.02838297 0.0019496334 0.022727925 -0.029819604
0.0064755604 -0.010782532 0.020711515 -0.024739426 0.037487675 -0.021676311 0.00798605 -0.04545132
0.018956134 -0.02852569 -0.011573079 0.010657768 -0.038508568 -0.0055724983 -0.014876641 0.0105523355
0.029303439 0.027672151 -0.0004933748 -0.012530773 -0.008652575 -0.029396562 -0.021376995 -0.027522497
-0.036575973 -0.02062195 -0.026414765 0.0050971876 -0.01391345 -0.003348515 0.02044964 -0.028981876
0.017142264 -0.039112296 -0.023783345 0.007831821 -0.0039376724 -0.02852918 -0.054761898 0.0082581835
-0.002310069 0.010349094 0.018021358 0.0009866811 -0.017133595 0.010931034 -0.02992942 -0.01699928
0.039872747 0.019555902 0.03753477 -0.022804221 -0.022645334 0.008210443 0.0010406376 0.024510823
-0.02332419 0.010955168 -0.020712484 0.02237048 0.017679537 -0.038666256 0.027066847 0.030258583
0.03714267 0.0149607 -0.02340596 -0.027760921 -0.011705755 -0.03326643 -0.009687898 0.012519067
0.0053133694 -0.0211808 -0.0095037585 -0.0034533709 -0.032866508 -0.0019499208 0.027905071 0.0059194765
0.03229158 -0.004393069 0.025405092 -0.0057635303 0.014586219 -0.017286299 0.014253556 0.029085388
0.03875505 0.03072857 -0.043570332 -0.000572084 -0.0023005023 0.036135416 0.026770756 -0.0047754166
0.017184919 0.047595836 0.011617382 -0.035768166 -0.0076541808 0.0067242016 -0.018893642 0.001046693
0.004684002 -0.016686201 -0.007819446 -0.015156191 0.013387224 -0.0129582705 -0.0369704 -0.028343318
0.031202186 -0.026437374 -0.019079387 -0.028883453 -0.0032393502 -0.014610901 0.019443441 0.01726521
0.027136844 0.006879564 0.021559486 0.014382585 -0.028354587 -0.032999385 -0.016102627 0.023792505
0.023470007 -0.018009057 0.006421883 -0.021232245 0.01758373 0.0084929 0.012853015 -0.019777162
0.014744765 -0.011077133 -0.027080229 0.0047170683 0.022285867 -0.027942479 0.010514841 -0.045643453
0.020157604 0.034612622 -0.03751901 -0.03646003 0.01320564 -0.014982808 0.02540638 -0.016220009
-0.013230727 -0.029475337 -0.0066402294 0.030884864 0.018736253 -0.026325285 -0.031168522 0.05064599
-0.004599842 -0.023602989 -0.032590233 0.023046274 -0.0020764878 0.0022439726 0.00891432 -0.019500034
-0.009507007 0.008369919 -0.051683143 -0.0070737437 0.025134139 -0.0034043926 -0.010161588 0.00085500075
-0.03516247 0.02985849 -0.00701124 -0.009761656 0.018838296 -0.029002544 -0.0070927287 -0.023202715
-0.016550926 -0.008376854 -0.020865092 0.021945547 -0.014703666 -0.0012654851 0.00097127113 0.003826785
0.034494642 0.0060553537 -0.02510241 0.020236524 0.0064534163 -0.0004368119 -0.04217597 0.0185741
-0.0016779094 0.0328446 0.01405154 0.009151254 -0.0031804533 0.014478812 -0.016989917 0.010098595
0.043951742 0.030285258 -0.0018069395 -0.011080252 -0.024153842 -0.016679583 0.012911067 0.0063031227
0.003349558 -0.008022919 -0.025540754 0.038220953 -0.051946223 -0.013640375 -0.001581938 0.016286135
-0.035355307 -0.04404683 -0.032463487 0.0014733385 -0.024293127 -0.011728701 -0.014121064 0.033359904

layers.2.bias f4 [32]
00000000: 74c8 df3b 1272 613c 3c88 18bd 0d23 75bc
00000010: 9d3e 01be 171c c6bc 6bef 87ba 3e81 a9bd
00000020: 5fdc 503b a1f2 a23c 95ed ca3b 3831 b0bc
00000030: e0dd 70bc 423b cabd 3dc2 b9bc 09b3 b1bd
00000040: a747 1e3c 1a63 593c 583f 453b ac72 d3bc
00000050: de97 ef3b 1fb4 d0bc 2a86 b6bd 86ed 11bc
00000060: da61 f33c 340b 4bbd def9 d6bc e295 93bb
00000070: b186 93ba 6d8a 723c 93ca 343c 57cf 47bd
0.006829316 0.013760107 -0.0372393 -0.01496197 -0.12621541 -0.024183316 -0.0010371035 -0.08276604
0.0031869633 0.019891085 0.0061928728 -0.021507844 -0.014701337 -0.09874584 -0.022675628 -0.08676726
0.009660638 0.013268257 0.003009757 -0.025811516 0.007311805 -0.025476513 -0.089123085 -0.008906728
0.029709745 -0.04957123 -0.026242193 -0.0045039514 -0.0011255351 0.014803511 0.011034626 -0.04878172

layers.4.weight f4 [32]
00000000: efe8 803f 9a02 7d3f 8e2c 813f 8cdc 823f
00000010: a0a7 883f 91de 8b3f d646 863f e60a 873f
00000020: 7265 873f a48d 7f3f baae 813f dd94 873f
00000030: cff9 7e3f cb55 883f 26d6 813f 11d2 893f
00000040: 28ff 793f e0d5 803f 1b4f 813f 78bf 833f
00000050: e3ec 803f d000 763f e977 8c3f 3699 763f
00000060: d50b 853f b450 803f 289f 843f 2df3 853f
00000070: c5aa 763f 85c7 793f 6a8f 773f 4b09 853f
1.0071086 0.98832095 1.0091722 1.0223556 1.0676155 1.0927297 1.0490367 1.0550201
1.0577834 0.998255 1.0131447 1.0592304 0.9959993 1.0651182 1.0143478 1.0767232
0.9765496 1.006527 1.0102266 1.0292807 1.0072292 0.9609499 1.0974094 0.9632753
1.0394236 1.0024629 1.0361071 1.0464836 0.96354324 0.9757007 0.9670321 1.0393461

layers.4.bias f4 [32]
00000000: a492 da3c 0594 18bd 4962 26bd 445a 92bd
00000010: d6be 9ebc 663b ed3c 7b14 0c3d dc78 3bbd
00000020: 3319 1e3d c21d d13c 3238 a2bc 4e6c 00bc
00000030: 6a5a 4fbd ac15 1abd 56f4 65bd 3c04 423d
00000040: 3ec5 2b3d 8652 203d 8bd2 45bb 9e50 25bd
00000050: 406e 273d 37fa 8b3d 68e6 6c3c 5af4 ccbc
00000060: 3aca 67bc 8388 09bd ccad e4bc aed4 b23d
00000070: dd6a 2dbd e7f3 9b3c 9528 46bd d2f6 74bc
0.026681252 -0.037250537 -0.040621076 -0.07146123 -0.019378107 0.028958987 0.03419922 -0.045769557
0.03859825 0.025526885 -0.019802187 -0.007838322 -0.050623335 -0.037618324 -0.05614122 0.04736732
0.04193615 0.0391412 -0.0030185308 -0.040360086 0.040876627 0.06834834 0.01445923 -0.02501886
-0.014147336 -0.033577453 -0.027914904 0.08731972 -0.04233824 0.0190372 -0.048378546 -0.014951425

layers.4.running_mean f4 [32]
00000000: a9b9 773e 0cbc 12bc 5ecd e3bb 22bf bfbd
00000010: a177 dfbd 507a 92bb 319e b53d 3452 a5bd
00000020: 1a3d 13be de9d 0b3e c27a ea3d 4d25 d2bd
00000030: dc76 0d3f 7e89 1bbe ac98 e4bd 0412 16bd
00000040: 22fd aa3d 3f5f 1fbd ddef 4cbc b3b8 c93d
00000050: 40a2 c6bc f03c 0b3e a4aa 99bd db66 753e
00000060: cff0 69bd a4c0 303e 7737 94bd 904f 2b3d
00000070: 54a5 453d 93b9 b3bd 2f45 013e 1285 ea3c
0.24191917 -0.008955967 -0.006951972 -0.093626276 -0.10911489 -0.004470147 0.08868063 -0.080723196
-0.14378777 0.1363444 0.114491954 -0.10261021 0.5525949 -0.15189168 -0.11161932 -0.036638275
0.083490625 -0.038909193 -0.01250836 0.09849682 -0.024247289 0.13597465 -0.0750325 0.23965017
-0.05711442 0.17260987 -0.072371416 0.041823924 0.048253372 -0.0877563 0.12624048 0.028627906

layers.4.running_var f4 [32]
00000000: 1172 363e 4558 223e 4686 0d3e b72d 0d3e
00000010: 358a 043e 1f4f 033e 0b46 113e 87db 003e
00000020: 3610 083e 173c 1c3e 797f 263e 3aee 023e
00000030: 0254 a13e c4f5 fe3d 6461 073e 01ed 013e
00000040: 9f67 153e 0352 053e 1a70 063e 41a9 1c3e
00000050: 4188 133e a497 0e3e 4420 033e bcd8 383e
00000060: e8fd 183e ef92 1d3e 8142 023e 9e42 0c3e
00000070: 6a03 073e fe87 0a3e 5377 0e3e ffc4 1c3e
0.1781695 0.15853985 0.13820753 0.1378697 0.12943347 0.12823151 0.14186876 0.12583743
0.13287434 0.15257297 0.16259564 0.12786189 0.31509405 0.1244922 0.13220745 0.12688066
0.1459031 0.13019566 0.13128701 0.1529894 0.14407445 0.13925034 0.12805277 0.18051428
0.14940608 0.15388082 0.12720682 0.13697287 0.13184896 0.1352844 0.13912706 0.15309523

layers.6.weight f4 [64, 32, 3, 3]
00000000: df2c 293d e113 7bbc ae9b 16bd e7bb 063d
00000010: c559 813c 1df5 913c b5f4 183d 0117 a33a
00000020: 19f9 42bb c6c6 1d3c 2e8c 3dbd 1ff9 d63c
00000030: bb6c 49bd 472d a5bc 16c3 483d 8a01 003d
00000040: 39a9 17bd c7fb 923b ff97 7cbc 51b3 0c3d
00000050: 1314 e5bb db18 6cbc 48eb 3c3d fd5f 633d
00000060: a6fa 8c3d 0090 593d 35cd 7d3c 2964 29bc
00000070: 7e3d 843d 9ae2 053d f2b4 88bd c05f 5ebd
00000080: 1b32 d53c 2315 a0bc 1b9c 0e3d 152e 34bb
00000090: 545b 60bc 12ad 223c c63f 60bc bcde 833d
000000a0: 5717 9c3c 77bd da3c f02b 20bd 75ac 03bd
000000b0: 9057 a13b ca54 49bd dddc d7bc 2593 36bc
000000c0: 536f 543c d8bf 0cbd 69c0 163d 4405 abbb
000000d0: f695 f6bc 6825 ddbc b7b4 293d 64b6 413c
000000e0: 91b8 15bc 55a1 1d3d 61d9 3bbc 6892 52bd
000000f0: 3a6b 08bd f10a e03c e08d 1b3d 9679 6f3c
00000100: 31b6 293d 32c8 c63c 7ce8 1e3c 8768 a7bc
00000110: b2be cfbb cfa4 a8bb e220 013c ca30 193c
00000120: 4a6f 53bc 681f e33c 08f0 a83c c530 3dbd
00000130: a5d5 42bd b9a1 8ebb 268c b8bc 7548 003d
00000140: 6073 6ebd 6fbf 223d af4d 373b 3062 9ebc
00000150: 0cf5 99bc b012 55bd 34d0 fa3c 96e2 353d
00000160: c1c1 3e3d d229 2cbd 3b68 e9bb e862 d43c
00000170: fe8a aebc 56af c83c 9ce2 63bd 8619 e83b
00000180: 5687 2ebc a296 09bd 2431 56bd 8f16 a6bd
00000190: 2501 23bd 4653 58bd f753 babc 8e4c 1abc
000001a0: 8cad e83c 5c2a 2a3d 8f7e 923c ca12 2abb
000001b0: c78a bdbc 508f 18bd ed9a 083d 10af 08bd
000001c0: 7836 31bb ab0c 2cbd 56af 9d3d 1979 4cbd
000001d0: 2787 4fbd b4e5 2fbd 9ba9 a33b c686 593c
000001e0: b316 773c 6885 c13b 98e9 893c 1dff 963c
000001f0: 3d6b 78bd 7282 78bd 8294 763d 923a f43b
00000200: 6385 1e3d 1eba 533b 6911 083d 71b0 dfbc
00000210: 3c14 8dbc 3626 263d adcb 0c3c 6f40 173d
00000220: 9656 e1bc 491b db3b dea0 66bd 1f12 4d3b
00000230: 8c97 ff3c 0423 06bd 0378 48bd 08e8 fbbc
00000240: 4fe6 59bc 85d4 b5bc a1d0 85bc c106 6d3c
00000250: 083a 733c 1e96 633a 67b1 1bbb 3b40 8e3b
00000260: 518c ccbc c02a 633c 4b53 653d ece7 153c
00000270: 59f3 13bc af54 843a 087c 9bbc 3387 10bd
00000280: a544 72bd 0370 51bb 3b1b 283d 1def 003d
00000290: 1cde aabc 9bd8 263c 7df0 3d3c d69c 44bb
000002a0: 4b66 febc d45a 183d 1482 1f3b 3011 b33c
000002b0: 06bd dfbc fd36 333c b32c a53c e82e 273d
000002c0: 0d9d 1f3d a27a b2bc 9761 05bd d510 10bc
000002d0: 8515 2f3d 2272 15bd 8ac2 70bd 6b77 2b3d
000002e0: e0b6 fbbc 376c 123d 5ead 6fbc ab68 a0bd
000002f0: 5a5b 7fbc c515 1fbd d28d b03c a9d1 0a3d
00000300: f45f 6fbc 16c0 55bd c0f8 b53b 727e a4bc
00000310: 08ec aebc 6cea ad3c 54f5 973c 16f8 1d3d
00000320: fc11 99bc bb37 12bd cb16 27bc 8853 783d
00000330: 9a90 dcbc 3a8d 183d e4ff 46bd aa41 733c
00000340: 7c8e 9a3d 3f21 00bc a7fa 8b3c 9886 ad3c
00000350: 555e 63bc b9aa bdba c807 fe3b cce0 1939
00000360: 30bd 753d 0457 60bd dede 1dbd 55af 3b3d
00000370: e4ca 4abd 099d 653c 4085 ad3c 1790 78bd
00000380: bf12 54bd 9931 843d 173a 813d 6e2f 66bc
00000390: 4ccd 85bc ab29 0f3d 466f 893c 11d8 153d
000003a0: e463 75bc 4e0a 8ebd 303c 69bc a8c2 ec3b
000003b0: b75c b1bd a7c7 193d 44a8 f7bc f0a2 0ebd
000003c0: 5288 573d 7ed1 bcbc 7cde 21bd d480 1c3d
000003d0: 57ba 063d b6e8 ba3c 52de 24bd 3685 33bd
000003e0: a165 d3bc b07b 613b 6faf 08bd 156e d9bc
000003f0: 15cc 04bd c46f 38bd 6a17 043d 98a2 32bd
0.041302558 -0.015324564 -0.03676956 0.03289404 0.015789876 0.017817074 0.037342746 0.0012442769
-0.0029750525 0.009629911 -0.046276264 0.026241837 -0.04917596 -0.020163191 0.049014173 0.031251468
-0.037026618 0.0044855806 -0.015417098 0.034350697 -0.0069909184 -0.014410223 0.04612282 0.055511463
0.06883745 0.053115845 0.01549082 -0.010338821 0.06457041 0.032686807 -0.066751376 -0.054290533
0.026024869 -0.019541329 0.034816843 -0.0027493287 -0.013693649 0.0099289585 -0.01368708 0.064389676
0.019054098 0.026701672 -0.039104402 -0.03214689 0.0049237683 -0.049153127 -0.026350433 -0.01114348
0.012965995 -0.034362644 0.03680459 -0.0052191336 -0.030100804 -0.026995376 0.04143211 0.0118232705
-0.009138242 0.038483936 -0.011465401 -0.051409155 -0.033305384 0.027348967 0.0379771 0.014616391
0.041433517 0.024265382 0.009698983 -0.020435585 -0.0063398713 -0.0051466 0.007881375 0.009350011
-0.012904951 0.027724937 0.020622268 -0.04618909 -0.04756703 -0.004352775 -0.022527765 0.0313191
-0.0582155 0.039733347 0.0027969887 -0.019333929 -0.018793605 -0.052019775 0.030616857 0.044405542
0.046571497 -0.04203207 -0.007123021 0.025926068 -0.021306511 0.02449767 -0.055636033 0.0070831208
-0.010652384 -0.03359092 -0.052292958 -0.081097715 -0.039796013 -0.05281379 -0.022745116 -0.009417666
0.028403066 0.041544303 0.017882613 -0.002595114 -0.023137463 -0.03724605 0.033350874 -0.033370078
-0.0027040523 -0.04200427 0.07699458 -0.049920175 -0.050666 -0.04294367 0.004994584 0.013276761
0.0150810955 0.005905796 0.016835019 0.018432194 -0.060649145 -0.060671277 0.06020022 0.007453271
0.038701426 0.003230698 0.03321973 -0.027305814 -0.017221563 0.040563785 0.008593482 0.036926683
-0.027507108 0.0066866023 -0.05630576 0.0031291319 0.031200193 -0.032748237 -0.048942577 -0.03075029
-0.013299539 -0.022196064 -0.016334834 0.014466942 0.014845379 0.0008681732 -0.0023756863 0.004341153
-0.024969252 0.013865173 0.055987637 0.009149533 -0.009030187 0.0010096038 -0.018980041 -0.035285186
-0.059147496 -0.0031957633 0.041041594 0.031478036 -0.020857863 0.010183479 0.011592981 -0.0030000708
-0.031054636 0.037195995 0.0024339007 0.021858782 -0.027311813 0.010938403 0.020162916 0.040816218
0.038968135 -0.021786992 -0.032563772 -0.008793076 0.042745132 -0.0364858 -0.058779277 0.041861933
-0.03072685 0.035747733 -0.014628736 -0.07832464 -0.015585745 -0.03883912 0.021552 0.033891354
-0.014610279 -0.05218514 0.005553335 -0.020079825 -0.021352783 0.021229945 0.018549599 0.03856667
-0.018685333 -0.03569768 -0.010198305 0.060626537 -0.02692442 0.03724406 -0.04858388 0.0148471985
0.07546708 -0.0078204265 0.017087294 0.021182343 -0.013877471 -0.0014470435 0.0077523924 0.0001467496
0.059994876 -0.054770485 -0.03854262 0.045821507 -0.049509898 0.014014491 0.021181703 -0.06068429
-0.05177569 0.064547725 0.06309908 -0.014049394 -0.016333245 0.034951847 0.016776692 0.03658301
-0.014977429 -0.06935559 -0.014235541 0.0072253533 -0.08660262 0.03754392 -0.030231602 -0.034823358
0.05262024 -0.023049112 -0.03951882 0.038208798 0.03289255 0.022816043 -0.040251084 -0.04382821
-0.025805296 0.0034406 -0.03337043 -0.026541749 -0.03242119 -0.045028463 0.032248892 -0.043612093

layers.6.bias f4 [64]
00000000: 9841 033d 1de3 52bd 50c4 af3c 233a 92bc
00000010: d1c3 7abd de6a 1b3d f74e a23d af9b b2bc
00000020: 1b3b 573c ae47 e03c b0a9 12bd bb42 3c3c
00000030: ee8a 9bbc 4f51 4abd d9ea b0bc 5886 51bd
00000040: 9a7b a4bc f62a 803c 2813 31bd b950 29bd
00000050: 7a8e 94bc 7624 debb 7385 5c3d 79f3 67bd
00000060: bf3c b33d 6f74 243d d65c 5b3c d73b 893b
00000070: b30a 59bd fbfa a73c aa30 1abd 4df2 8abd
00000080: ec70 8d3d 7a7c 45bb 243b d1bc 675e 363d
00000090: 28b8 2e3d c75e da3c 10ca 9cbc b611 a53d
000000a0: 0dc8 07bd 9376 943d 5bfe b5bd aec0 9a3d
000000b0: 7f48 be3d c648 4fba f397 943d a7a5 043c
000000c0: 0e58 ef3c ed38 533c 39cf e2bc f5a2 1f3d
000000d0: dd86 0a3d 0882 393d e9c9 ca3c 7a94 49ba
000000e0: a738 56bd 702d 5d3c 6054 983d 0ae8 b7bc
000000f0: 1fe5 8e3c bec1 b33d a1a7 ccbc ec5c b93c
0.032044977 -0.051486123 0.021455914 -0.017849987 -0.0612219 0.037943713 0.079252176 -0.021802751
0.01313665 0.02737793 -0.035806358 0.011490519 -0.018987145 -0.04939395 -0.02159636 -0.05115351
-0.020078469 0.015645485 -0.04323116 -0.04133675 -0.018134344 -0.006779249 0.053838205 -0.056628678
0.08751821 0.040150102 0.013388833 0.0041880417 -0.05298872 0.020505419 -0.037644066 -0.067844965
0.06906304 -0.0030134008 -0.025540896 0.044523623 0.042656094 0.026656521 -0.01913932 0.08060019
-0.033149768 0.07249179 -0.08886405 0.07556282 0.09291171 -0.00079072674 0.072555445 0.008096135
0.029216792 0.01289199 -0.027686702 0.038973767 0.033820022 0.045290023 0.024754481 -0.0007689666
-0.05230012 0.013499603 0.07437968 -0.022449512 0.017443238 0.08777188 -0.024982275 0.022627316

layers.8.weight f4 [64, 64, 3, 3]
00000000: adca abbc f79c 593b 788f 0a3d 360b a53c
00000010: 6c97 c73b 6592 93bb 43c9 4b3b 664a a0bc
00000020: b373 86bc d6b6 85bc 785e 313d 3a18 f2bb
00000030: d509 423b 8b5c 15bc 5745 c1bc e101 2fbd
00000040: 5cd3 85bd 942a ce3c 4d02 d83b 184a 0ebd
00000050: 3307 07bc 1a27 3cbd 7c4b a23c 0494 323c
00000060: 1d4e ca3c d7ea 7fbc d2ec f03c 7e5b 35bb
00000070: c160 e83c 895b 3bbc 5095 efbc 80a0 9d3c
00000080: 2ff9 66ba ef02 95bc e33a fa3c f420 cf3c
00000090: fecb 14bd bc5c 6bbc 5252 353d cf0a 7a3d
000000a0: 464e 1b3d 5a9c 25bd 986f 87bc d56e 793d
000000b0: 443a 27bc 181e f3bc 98e3 84bc 52d1 e93c
000000c0: 3574 8e3c 01bc 7f3c e3cf 593b 1156 ab3c
000000d0: db49 5a3c 5915 a93c 8a68 45bd 6bd7 ebbc
000000e0: 51fd b43b de5e 46bd 07e9 54bd 9911 29bd
000000f0: 173e 763b 14cd 0abd d69f 683b c26b 0c3a
00000100: 7ee0 a73c edb5 f53c cdc5 5b3a 9168 d83c
00000110: 88f7 bc3b 9181 ca3a 6d68 d73c 25dc 4c3c
00000120: c330 89bc 88d4 0d3d 84d9 39bc 291a fbbc
00000130: ccab b3bc 1fb3 2fbd 7b6f 8c3a 72b9 19bc
00000140: e188 0fbd 0f70 853b 375d eabc e24f 48bc
00000150: 49b2 f33b cd8b 1ebd 4bb8 47bd 7dca 2aba
00000160: 1358 0e3c ca5e 63bd a82e 02bd efef bf3b
00000170: e6d5 78bd 9493 59bd c19a 55bd 7d2b 43bb
00000180: 3689 06bd d530 96bb 2a3e 0bbb bec7 c3bc
00000190: 7d6c bfbc b7ea 033d 5f6c 0b3d 0f89 12bc
000001a0: 2a42 cfbc 03a0 ff3c 5df2 02bc 5bc0 153d
000001b0: b924 40bd b990 f53c a30d e53c e1c8 54bc
000001c0: 9758 9dbc 3e15 803c 1a56 f6bc c0f8 acbc
000001d0: 64ae b8bc a7ce b4bc 58ca 083d b207 743c
000001e0: c4e1 8d3c d7a1 913c 4b99 0ebd 3ec8 b7ba
000001f0: a29b c6bc 8f6a 203d d5e1 01bd dbe3 4a3b
00000200: daea ff3c 3e21 c0bc 78dd d53c d39e 343d
00000210: 51ac 253d 6b55 9f3c 762d 77bc 3144 28bd
00000220: f8ee 10bd 45d0 d5bc 4ae0 e03b e29c 843c
00000230: 6880 fabb 7c9d e8bb adb1 42bd 6f9b af3c
00000240: 032e 3939 23e5 3f3b f34d 7dbb 7052 12bc
00000250: f5d7 083c 520b dd3c 8f84 4bbb 7393 9f3c
00000260: bb1a 07bd b536 923c b7af c13b 1a64 ffbc
00000270: d8cc c3bc 7bc3 92bc 5128 cbbc a773 dd3c
00000280: 4740 4dbc 71ed c8b9 e998 b2bc 179f 0cbc
00000290: a53e 303c 8b6b 1fbd d4c3 f2bc 2882 4e3b
000002a0: e8af 1f3d 62b0 24bd c7c7 b33c cb28 0f3d
000002b0: b311 8a3c a523 34bc d4a2 05bc b7c3 383b
000002c0: e7de 24bd da27 f7bb 9bce 183d 23d8 6ebc
000002d0: e5ee 1dbc 3b96 163d cce7 253d cf23 743b
000002e0: f1b2 55bc bcf6 f9bc 0127 e4bc fab5 0dbb
000002f0: e510 3abb 26d8 e6bc 716b aebc 1828 dcbb
00000300: 79e4 2f3c ba7b 853c 7dcb 7cbc 2a85 dd3c
00000310: f519 44bd 6a0a 953c 631d 48bb ab94 063c
00000320: b735 ea3c 709e 9d3b c0cc 0b3c 242e 543b
00000330: 91da ad3c 913d 4fbc 23ad 1ebb 7ad6 04bd
00000340: 7027 35bd 08fe cebc d430 c0bc d0f7 a03b
00000350: caec 86bb 2048 07bd ec3b 26bd 5455 2f3c
00000360: 6563 ac3a 75ed 1bbc acf5 0e3c dea6 50bc
00000370: 33b0 0ebd d762 c7bc 6f5d a9bc fbd5 6a3c
00000380: 8a60 2bbc d715 163c 92d4 afbc 405a 1abc
00000390: 158a 12bd c1f4 85bc ebde 2cbd 035d 0c3d
000003a0: 6209 083d 6ce0 d2bc 205c b23c e51c a63c
000003b0: cd13 fe3c c257 93bc 646c abbc 933d e33a
000003c0: c6ca 863c 57d2 eb3c 99bb 133d f2d2 f13c
000003d0: cf83 a4bc 410e df3c 75be d33c 1d2f 04bd
000003e0: 5c75 6fbc e18e 1a3d 3393 a73b 55ac b73c
000003f0: b026 843c 0f40 a1bc db83 583c 9eb1 99bc
-0.020970667 0.003320513 0.03382823 0.020146947 0.006091049 -0.0045035356 0.0031095303 -0.019566726
-0.016412592 -0.016322535 0.043302983 -0.007388142 0.002960791 -0.009116302 -0.023592634 -0.0427264
-0.06534454 0.025166787 0.006592071 -0.03473863 -0.0082414625 -0.045935728 0.019811384 0.0108995475
0.02469545 -0.015619955 0.0294098 -0.0027672942 0.028366448 -0.011435398 -0.029246002 0.019241571
-0.0008810935 -0.018189875 0.030545658 0.025284268 -0.036327355 -0.014365371 0.04426796 0.061045464
0.037916444 -0.04043231 -0.016532704 0.060896713 -0.010206763 -0.029677436 -0.016221806 0.028542195
0.017389396 0.0156087885 0.0033235482 0.020915063 0.013323273 0.020640062 -0.0481954 -0.028789243
0.0055233617 -0.048430316 -0.051980045 -0.041276548 0.003757363 -0.033886984 0.003549566 0.00053566333
0.020492788 0.029993976 0.00083836616 0.026417049 0.0057668127 0.0015449991 0.026294911 0.012503658
-0.016746884 0.034626514 -0.011343364 -0.030652123 -0.021932505 -0.042895433 0.0010714376 -0.0093825925
-0.035042647 0.0040721963 -0.028608901 -0.012226077 0.0074370247 -0.038707543 -0.04875974 -0.00065151585
0.008687991 -0.05551032 -0.031782776 0.0058574597 -0.060750864 -0.053119257 -0.052149538 -0.002978056
-0.0328457 -0.004583458 -0.002124677 -0.023898955 -0.02336716 0.032206263 0.034038898 -0.00894381
-0.025300104 0.03120423 -0.007992354 0.036560398 -0.04691002 0.029976236 0.027960604 -0.012987346
-0.019207282 0.015635129 -0.030070353 -0.021114707 -0.022544093 -0.022071196 0.033396095 0.014894413
0.017319568 0.017777367 -0.03481416 -0.0014021469 -0.024244133 0.039164122 -0.03170951 0.0030958566
0.031239916 -0.023453351 0.026106581 0.04409678 0.040447537 0.01944991 -0.015086522 -0.041080657
-0.03538415 -0.026100287 0.006862675 0.016188089 -0.0076447017 -0.0070988517 -0.047532726 0.021436421
0.00017660116 0.0029280863 -0.0038651198 -0.008930787 0.008352269 0.026982937 -0.0031054353 0.019479489
-0.032984477 0.017848352 0.0059108394 -0.031175662 -0.023901388 -0.017915478 -0.024799498 0.027032686
-0.012527532 -0.0003832388 -0.021801429 -0.008582852 0.010757123 -0.03892092 -0.029634394 0.0031510685
0.038986117 -0.040207274 0.021945847 0.034951013 0.016854143 -0.010994826 -0.008156497 0.0028192827
-0.04025164 -0.0075425925 0.03730641 -0.014577898 -0.009639476 0.036764365 0.04050426 0.003725279
-0.013043151 -0.03051316 -0.02785063 -0.002162336 -0.0028391418 -0.02817924 -0.021291466 -0.0067186467
0.0107356245 0.016294349 -0.015429375 0.027041037 -0.047876317 0.018193442 -0.0030535094 0.008214156
0.028590066 0.004810147 0.008532703 0.0032376135 0.021222385 -0.012648956 -0.0024212084 -0.032431103
-0.044227064 -0.025267616 -0.023460783 0.004912354 -0.004117583 -0.033027768 -0.04058449 0.010701496
0.001315218 -0.009517063 0.008725565 -0.012735097 -0.034836005 -0.024339123 -0.020674435 0.0143332435
-0.010460028 0.00916048 -0.021463666 -0.009420931 -0.035776217 -0.01635206 -0.04220478 0.03426839
0.033212073 -0.025741778 0.021772444 0.02027745 0.031015301 -0.017986182 -0.020925708 0.0017337076
0.016454112 0.028786821 0.03606758 0.029519532 -0.020082382 0.027228476 0.025847653 -0.032271493
-0.014615383 0.037733916 0.005113983 0.022421042 0.016131729 -0.019683866 0.013215031 -0.018761452

layers.8.bias f4 [64]
00000000: 765a 0fbd 1c73 243d 9213 da3c 3277 55bd
00000010: f856 51bd 45ce 1f3a 88ab 26bd f994 d03c
00000020: 5e4d 5cbd 697b 65bd 99b5 b6bc 0e2b 96bd
00000030: aeee 3bbd da81 17bd 9c3b d9bc dd1a 243d
00000040: a18f 07be 9a28 35bd 7de1 4fbd 8eee ddbb
00000050: 9a50 bf3b 4859 78bd c8e7 52bd 5eeb 3b3b
00000060: 99bc 603c bfb3 02bd 5fd8 92bc 2278 333b
00000070: faa3 70bd d3fd 443c e75b 193d 9e25 9cba
00000080: c9f6 97bc 2053 0e39 953c 633c 402e bdbc
00000090: 3a17 3bbd c7ee 53bd c28a c9bc 5042 47bc
000000a0: e127 2ebd 0e05 45bd b66e 01bd 00cb a6ba
000000b0: 56f1 2bbd 5765 423d 581d 1cbc b15a 953c
000000c0: d380 863c d223 19bc ef97 99bd afc4 32bd
000000d0: 38ab a7bd ebac 3f3c 3c4d 2fbd 9507 71bd
000000e0: 9111 d5bc 0370 03bd b292 91bd fe5f 57bd
000000f0: e1e6 04bc c36c bdbc 293f 0fbd b59a 10bd
-0.03499838 0.04014884 0.02662066 -0.052115627 -0.05110833 0.0006096105 -0.04069093 0.02546166
-0.05378472 -0.056025896 -0.02230339 -0.07332431 -0.04588192 -0.03698907 -0.026517682 0.04006468
-0.13238384 -0.044228174 -0.05075215 -0.0067728227 0.005838466 -0.06063202 -0.051490575 0.0028674225
0.01371684 -0.0319097 -0.01792544 0.0027384837 -0.05875013 0.012023407 0.03744116 -0.0011913066
-0.018550294 0.00013573142 0.013869424 -0.023093343 -0.045676447 -0.051741388 -0.024602298 -0.012161806
-0.0425185 -0.048100524 -0.031599723 -0.0012725294 -0.041978203 0.047459926 -0.0095284805 0.018231722
0.01641885 -0.009346919 -0.07499682 -0.043644603 -0.08186954 0.011698942 -0.042798266 -0.05884512
-0.026009353 -0.032089245 -0.07108058 -0.05258178 -0.008111686 -0.02312315 -0.034972344 -0.03530379

layers.10.weight f4 [64]
00000000: bb86 803f 1308 7f3f d506 803f 50d8 813f
00000010: 3a0d 823f 37a2 813f 41ac 823f 2ab8 7f3f
00000020: 9b3d 823f c7b2 813f d8e8 833f 5eb9 843f
00000030: b0da 833f 4267 883f c20a 823f 9f5a 803f
00000040: 1f36 883f 7728 863f 286f 813f 23bf 833f
00000050: b343 833f 5ce5 833f de8b 833f eb0f 823f
00000060: cf7c 813f 84ad 833f 9ab4 843f 1cc3 863f
00000070: 7ca2 843f a142 823f 1820 813f b231 843f
00000080: e0ae 833f 97ce 7e3f ac54 823f e1de 813f
00000090: b9b8 853f 70c2 813f e328 853f ffac 843f
000000a0: 5617 823f b737 833f 4f18 863f 63cc 853f
000000b0: 64cb 853f bbc4 7d3f 4e62 723f d790 823f
000000c0: 235c 803f 760a 833f 7bff 863f a71b 813f
000000d0: d7f3 823f 202f 813f fbcc 803f 4748 843f
000000e0: cf38 853f 3e13 833f d54f 833f 7ebf 813f
000000f0: c798 803f 03a7 823f b2f9 843f 29d8 803f
1.0041116 0.99621695 1.0002085 1.0144138 1.0160286 1.0127629 1.0208818 0.9989039
1.017505 1.0132684 1.0305433 1.036907 1.0301113 1.0656512 1.0159533 1.0027655
1.0641516 1.0481099 1.0112047 1.0292705 1.0255035 1.030437 1.0277059 1.0161108
1.0116214 1.0287328 1.0367615 1.0528293 1.0362086 1.0176584 1.0087919 1.0327666
1.0287743 0.9953398 1.018209 1.0146142 1.0446998 1.0137463 1.0403103 1.0365294
1.0163372 1.0251378 1.0476168 1.0452999 1.0452695 0.9912831 0.9468125 1.0200452
1.0028118 1.0237567 1.0546716 1.0086564 1.0230664 1.0092506 1.0062555 1.0334557
1.0407962 1.0240247 1.0258738 1.0136564 1.0046624 1.0207218 1.0388701 1.0065967

layers.10.bias f4 [64]
00000000: 21fa 073c d7b2 44bd b199 c5bc 0cc8 48bd
00000010: 217e 0cbd d8ad 883b ed5d 92bc a709 38bc
00000020: 962e d3bc d3a8 44bb 005d 9abb 871e 92bc
00000030: b361 f2bb 8160 abbc d43c 2c3c d2fc f1bc
00000040: 2b90 a33c 189d 09bd b112 28bc 61a1 52bc
00000050: 46f4 97bc 3b89 2abc 7397 f4bc c4d3 8c3c
00000060: 92ad f0bc 82ac ecbc 7e38 acbc 1f4f 48bc
00000070: ee49 63bc e2a1 14bd 3ce0 d4bc f2eb 94bc
00000080: 0d19 f5b9 010b 19bd dc1b e43b 8237 a83b
00000090: 0e22 01bd 8025 39bd 2c96 1bbd 451b 91bc
000000a0: 740b 54bc 2786 0bbd 1082 d1bb eba2 a4bb
000000b0: d035 173b 6d05 2fbd cd8a 9dbc 8e8f 35bc
000000c0: 2a8a 17bc 2541 ddbc 8c73 53bd 8cd6 babc
000000d0: 22ac 8bbc a3b4 b9bc fc17 c8bb 71d8 bebc
000000e0: a17f ab3a 1898 50bc a813 f2bc dcc6 85bc
000000f0: 9831 c5bc c21e afbc 02b8 3bbd 226d e5bc
0.0082993815 -0.048022117 -0.024121137 -0.049018905 -0.034299973 0.0041711144 -0.017867053 -0.01123277
-0.02577905 -0.0030007854 -0.0047107935 -0.017836822 -0.0073969006 -0.02092004 0.010512549 -0.0295395
0.019966206 -0.033597082 -0.010258363 -0.012855859 -0.018549096 -0.010408695 -0.029857373 0.017190821
-0.02937964 -0.028890852 -0.021023031 -0.012225895 -0.013872607 -0.036287196 -0.02598583 -0.018178914
-0.00046748706 -0.03736401 0.006961329 0.00513357 -0.031526618 -0.04520178 -0.037985012 -0.017713198
-0.012942184 -0.034063485 -0.0063936785 -0.005024304 0.0023072846 -0.042729784 -0.019231224 -0.011081589
-0.0092492495 -0.027008602 -0.051623866 -0.022807382 -0.017049853 -0.022669142 -0.006106375 -0.023296567
0.0013084301 -0.0127315745 -0.029550388 -0.016330175 -0.0240715 -0.021376971 -0.04582978 -0.02800614

layers.10.running_mean f4 [64]
00000000: f7a1 c0bd e6fd 2c3e 09cc 063d 0355 e73d
00000010: 79b0 31be fc79 7a3d 25a1 18be 4c23 783e
00000020: bab8 a1bc a154 c0bc abb1 4d3c cf34 4f3e
00000030: f556 873d ddee b43d 4b8b b4bd 0f8b db3b
00000040: 6b89 143d 7a18 333e 6199 d0bd 6e55 223d
00000050: 79bb 823c 2d43 063c 0fb5 f63e 376b e23d
00000060: 1378 0dbd d670 663d 61b4 023e f94d 173e
00000070: 49c1 04bd f8fc 093d ca9e b43d c0af f3bd
00000080: 855d c43d 595b 51bd eb7d 8a3d 7907 3a3d
00000090: e29f 9b3d a59f 05bd 9d19 143e 717d 0dbe
000000a0: 1377 783e cdc4 1cbe f6f0 febd 8ba8 ea3e
000000b0: d941 923d 1913 873d 7f24 a03d 1274 193e
000000c0: 0889 22bc d799 ca3d f814 d03d 3339 73bd
000000d0: 008e 8b3d a1dd 2b3d c249 b7bd 997c 2f3d
000000e0: 6c79 31bd dd52 c13d 91a7 c2bd 587d eabd
000000f0: b5d7 4e3d 3712 18be 4dd9 393e e133 e6bd
-0.09405892 0.1689373 0.032909427 0.112955116 -0.17352475 0.06115149 -0.14905222 0.24232215
-0.019741405 -0.023477854 0.012554566 0.20234989 0.066083826 0.08834622 -0.088156305 0.0066999267
0.036263864 0.17489806 -0.10185505 0.039632253 0.015958535 0.008194727 0.48185012 0.11055606
-0.03453834 0.056259952 0.12764122 0.14775838 -0.032410894 0.033688515 0.08819349 -0.11898756
0.0958815 -0.051112507 0.06762298 0.045417283 0.075988546 -0.032622952 0.14462896 -0.13817383
0.24264173 -0.15309449 -0.124483034 0.45831713 0.07141466 0.065954395 0.07819461 0.14985684
-0.009920366 0.09892624 0.101602495 -0.05938072 0.06814194 0.04195941 -0.08949615 0.042843435
-0.043328688 0.09439633 -0.09504617 -0.11449689 0.050498683 -0.14850698 0.181493 -0.11240364

layers.10.running_var f4 [64]
00000000: 0f62 0a3e dd93 403e 86eb 183e 7645 343e
00000010: f5b3 033e 2e74 313e 7c8a 033e b2a2 3a3e
00000020: 951f 133e 0482 323e a2b2 203e d316 743e
00000030: 61d4 463e 8c30 323e ef4c 153e 7acb 0e3e
00000040: 058d 423e 5bd1 483e 15f9 113e f7fd 213e
00000050: 2a75 2a3e ceaa 1e3e fda2 a43e 0f13 303e
00000060: bdb6 113e a559 253e 9d4a 433e 8185 5b3e
00000070: 932b 1c3e bc8e 213e e2f9 3d3e c3a1 0e3e
00000080: 3f93 383e f677 103e 6c40 303e 927c 263e
00000090: fbe2 1c3e 75ce 173e d4cf 243e fbd7 073e
000000a0: f8c8 463e a352 063e 9055 0e3e c907 873e
000000b0: ebef 3d3e bc52 2e3e 1b5c 323e 6be0 1e3e
000000c0: 312b 103e c083 243e 58f3 353e 29f7 113e
000000d0: 0c54 3d3e 289c 1b3e 0733 0d3e e776 373e
000000e0: 09b1 193e f4c0 223e ae48 0d3e ecb1 093e
000000f0: 5fc8 383e b523 043e ac84 5a3e 051e 073e
0.13513969 0.18806405 0.14933595 0.17604622 0.12861617 0.17329475 0.12845796 0.18226126
0.14367516 0.1743241 0.15693143 0.23836832 0.19416954 0.17401332 0.14580129 0.13944808
0.18999107 0.19611113 0.14255174 0.15819536 0.16646257 0.15494844 0.321556 0.1719477
0.14229865 0.16147478 0.19071431 0.21437646 0.15250997 0.15777105 0.18552354 0.13928895
0.1802492 0.14108261 0.17212075 0.16258457 0.15320961 0.14824851 0.16094905 0.13265984
0.19412601 0.13117461 0.13899827 0.26373127 0.18548553 0.17023748 0.17417948 0.15515296
0.14078976 0.16065884 0.1776861 0.1425444 0.18489093 0.15196288 0.13788997 0.17916451
0.1500894 0.15893918 0.13797256 0.13446778 0.18045186 0.12904246 0.21339673 0.13195045

layers.13.weight f4 [10, 576]
00000000: 00dd 6cbc 396d 123c 75ff a73c 0d32 1e3c
00000010: 89de da3c 7887 223d a1ff 0a3d dbda e63c
00000020: c8ac 363d addc ccbc b588 37bd 0101 91bb
00000030: a4a9 56bd f0cf 92bc 4df2 b2bc 2ddc 1ebd
00000040: 0c30 53bb ed9a 84bb 104c e4bc b543 06bd
00000050: 451b 573c 577b 36bb b0f1 9ebc 199a 04bc
00000060: 06b1 9abc 76dd 1e3b 1193 11bc 5ee5 15bb
00000070: 62b9 09bd cd79 07bd 9ebb 0bbd a6ee ed3c
00000080: 050a 093d 52b8 96bb 864b 073d 8392 ec3a
00000090: 6486 04bd 3976 b03c 635c 2fbd a611 e8bc
000000a0: 863a 4d3c 901d ccbc 2274 0dbd cf45 bb3b
000000b0: daf6 ffbc bf2b 603d 5411 3a3d 101d e43c
000000c0: 471b 553d 8647 3bbd 0cd9 b73b 1520 ef3c
000000d0: 36ed b73c 43d2 a13c 54d3 a8bc 8f89 0d3d
000000e0: 6cc9 edbc 1592 5a3d b116 643d e123 053d
000000f0: 1d1b 523d cd8d 433a af9c a6bc fd8e 1a3d
00000100: b0f9 afbc b247 083d e123 de3c 1c51 7cbc
00000110: fa1d 49bd 632f 00bd 0810 f63c 9dfb ecbc
00000120: 758e 0fbd 0735 0ebd 7168 32bc 409e 19bd
00000130: 98ed 4d3c 2002 fa3c 3b91 1f3d 7dc1 7cbc
00000140: 9556 e3ba 735a 03bd 89d8 1d3b 2bb1 083d
00000150: 6a78 e43c 0f5d 6cbc 315f 8fbb 3aa0 34bd
00000160: 1ea6 c0ba 4fe6 e939 5e14 acbb 3840 8abb
00000170: 4115 4f3d 5e43 fdbc 0df2 9e3c f535 493d
00000180: ca11 97bb e7a8 323d b7da 24bd c275 fc3c
00000190: a13b e4bc f74e 093d f14c 21bd c203 c23b
000001a0: 1c01 b5bc c674 343b c824 473d 0696 f53b
000001b0: 00de 4bbc 7e07 703d 6a6f 09bd b2d3 183c
000001c0: 4bf3 10bc 53e1 61bc 57f2 57bd 4cfd 123c
000001d0: fdf9 02bd a0a0 7bbc 170f 563b 599d d0bc
000001e0: 1e5a 393d 26e9 493d 18cf 05bd 77ab 313d
000001f0: b111 0d3d 4600 75bd a2c5 abbc fc20 cd3c
00000200: a3ba 293d a6cd 75bc a4de 5a3d 0aae f53c
00000210: e5b9 f4b9 05c0 853c 0e58 993c ff33 3b3d
00000220: 394a c53a 0c0a 5d3c 7fe7 ad3c bde9 05bc
00000230: 20c1 2dba dd30 f73b 6a6b 2f3d 764a dc3c
00000240: bb00 033d dfb8 013d 8356 813c 761b 763d
00000250: 6195 55bb 0bbe a3bc 736c 5a3d b389 1d3c
00000260: 9d5d 963c a4e5 cdbb 68be f93c 70f4 22bc
00000270: 1a98 313c b64d e4bc ee86 61bc d330 afbc
00000280: b80f 03bd a366 1abc 7385 3e3d 12eb 1cbd
00000290: c4ed 093c bc67 5c3c 87b7 7d3b 8be8 ed3c
000002a0: fe45 d1bc c062 923b 8e24 2d3c 0a9b 453d
000002b0: 9b32 70bb 0a2f 0cbd 5b73 1f3d 3e9a bfbb
000002c0: 8473 4cbd 61ea b83c d414 97bc abf7 003d
000002d0: 34f8 003d 3688 2139 5268 6e3d 409e d5bb
000002e0: db54 4c3d 76c1 103b 16fa 52bd 9ce1 81b9
000002f0: 882e b3bb 5e41 353d d6df 2f3c 4b85 0e3d
00000300: 1088 c53a 9f4d efbc dc91 043d 430a 26bd
00000310: 6e14 393c 52b6 de3c 7a70 ef3c fba9 1dbd
00000320: d0df aabc fae1 a53c a72a 32bd 9bca 8cbc
00000330: 00db 993c 5388 383d c759 173d 3c72 2a3d
00000340: 8a3b b43c 531e c8bb f431 3b3c 6cb1 a53c
00000350: 1d7a ac3b 88d4 153c d85b c23c 100f d6ba
00000360: 8fc0 e7bc 87d1 e13c d8e5 c1bb 011e be3c
00000370: 38b4 513c a6b2 243d a00b 2bbc 8fc8 8a3c
00000380: 8ec9 133c 58e9 833c 2e45 80bd 7785 d33b
00000390: 77cc 6cbd d045 2bbd 17a7 593d 1277 27bd
000003a0: 9f7b 63bc 9d5d 1a3d a287 bdbc 178a 743c
000003b0: 8a5c 94bc 4c77 6abb b908 0dbd df7b 133d
000003c0: 974e 38bd 21fa 3e3d f9d7 633c 1734 fdbc
000003d0: 23ce 233d 8cc0 983c 4d97 8fbc 67e9 31bd
000003e0: 6640 9a3c 43d5 133c 843b 183c 5155 103d
000003f0: 9838 d1bb 5260 4bbc 0171 08bd 6069 313c
-0.014456987 0.0089371735 0.020507554 0.009655488 0.026717441 0.039679974 0.033935193 0.02818053
0.04459837 -0.02500757 -0.04480811 -0.0044251685 -0.052407876 -0.017921418 -0.021844054 -0.038784195
-0.0032224683 -0.004046789 -0.0278683 -0.032779414 0.01312906 -0.0027844512 -0.019402355 -0.00809338
-0.01888324 0.0024240888 -0.008885161 -0.002287231 -0.03362406 -0.033075143 -0.034114473 0.02904446
0.03345682 -0.0045996094 0.03303101 0.0018049035 -0.032354727 0.021540748 -0.042812716 -0.028328728
0.01252616 -0.02491644 -0.03453458 0.005715109 -0.031245638 0.05472922 0.04542668 0.02784589
0.052027967 -0.045722507 0.005610591 0.029190103 0.022451978 0.01975358 -0.020608582 0.034555014
-0.02902671 0.05336197 0.055685703 0.03250492 0.05129539 0.00074597896 -0.020338384 0.03773402
-0.021481365 0.0332715 0.027116718 -0.015400197 -0.049100854 -0.03129519 0.030036941 -0.028928572
-0.035047967 -0.03471854 -0.010889159 -0.037504435 0.012568854 0.030518591 0.038956862 -0.015426991
-0.0017344529 -0.03206868 0.0024085364 0.033372086 0.02788945 -0.014426484 -0.0043753614 -0.044098116
-0.0014697944 0.00044612816 -0.0052514514 -0.0042190813 0.05055738 -0.030915912 0.019402528 0.049123723
-0.004610275 0.04361811 -0.040247645 0.03081787 -0.027860465 0.033522572 -0.039380018 0.005920858
-0.022095256 0.0027535423 0.04861906 0.007494691 -0.012443066 0.058600895 -0.03355352 0.009327816
-0.008847068 -0.013786632 -0.052721348 0.0089715235 -0.03197669 -0.01535812 0.0032662803 -0.025465654
0.045251958 0.049294613 -0.032668203 0.043376412 0.0344407 -0.059814714 -0.020968262 0.025040142
0.041437756 -0.015002644 0.053434983 0.029990215 -0.0004667781 0.016326914 0.018718746 0.045703884
0.0015052027 0.013491165 0.02122855 -0.008173403 -0.0006628204 0.0075436668 0.042827047 0.026890974
0.03198312 0.031670447 0.015788322 0.060084783 -0.0032590257 -0.01998808 0.05332608 0.00961535
0.018355185 -0.006283479 0.0304863 -0.009945974 0.0108394865 -0.027869087 -0.01376508 -0.021385586
-0.031997412 -0.009423885 0.046513986 -0.038310118 0.008418504 0.013452467 0.0038714127 0.02904155
-0.02554607 0.0044673383 0.010567797 0.04824356 -0.0036651257 -0.034224547 0.03892837 -0.0058472445
-0.04991485 0.022572698 -0.018442549 0.031486195 0.031486705 0.00015404899 0.058204956 -0.006519109
0.049885612 0.0022087968 -0.05150803 -0.0002477289 -0.0054681934 0.044251792 0.010734519 0.034795087
0.0015070457 -0.029211817 0.032365665 -0.04053713 0.011296375 0.027186546 0.029228438 -0.038492184
-0.020858675 0.020249356 -0.043497708 -0.017186454 0.018781185 0.045051884 0.036950853 0.04161285
0.022001047 -0.0061071306 0.011425484 0.020226203 0.0052635805 0.00914491 0.023725435 -0.0016331393
-0.028290061 0.02756573 -0.005917292 0.023207666 0.012799315 0.040209435 -0.010439783 0.016941337
0.009020222 0.016102478 -0.06263195 0.0064551192 -0.05781218 -0.041814625 0.053137865 -0.04088504
-0.013884454 0.037686933 -0.023135964 0.014925501 -0.018110532 -0.0035776673 -0.034432147 0.036006805
-0.044996824 0.04662526 0.013906472 -0.030908627 0.03999151 0.018646501 -0.0175282 -0.04343548
0.018829536 0.0090230135 0.009291533 0.035237614 -0.0063849203 -0.012413101 -0.033310894 0.010828346

layers.13.bias f4 [10]
00000000: 394c b13d a2fa 8a3c 9391 e4bc 3a9a 26bd
00000010: 478d 34bd 58a3 ad3b 2ed0 823d 77e3 4cbc
00000020: 5d7f 98bd e667 88bd
0.086571164 0.016965214 -0.027901446 -0.040674426 -0.044080045 0.005299013 0.063873634 -0.012505404
-0.074461676 -0.06660442
