docs/mnist_convnet/mnist_convnet.webgpu.safetensors (safetensors, 353816 bytes, 18 tensors)

layers.0.weight f4 [32, 1, 5, 5]
0	0x3d37d39c	0.04487954
1	0x3dcbfff7	0.09960931
2	0x3c42c438	0.0118876025
3	0xbcdea754	-0.027179398
4	0xbcb47933	-0.022030449
5	0xbe38bffa	-0.18041983
6	0x3e1600e2	0.14648774
7	0x3d5c0044	0.05371119
8	0x3e1e2e87	0.15447436
9	0xbcb66971	-0.022267075
10	0x3d9d658e	0.07685386
11	0x3dcd63be	0.1002879
12	0xbd3651e3	-0.044511687
13	0xbdc507fc	-0.096206635
14	0x3d7fd873	0.06246228
15	0x3e1e3049	0.15448107
16	0x3a96c9b7	0.0011504208
17	0xbd580ab7	-0.052744593
18	0x3e1ebf6a	0.15502706
19	0xbd90ee5a	-0.07076712
20	0x3cdd6461	0.027025403
21	0xbd82c5e3	-0.063854
22	0x3dc07845	0.093979396
23	0xbcbeaf55	-0.023276964
24	0x3e17bacc	0.14817351
25	0xbdbb3cda	-0.09142466
26	0x3b93f74d	0.0045155645
27	0x3e1a98f8	0.15097415
28	0xbcea31dc	-0.028588228
29	0xbde9cc56	-0.11415927
30	0xbbd8b058	-0.0066128187
31	0x3e9f4f58	0.31115222
32	0xbdec0b23	-0.11525562
33	0xbdd5589c	-0.104172915
34	0x3c0065e7	0.007836795
35	0xbda87619	-0.0822565
36	0x3d4b31cb	0.049608033
37	0x3e70d1c7	0.23517524
38	0xbc20b27a	-0.009808177
39	0xbd8ab965	-0.067736425
40	0x3e110ea1	0.14165737
41	0xbdd18983	-0.102313064
42	0xbdb5dfd5	-0.08880583
43	0x3e0bb5a5	0.1364351
44	0x3d168885	0.03675129
45	0xbe32656e	-0.17421505
46	0x3c893538	0.01674901
47	0xbe23303c	-0.15936369
48	0xbddfbb10	-0.10924351
49	0x3e34fa39	0.17673577
50	0xbcf59dc5	-0.029982457
51	0xbd84a62a	-0.06477006
52	0xbe1abff8	-0.15112293
53	0xbe451766	-0.19247207
54	0xbe642758	-0.22280633
55	0x3e439a8f	0.19101928
56	0xbd4ef4f2	-0.050526567
57	0xbd5c7a3f	-0.05382752
58	0xbc9fe29f	-0.019517241
59	0xbd849561	-0.06473804
60	0xbe14e216	-0.1453937
61	0x3d67782a	0.05651108
62	0x3d1d68cd	0.038430024
63	0x3c9c0a74	0.019047953
64	0xbda06be0	-0.078330755
65	0xbe56282a	-0.20913759
66	0x3cbc885c	0.02301424
67	0xbe4b92ad	-0.19880171
68	0x3dd9caf7	0.106344156
69	0xbd67f187	-0.056626823
70	0xbe8f56b2	-0.2799583
71	0xbe1bd750	-0.15218854
72	0xbe362846	-0.177888
73	0xbe6b87b7	-0.2300099
74	0xbea81873	-0.32831153
75	0x3dff2df4	0.12459937
76	0xbdfbb29f	-0.12289929
77	0x3cf1b2a1	0.029504122
78	0x3eaae63c	0.3337878
79	0x3cf3bcdd	0.029753143
80	0x3ce1a5a2	0.0275448
81	0x3e220d78	0.1582545
82	0x3d18ee57	0.037336674
83	0xbd8b2a1e	-0.067951426
84	0xbe696ec2	-0.22796157
85	0x3d21fb6c	0.039546415
86	0x3d3906b5	0.045172412
87	0x3e044fba	0.12921038
88	0x3d966b84	0.07344726
89	0xbe3f15d9	-0.18660678
90	0x3e26a021	0.16272022
91	0x3c6494f2	0.013951527
92	0xbd9284ff	-0.07154273
93	0x3c5f79ae	0.013639851
94	0xbdb2b466	-0.087258145
95	0x3e7fd6fe	0.24984357
96	0x3c669d4c	0.014075588
97	0xbbf5e203	-0.0075037493
98	0xbdae15e6	-0.085002705
99	0xbda06858	-0.07832402
100	0xbe3e0007	-0.18554698
101	0x3e017411	0.12641932
102	0x3c9ae877	0.018909676
103	0x3cb44bf2	0.02200887
104	0xbdbac497	-0.09119528
105	0xbdc3bdce	-0.09557687
106	0xbdbaf2c5	-0.09128336
107	0xbd80d621	-0.06290842
108	0xbe0ad422	-0.13557485
109	0x3d93805d	0.07202218
110	0xbe719b13	-0.23594312
111	0xbe8e4c82	-0.27792746
112	0xbe171f08	-0.14757931
113	0x3de73745	0.11289839
114	0xbdd6996b	-0.10478481
115	0x3e6ef1bd	0.23334403
116	0x3e66347b	0.22480957
117	0xbe4b9ac8	-0.19883263
118	0xbcd58a12	-0.026066814
119	0xbd33229a	-0.04373417
120	0xbd922896	-0.071366474
121	0xbd653349	-0.055957112
122	0x3db63f6f	0.08898818
123	0x3e0e39e2	0.13889268
124	0x3d0f0379	0.03491542
125	0xbe4cc180	-0.1999569
126	0x3df3f8c7	0.11912685
127	0xbea8f72b	-0.33001074
128	0x3d2c3862	0.04204596
129	0x3e67b196	0.22626337
130	0xbda31ece	-0.0796486
131	0x3bce390b	0.006293421
132	0x3e1cf87a	0.15329161
133	0xbe27653f	-0.16347216
134	0xbd0acc28	-0.033886105
135	0xbe0a2534	-0.13490754
136	0xbcfcc473	-0.030855393
137	0xbd04520f	-0.03230482
138	0x3e16e99f	0.14737557
139	0x3c200f45	0.009769266
140	0x3e80de22	0.25169474
141	0xbe95caaf	-0.29256198
142	0xbe959fad	-0.29223385
143	0xbe021ec7	-0.12707053
144	0x3e50c3b0	0.20387149
145	0x3d431e99	0.047636602
146	0x3da64893	0.08119311
147	0x3db35a68	0.08757478
148	0xbe05e030	-0.13073802
149	0xbe2b67af	-0.16738771
150	0xbaa68bc9	-0.0012706454
151	0xbd22733b	-0.039660674
152	0xbcaadad6	-0.020856302
153	0x3e2c402e	0.16821358
154	0x3d3922d4	0.04519923
155	0x3e6e5b37	0.23276983
156	0xbd8538cb	-0.06504973
157	0xbd63d7e3	-0.055625807
158	0x3d81580f	0.06315624
159	0xbd569b71	-0.052394334
160	0xbcc8eb54	-0.024526276
161	0xbe050064	-0.1298843
162	0xbeace380	-0.3376732
163	0xbe42f6d2	-0.19039467
164	0xbe48af97	-0.19598232
165	0xbde87969	-0.11351282
166	0x3c918eaa	0.017768223
167	0xbe06d9c3	-0.13169007
168	0x3e127af9	0.14304723
169	0x3e5e0f36	0.2168549
170	0xbde6326e	-0.112400874
171	0x3e1f2304	0.15540701
172	0xbbfff447	-0.0078111026
173	0x3e063b8f	0.13108657
174	0x3ab66558	0.0013915701
175	0xbd489ae7	-0.04897585
176	0xbc949998	-0.018139645
177	0xbe60359a	-0.21895447
178	0xbda2ce4b	-0.079495035
179	0xbe96fe49	-0.2949088
180	0xbe442053	-0.19152956
181	0xbe78f88c	-0.24313563
182	0xbe24e6c0	-0.16103649
183	0x3ebb7299	0.3661087
184	0x3ec81a6d	0.3908266
185	0xbe3eda67	-0.18638001
186	0xbc9fdd80	-0.0195148
187	0x3e2f4341	0.17115499
188	0x3d3dcb3c	0.046336398
189	0xbd9c3c16	-0.07628648
190	0x3e28206b	0.16418616
191	0x3eb03610	0.34416246
192	0x3d2bfae5	0.04198732
193	0x3d918293	0.07104983
194	0xbe5f60e1	-0.218143
195	0x3e012a2a	0.1261374
196	0xbd7b530d	-0.0613585
197	0x3d14ca4f	0.03632575
198	0x3d7f5f19	0.06234655
199	0xbc70ee76	-0.014705291
200	0xbe3b401c	-0.18286175
201	0xbdfb3f01	-0.122678764
202	0xbe2000b8	-0.15625274
203	0x3d66b54d	0.056325246
204	0xbc8126fe	-0.015765663
205	0xbd9270c2	-0.07150413
206	0x3e3267cc	0.17422408
207	0x3bf61614	0.007509956
208	0xbd89ef7c	-0.06735131
209	0x3d8e87e2	0.06959511
210	0xbe644638	-0.22292411
211	0xbe2adec9	-0.16686548
212	0xbc5b80c4	-0.013397399
213	0xbe67b8f6	-0.22629151
214	0x3bc29358	0.005937975
215	0x3d891738	0.06693882
216	0xbe030267	-0.12793885
217	0xbe164cfa	-0.14677802
218	0x3e0bea47	0.13663588
219	0xbe631d04	-0.22179037
220	0x3e04b127	0.12958203
221	0xbc08ec8d	-0.008357179
222	0x3e0bd3f3	0.13655071
223	0x3e676bdd	0.2259974
224	0x3baa524d	0.0051977993
225	0xbe293243	-0.1652308
226	0xbe76f313	-0.24116163
227	0xbda48c21	-0.0803454
228	0x3e8b717a	0.27235013
229	0xbdd99b9e	-0.10625385
230	0xbe79ba54	-0.24387485
231	0xbe88e028	-0.26733518
232	0x3e50bfe6	0.20385703
233	0x3dac56e8	0.084150136
234	0x3d9e25a8	0.07722026
235	0xbdb21b75	-0.08696643
236	0xbe455ade	-0.19272944
237	0xbce5b82b	-0.02804192
238	0x3e27cfdc	0.16387886
239	0x3e01033c	0.1259889
240	0x3e2287d2	0.15872124
241	0xbea99438	-0.33120894
242	0x3db802df	0.089849226
243	0x3e0c02af	0.13672899
244	0xbcc90e45	-0.024542937
245	0xbdd133f7	-0.1021499
246	0xbe455782	-0.19271663
247	0x3e3e1e87	0.18566333
248	0x3e0563a3	0.1302629
249	0x3d8c81cb	0.068606935
250	0x3e37baa7	0.17942296
251	0xbe3c783d	-0.18405242
252	0xbd92cbd1	-0.07167781
253	0xbd77da0f	-0.06051069
254	0x3e2b1612	0.16707638
255	0xbc9c8b01	-0.019109251

layers.0.bias f4 [32]
0	0xbd272389	-0.040805373
1	0xbdcadd30	-0.099054694
2	0xbea2ce04	-0.31797802
3	0x3d7d3d28	0.0618259
4	0xbdacc62a	-0.08436234
5	0xbe362e4b	-0.17791097
6	0xbe16f53a	-0.14741984
7	0xbe015f7f	-0.12634085
8	0xbe0dc167	-0.13843308
9	0xbe7abd31	-0.24486233
10	0xbe33161c	-0.17488903
11	0xbd8651a9	-0.06558544
12	0xbdf6ac06	-0.120445296
13	0x3cd95515	0.026529828
14	0xbd5550ed	-0.05207913
15	0x3de58c0d	0.11208353
16	0x3d3a1b05	0.045435924
17	0xbe0ee01a	-0.13952675
18	0x3d3a0ddf	0.045423385
19	0x3c930c8a	0.017950315
20	0xbda9ae31	-0.082851775
21	0xbe0fc6ae	-0.14040634
22	0x3d14cbe1	0.036327247
23	0xbbce9722	-0.0063046375
24	0xbee24f45	-0.44201103
25	0x3ce35c49	0.027753966
26	0xbe792376	-0.24329934
27	0xbdf010eb	-0.11721977
28	0xbe2a708d	-0.16644497
29	0xbc091bd1	-0.008368448
30	0x3de0ff9c	0.109862536
31	0x3cad34c0	0.021143317

layers.2.weight f4 [32, 32, 5, 5]
0	0x3c9a7bc5	0.018857846
1	0x3b4b7d8b	0.0031050171
2	0x3925e3af	0.00015820445
3	0x3bfb1e53	0.007663527
4	0xbc17b066	-0.009258365
5	0xbcc0a74a	-0.02351727
6	0x3caec686	0.021334898
7	0x3c869bbc	0.016431682
8	0x3d71c82f	0.0590288
9	0xbd05d520	-0.032673955
10	0x3d13c5af	0.036077198
11	0xbbb93198	-0.005651664
12	0x3c85ee7d	0.016349072
13	0x3c969307	0.018380655
14	0x3bcb6546	0.006207141
15	0x3ccee1a6	0.025254082
16	0xbbc48b12	-0.005998024
17	0xbc0fef34	-0.008785058
18	0x3c468ba7	0.012118257
19	0x3c7e1045	0.015506809
20	0x3cbe3716	0.023219626
21	0xbbc928a3	-0.0061388775
22	0xbb487cc1	-0.0030591937
23	0x3d0126c8	0.031531125
24	0xbd104a3a	-0.035227038
25	0xbc218e6a	-0.009860614
26	0xbc627527	-0.013821877
27	0x3cf3898d	0.029728675
28	0x3cb82684	0.022479303
29	0x3cc8f4f2	0.024530862
30	0x3b6a19d0	0.0035720952
31	0x3c7804d7	0.015137873
32	0xb9577cbf	-0.0002055047
33	0x39bc8b49	0.0003596193
34	0x3c84b947	0.016201628
35	0xbcf16c25	-0.029470513
36	0xbba63fda	-0.0050735297
37	0x3c0724ae	0.008248491
38	0xba63c927	-0.0008689337
39	0x3d003cf9	0.031308148
40	0xbb7ea0d4	-0.0038853185
41	0x3c06974e	0.008214785
42	0xbcf69b19	-0.030103253
43	0xbc92bf7b	-0.01791357
44	0xbc15ca70	-0.009142503
45	0xbcf07134	-0.029350854
46	0x3cfdcfbd	0.030982846
47	0xbcc398a3	-0.023876494
48	0xbcda8582	-0.02667499
49	0x3ce1d7c1	0.0275687
50	0x3d0b2436	0.03397008
51	0x3d8dc703	0.06922724
52	0x3c72de15	0.014823456
53	0xbd0e4aad	-0.034739185
54	0xbd17bd3f	-0.037045714
55	0x3c19a710	0.00937821
56	0xbaaba932	-0.0013096689
57	0xba0f2949	-0.0005461169
58	0xbcc87f50	-0.02447477
59	0xbb8d32fa	-0.0043090554
60	0xbd00a52a	-0.031407513
61	0x3cc67cbe	0.024229404
62	0xbb9d4356	-0.004799287
63	0xbd1fce5b	-0.039015155
64	0x3c8f7f34	0.01751671
65	0x3c7981b0	0.015228674
66	0x3d9111f4	0.070835024
67	0x3d5c2fb7	0.053756442
68	0x3ca5f458	0.020258114
69	0x3cfb0d88	0.0306461
70	0x3d31c73c	0.043402895
71	0x3d724674	0.05914922
72	0x3b946782	0.0045289407
73	0xbc0d024e	-0.0086065065
74	0xbc945eb5	-0.018111566
75	0xbc9ffa33	-0.019528484
76	0xbc6d5d26	-0.01448754
77	0x3c975360	0.018472373
78	0xbc97f9d0	-0.018551737
79	0x3b03f33c	0.0020133993
80	0x3c577c36	0.013152173
81	0x3cdfb785	0.027309189
82	0x3d3a8de4	0.045545474
83	0x3c2347b2	0.009965824
84	0xbca539d0	-0.020169169
85	0xbc5f11fd	-0.013615129
86	0xbb4fe8d2	-0.0031724465
87	0xbc0b6ba2	-0.008509548
88	0xbc1bca10	-0.009508625
89	0x3c0328ca	0.00800533
90	0x3d5137a8	0.05107847
91	0xbc1d765c	-0.009610739
92	0xbd31af3c	-0.043380007
93	0xbbb1ff11	-0.0054320176
94	0x3c0fb94c	0.008772206
95	0x3c412926	0.011789596
96	0xbca48271	-0.02008173
97	0xbd2ada19	-0.0417119
98	0x3d0a2f95	0.033736784
99	0x3d741e70	0.05959934
100	0x3ccbbb84	0.024869688
101	0x3d18b555	0.037282307
102	0x3bc17280	0.005903542
103	0xbd1d40c0	-0.03839183
104	0xbd0d0b38	-0.034434527
105	0x3d4dac68	0.050213248
106	0x3cb892ae	0.02253088
107	0x3d07df3b	0.033171874
108	0xbb38f6b2	-0.0028223214
109	0xbd2e18f0	-0.04250425
110	0x3be36199	0.006939125
111	0x3c94fa42	0.018185738
112	0x3c7f8c72	0.01559745
113	0x3c685a9d	0.01418176
114	0xbc40df8e	-0.01177205
115	0xbd73d25f	-0.059526797
116	0xbcaf2917	-0.021381898
117	0x3d3420b3	0.043976497
118	0x3c3e7073	0.01162349
119	0x3cc3118b	0.023812076
120	0xbcaefc07	-0.02136041
121	0xbd2893dc	-0.041156635
122	0x3bce27c0	0.0062913597
123	0x3cd4029a	0.025880147
124	0x3be6eae1	0.0070470427
125	0x3cb21250	0.021737248
126	0x3c84b1b7	0.016198022
127	0x3c392b7a	0.0113018695
128	0x3c6dab05	0.014506106
129	0xbc4deb0f	-0.012568249
130	0x3cf637f6	0.030055981
131	0xbbd119d4	-0.006381253
132	0x3c76de49	0.015067645
133	0xbc065cff	-0.008200883
134	0xbd5efea4	-0.054442063
135	0xbcf11cdd	-0.029432708
136	0xbc7f1112	-0.015568035
137	0xb908283e	-0.00012984962
138	0x3cc56ee5	0.02410073
139	0xbcb45734	-0.022014238
140	0xbd6a3bad	-0.057185818
141	0xb990c0ef	-0.00027609567
142	0x3c9e5a53	0.01933018
143	0x3c8cc070	0.017181605
144	0x3c15a6c6	0.009134
145	0x3cbb0fae	0.022834625
146	0x3d0e422a	0.034731068
147	0xbc48d173	-0.012256968
148	0x3c96dc78	0.018415675
149	0x3c8d592f	0.01725444
150	0xbc70391c	-0.014662053
151	0xbcb46b5d	-0.022023851
152	0xbd2f74ff	-0.042836186
153	0x3bd6c097	0.00655372
154	0x3cb28ddb	0.021796158
155	0xbc9c3e02	-0.019072536
156	0xbc4fd693	-0.012685436
157	0x3aaa86c5	0.0013010135
158	0x3c20df86	0.009818917
159	0x3d10ad9b	0.035321813
160	0x36f9c1c7	7.443337e-06
161	0xb9a12edd	-0.0003074323
162	0x3d377199	0.04478607
163	0x3b9b7adc	0.0047448706
164	0x39f48786	0.0004664028
165	0xbb9cf8c2	-0.0047903964
166	0xbb87af0c	-0.0041407403
167	0x3d0b523d	0.034013975
168	0xbb8fc454	-0.004387418
169	0x3c5eda21	0.013601811
170	0xbcded526	-0.027201246
171	0xbb93172d	-0.0044888468
172	0x3c045f1d	0.008079317
173	0xbc1c7cf9	-0.00955128
174	0xbd22acc5	-0.039715547
175	0x3c5b09dd	0.013369051
176	0x3d43ef3e	0.04783558
177	0x3d3bf058	0.045883507
178	0x3d2253a2	0.03963054
179	0xba50674d	-0.00079499633
180	0x3d20c641	0.03925157
181	0xbc06bdc5	-0.0082239555
182	0xbc7d856d	-0.015473706
183	0xbd20162b	-0.03908364
184	0xbcf0cba3	-0.029393977
185	0x3c059502	0.008153202
186	0x3c421b91	0.011847393
187	0xbca56e98	-0.020194337
188	0x3cbce441	0.023058059
189	0x3ca83d8a	0.020537157
190	0xbd3d41ae	-0.046205215
191	0xbc9b3455	-0.018945852
192	0xbbc496f9	-0.0059994427
193	0x3bf955c0	0.007609099
194	0x3b816fd9	0.003950101
195	0xbce71f53	-0.028213179
196	0xbb21e59b	-0.0024703506
197	0x3c5722b6	0.013130834
198	0xbc7ac7be	-0.015306411
199	0x3d08fc77	0.033443894
200	0x3d0f2356	0.03494581
201	0xbbbdd0e3	-0.0057927235
202	0xbcc8ec74	-0.024526812
203	0x3d013af9	0.03155038
204	0x3cbe10e2	0.02320141
205	0x3c6b291e	0.014353065
206	0x3d3519b2	0.044213958
207	0x3c22e972	0.009943353
208	0xbc87ca35	-0.016575912
209	0xb948bd43	-0.00019143992
210	0x3d0c992f	0.034325775
211	0x3cf7a1d2	0.03022853
212	0xbd61e26d	-0.055147577
213	0xbd087ddd	-0.033323158
214	0x3c6b3dd5	0.014358004
215	0xbcc1491a	-0.023594428
216	0xbd3f8fec	-0.046768114
217	0xbcb597f9	-0.022167193
218	0xbbb191e1	-0.0054190014
219	0x3b9007f7	0.0043954807
220	0x38a4cf74	7.8587706e-05
221	0x3c4a974e	0.012365175
222	0xbb7b2713	-0.003832285
223	0xbc1ab651	-0.009442882
224	0x3c95cdab	0.018286547
225	0x3d909ec0	0.07061529
226	0x3acffbc6	0.0015867881
227	0xbd256955	-0.040383656
228	0xbc019c56	-0.007910809
229	0xbc702dc6	-0.014659351
230	0x3d3776df	0.0447911
231	0xbd92ddb2	-0.07171191
232	0xbd96cce6	-0.073633
233	0xbd80ddc7	-0.06292301
234	0xbd8ca181	-0.06866742
235	0x3ab963bb	0.0014144102
236	0xbd34ce8a	-0.044142283
237	0xbcf77237	-0.03020583
238	0xbd5fe856	-0.054664932
239	0xbd31b41b	-0.043384653
240	0xbcb8c0e4	-0.022552915
241	0xbc3d54d8	-0.011555873
242	0xbd3166ea	-0.043311037
243	0xbcd470a7	-0.025932623
244	0xbc7eed04	-0.015559439
245	0x3cc49429	0.02399643
246	0xbafd4e72	-0.0019325747
247	0xbd908f1d	-0.07058547
248	0xbd3978c9	-0.045281205
249	0x3bfbd26c	0.0076849964
250	0xbcbe2845	-0.023212561
251	0xbcbfc102	-0.023407463
252	0xbcb745ee	-0.022372212
253	0xbb701791	-0.003663514
254	0xbd790e6e	-0.060804777
255	0xbcd512eb	-0.026009997

layers.2.bias f4 [32]
0	0xbda4a66c	-0.08039555
1	0xbd6b5c10	-0.057460845
2	0xbd5df3ce	-0.05418759
3	0x3d3a523c	0.04548858
4	0x3ad46ec1	0.0016207324
5	0xbd55f50c	-0.052235648
6	0xbd062ddf	-0.03275859
7	0xbe086586	-0.13319978
8	0xbe04f33a	-0.12983409
9	0xbe0a84d0	-0.13527226
10	0xbc3d9ce7	-0.011573053
11	0xbdf8141f	-0.12113213
12	0xbd3bec79	-0.045879815
13	0xbe009d88	-0.12560093
14	0xbda79904	-0.08183482
15	0xbd5c0680	-0.053717136
16	0xbde307ce	-0.11085473
17	0xbc9eab07	-0.019368662
18	0xbe2e19ad	-0.17001982
19	0x3b3a55e8	0.0028432552
20	0xbdd9f92b	-0.10643228
21	0xbb390bbf	-0.002823576
22	0xba02e47d	-0.0004993154
23	0xbd8bcde5	-0.06826381
24	0xbbb848db	-0.0056239194
25	0xbd40db20	-0.047083974
26	0x3c8e1010	0.017341644
27	0x3d7d3342	0.06181646
28	0xbd6e8134	-0.058228686
29	0x3d7b339e	0.061328523
30	0xbd9137ec	-0.070907444
31	0xbe27f05c	-0.16400284

layers.4.weight f4 [32]
0	0x3f9d73e8	1.2300997
1	0x3f82a665	1.020703
2	0x3f845110	1.0337238
3	0x3f843124	1.0327497
4	0x3f85453a	1.0411751
5	0x3f89c48b	1.0763105
6	0x3f8b6c78	1.0892477
7	0x3f8e7012	1.1127951
8	0x3f80f09c	1.0073428
9	0x3f9091ef	1.1294535
10	0x3f85ff94	1.0468621
11	0x3f8c1d82	1.0946505
12	0x3f85c2ef	1.0450114
13	0x3f98478e	1.1896837
14	0x3f87767c	1.0583034
15	0x3f87519a	1.0571778
16	0x3f89d581	1.0768281
17	0x3f92459f	1.1427497
18	0x3f92b906	1.1462715
19	0x3f7fb71e	0.9988879
20	0x3f92ae88	1.1459513
21	0x3f90b03e	1.1303785
22	0x3f867287	1.0503701
23	0x3f82e9a0	1.0227547
24	0x3f84e11e	1.03812
25	0x3f886d07	1.0658273
26	0x3f83d20c	1.0298476
27	0x3f755b75	0.9584268
28	0x3f956840	1.167244
29	0x3f833bc1	1.025261
30	0x3f7f224a	0.99661696
31	0x3f8b6b4e	1.0892122

layers.4.bias f4 [32]
0	0xbd3fbffc	-0.04681395
1	0xbd3b4ba2	-0.045726426
2	0xbd74d3d6	-0.059772335
3	0x3d88fca2	0.06688811
4	0x3cbd073a	0.023074735
5	0x3d5b76d3	0.053580116
6	0xbba71cb7	-0.0050998586
7	0xbc983b78	-0.018583044
8	0x3d2d8104	0.042359367
9	0x3d6c56e3	0.05770005
10	0xbd6bc255	-0.057558376
11	0xbc1ba0bd	-0.009498772
12	0x3b993bf7	0.004676338
13	0xbdcbe5c0	-0.09955931
14	0xbde8ff88	-0.11376864
15	0x3de88d30	0.113550544
16	0x3cc48e7b	0.023993721
17	0xbd5d8ce9	-0.05408946
18	0xbd68aed0	-0.05680734
19	0x3d684509	0.056706462
20	0xbe176db3	-0.1478794
21	0xbd55a377	-0.052157845
22	0xbd98dab7	-0.074635915
23	0xbcf561c5	-0.029953847
24	0x3c59af4b	0.013286422
25	0x3d1ea036	0.038727008
26	0xbe20899a	-0.15677491
27	0xbcd70bb3	-0.026250696
28	0x3dd13455	0.1021506
29	0xbe17abaf	-0.14811586
30	0xbe0beb7d	-0.1366405
31	0xbd6e9912	-0.058251448

layers.4.running_mean f4 [32]
0	0xbe37834d	-0.17921181
1	0x3f217b99	0.6307922
2	0xbde4c810	-0.111709714
3	0xbde2a1d0	-0.110660195
4	0x40060267	2.0938966
5	0x3f3cb7d1	0.7371798
6	0x3daff222	0.08591105
7	0x3d9ba578	0.0759992
8	0x3e16fc19	0.14744605
9	0x3ede9381	0.43471912
10	0x3e9fd207	0.31214926
11	0x3b09545b	0.002095482
12	0x3f390b67	0.72283024
13	0xbd9b2ac6	-0.07576518
14	0x3e92b07c	0.28650272
15	0x3f6e8b81	0.93181616
16	0x3dbb1c0a	0.091362074
17	0xbe0cf63b	-0.13765804
18	0xbe5d96e5	-0.21639593
19	0xbd1a1c45	-0.037624616
20	0xbe048924	-0.1294294
21	0xbdfda36d	-0.123846866
22	0x3eac75d2	0.3368364
23	0x3f4d5315	0.802049
24	0xbb8c10d2	-0.004274466
25	0x3e91bd0a	0.28464538
26	0xbe5d01b5	-0.21582682
27	0x3d4af446	0.049549364
28	0x3e1dfe1d	0.15428968
29	0xbdc95bd9	-0.09831972
30	0xbe355397	-0.17707668
31	0x3df2a215	0.11847321

layers.4.running_var f4 [32]
0	0x3cd1c917	0.025608582
1	0x3f39b7d8	0.7254615
2	0x3ddc0da8	0.10744792
3	0x3d7afbcb	0.061275285
4	0x401d6b7b	2.459685
5	0x3eeb1eb2	0.45921856
6	0x3e520e80	0.20513344
7	0x3ea26f2d	0.31725445
8	0x3e8a7db8	0.2704904
9	0x3eed1d7d	0.4631156
10	0x3e8f944f	0.28042838
11	0x3dbfc34e	0.09363423
12	0x3ed948e3	0.4243842
13	0x3d59083c	0.05298637
14	0x3e43b4da	0.19111958
15	0x3f092f60	0.53587914
16	0x3e974baa	0.29549915
17	0x3d9a09aa	0.075213745
18	0x3c57fdf5	0.013183107
19	0x3dfa7f00	0.122312546
20	0x3ce1a063	0.027542299
21	0x3db642f1	0.08899487
22	0x3e42e88d	0.19034024
23	0x3eb235ba	0.34806615
24	0x3e21602f	0.15759347
25	0x3e6ca47b	0.2310962
26	0x3c804218	0.015656516
27	0x3e52662c	0.20546788
28	0x3e7b287b	0.24527161
29	0x3da9ff07	0.08300596
30	0x3d2d5e2b	0.042326134
31	0x3e26701a	0.16253701

layers.6.weight f4 [64, 32, 3, 3]
0	0x3c14b298	0.009075783
1	0x3ce13f2a	0.02749594
2	0xbd5cf021	-0.053939942
3	0x3d0fd7ea	0.03511802
4	0xbc13a0fe	-0.0090105515
5	0xbdab84ec	-0.08374962
6	0xbc0a9114	-0.008457441
7	0xbd3a6544	-0.04550673
8	0x3cc9cba5	0.024633238
9	0xbe05a931	-0.13052823
10	0x3cb15a7e	0.021649595
11	0xbb9c5614	-0.0047710035
12	0xbcc66e47	-0.024222506
13	0xbca45a13	-0.020062482
14	0x3d1066a8	0.03525415
15	0xbd6882fe	-0.05676555
16	0xbdd38dfb	-0.10329815
17	0x3d800ef0	0.06252849
18	0xbd588b44	-0.05286719
19	0xbc41a17c	-0.011818286
20	0x3d51f8eb	0.051262777
21	0xbd9725fa	-0.0738029
22	0x3d2c3f56	0.04205259
23	0xbd77faee	-0.06054204
24	0x3cc6f6f4	0.024287678
25	0xbd404e75	-0.046949822
26	0x3c286bc3	0.010279599
27	0xbb0c8a37	-0.0021444687
28	0x3ca2da03	0.019879347
29	0x3af3730b	0.0018573714
30	0x3c6b7ae0	0.014372557
31	0x3d4aa79c	0.04947625
32	0x3c064414	0.008194942
33	0xbde0aa06	-0.109699294
34	0xbdad8562	-0.084727064
35	0xbd99c7c1	-0.07508803
36	0xbda1dfa3	-0.079039834
37	0x3b912b39	0.0044302014
38	0x3d2cae27	0.042158272
39	0xbd2c83d9	-0.042117927
40	0xbd1fbb12	-0.038996764
41	0x3b82afa8	0.003988225
42	0xbbc1aacb	-0.0059102527
43	0xbd5b8c4c	-0.053600594
44	0xbd56d07d	-0.052444924
45	0xbd2b1718	-0.04177007
46	0xbd2fd28f	-0.042925414
47	0x3d50da5f	0.050989505
48	0x3c3e0f3d	0.011600313
49	0xbb01cc30	-0.0019805543
50	0x3d3847fa	0.044990517
51	0xbb97cd7b	-0.0046326495
52	0x3d7400a3	0.05957092
53	0x3cd84479	0.026399838
54	0xbd57023f	-0.052492376
55	0x3caa7eb3	0.020812368
56	0x3dba00d0	0.09082186
57	0xbd115c77	-0.035488572
58	0xbe15cfd4	-0.14630061
59	0x3be2dec1	0.006923527
60	0xbcfb832f	-0.030702202
61	0xbd3f9784	-0.046775356
62	0xbc8e074c	-0.017337464
63	0xbd25f2a6	-0.04051461
64	0x3d959167	0.07303124
65	0x3dda4505	0.10657696
66	0xbc94ce90	-0.018164903
67	0x3de92474	0.11383906
68	0x3da12926	0.078691766
69	0x3d66b481	0.056324486
70	0xbbc76332	-0.006084823
71	0x3d807fe7	0.062743954
72	0x3d84973e	0.0647416
73	0x3d729a04	0.059228912
74	0x3d32f757	0.043692913
75	0x3cfed48f	0.031107215
76	0x3c27e3cf	0.010247185
77	0x3d289063	0.041153323
78	0x3d55573e	0.052085154
79	0x3c82c5cf	0.015963463
80	0xbb490b54	-0.0030676918
81	0xbc703a0d	-0.014662278
82	0xbcca93fd	-0.02472877
83	0x3c6d6745	0.014489953
84	0xbc793d91	-0.0152124325
85	0x3cdf451a	0.02725463
86	0x3d495d05	0.049160976
87	0xbc971778	-0.018443808
88	0xbc1b335a	-0.009472692
89	0xbb075cf3	-0.0020654767
90	0xbc7282e0	-0.014801711
91	0xbc095d91	-0.008384124
92	0x3cba495c	0.022740059
93	0xbda59ca6	-0.08086519
94	0xbd7eb1b7	-0.0621812
95	0xbd148eaf	-0.036268886
96	0xbc65a431	-0.014016197
97	0x3d5f98f3	0.054589223
98	0x3c0310cb	0.007999609
99	0x3ce4f9f3	0.027951216
100	0xbd91d0bc	-0.07119891
101	0xbcbaf0cb	-0.022819897
102	0xbd4da9a5	-0.050210614
103	0x3c9e5b8c	0.019330762
104	0x3d582133	0.052766036
105	0xbd40ac32	-0.04703922
106	0x3c781497	0.015141628
107	0x3bffba0e	0.007804162
108	0x3d52a007	0.051422145
109	0xbd64af48	-0.055831224
110	0x3cfaa35c	0.030595474
111	0x3d2e2c23	0.04252256
112	0xbd27edd1	-0.040998284
113	0x3cb904fd	0.022585386
114	0xbc061174	-0.008182872
115	0x3c7328fe	0.014841316
116	0xbc5852fd	-0.01320338
117	0xbdd68a4f	-0.10475599
118	0xbb6187d0	-0.0034413226
119	0xbd3dd9f0	-0.04635042
120	0xbd279487	-0.04091313
121	0xbd84e823	-0.06489589
122	0xbd257510	-0.040394843
123	0x3c6dbac7	0.014509863
124	0xbcd3a27b	-0.025834313
125	0xbd89892b	-0.06715616
126	0xbcf0827a	-0.029359091
127	0xbc1b4bf1	-0.009478555
128	0xbda55ae6	-0.08073978
129	0xbd0c7b42	-0.034297235
130	0xbdaee6f4	-0.085401446
131	0xbd969982	-0.07353498
132	0x3c73c7e4	0.014879201
133	0xbce21931	-0.027599903
134	0x3be3001e	0.006927504
135	0x3d17191a	0.036889173
136	0x3d8229a8	0.063556015
137	0x3db7c495	0.08973042
138	0xbd84c11f	-0.064821474
139	0x3c3b976d	0.011449677
140	0xbcd6a999	-0.026203917
141	0xbc602485	-0.013680582
142	0x3ce9d685	0.028544674
143	0xbd6a6a6c	-0.057230398
144	0xbcdc221c	-0.026871733
145	0x3b4c8ad4	0.0031210678
146	0xbc63fd56	-0.01391538
147	0xbcd43e31	-0.025908561
148	0xbce73c58	-0.028227016
149	0x3e0ba539	0.13637246
150	0x3d83dd2e	0.06438671
151	0x3a0e1ca2	0.0005421137
152	0x3d208cae	0.039196663
153	0xb9f8f138	-0.00047481968
154	0xbd5a9b0f	-0.05337053
155	0x3de325d6	0.11091201
156	0x3d847922	0.06468417
157	0xbd1aef70	-0.037826
158	0x3d6b9441	0.057514433
159	0xbd6d3663	-0.057913195
160	0x3d7d8c49	0.061901364
161	0x3db51038	0.08840984
162	0xbd5aeab1	-0.053446475
163	0x3d2d4e40	0.042310953
164	0x3d8e168e	0.06937896
165	0xbd3a6fd4	-0.045516804
166	0x3c8fde65	0.0175621
167	0xbd884dca	-0.06655462
168	0xbcd23f83	-0.02566505
169	0x3c146be0	0.0090589225
170	0x3ca16c8e	0.019705083
171	0x3d1eafeb	0.038741987
172	0x3d2b0aed	0.041758467
173	0xbc9ce21a	-0.019150782
174	0xbdae8c75	-0.08522884
175	0x3b9ea029	0.00484087
176	0xbd9da33b	-0.07697149
177	0x3dc09266	0.09402923
178	0x3dbf0472	0.0932702
179	0x3db722ea	0.08942206
180	0xbc9d70b1	-0.019218775
181	0x3d873d6c	0.06603512
182	0x3e09b551	0.13448073
183	0x3cf4c629	0.029879646
184	0x3da12009	0.07867438
185	0x3db34a9d	0.08754466
186	0x3d0981eb	0.033571165
187	0x3e1308e2	0.14358857
188	0xbbc5e078	-0.0060387217
189	0x3c8b3ae2	0.016995851
190	0x3c629d87	0.013831503
191	0x3dc3c8e6	0.09559803
192	0x3d9789b5	0.073993124
193	0x3d4c7996	0.04992064
194	0x3b935d77	0.004497226
195	0xbce1ded0	-0.027572066
196	0x3c422994	0.011850733
197	0xbcd67da8	-0.026182964
198	0x3d08c4a9	0.033390675
199	0xbd8e7609	-0.06956107
200	0xbdbc47fd	-0.09193418
201	0xbcd05a96	-0.02543382
202	0xbdc2344f	-0.09482633
203	0x3d15f0c3	0.03660656
204	0x3caf4bc1	0.021398427
205	0xbd91506f	-0.070954196
206	0xbd215e67	-0.03939667
207	0xbd0003e3	-0.031253707
208	0x3bbe887f	0.0058146114
209	0x3dbec823	0.09315517
210	0x3d0287c0	0.031867743
211	0x3cfdd0fc	0.03098344
212	0x3c9ddc35	0.019270042
213	0x3d5aeb5c	0.053447112
214	0x3d6f6857	0.058449116
215	0xbd45cd0e	-0.04829126
216	0x3cee8064	0.029113956
217	0xbd10ac04	-0.035320297
218	0xbd966f30	-0.07345426
219	0xbc3e0e14	-0.011600036
220	0x3bf0e8d3	0.0073519736
221	0xbd796ce9	-0.06089488
222	0xbcc15c79	-0.023603665
223	0x3c927e00	0.017882347
224	0xbd9f75e8	-0.07786161
225	0xbc9aedfc	-0.018912308
226	0xbd9fa162	-0.07794453
227	0xbdcf284b	-0.10115107
228	0x3b246df2	0.0025089947
229	0xbcdd75eb	-0.027033767
230	0xbd09aae1	-0.03361023
231	0xbd76a6c5	-0.060217638
232	0xbd03c555	-0.032170612
233	0xbca27131	-0.019829364
234	0xbc9a3fcf	-0.018829254
235	0xbcb6315b	-0.022240331
236	0x3b8a9e98	0.0042303316
237	0xbd39b5a4	-0.04533924
238	0x3d5c4cf8	0.05378434
239	0xbb4cc5fc	-0.0031245938
240	0xbcd7cb64	-0.026342101
241	0x3b65cd74	0.0035065087
242	0xbd9e9cc9	-0.07744748
243	0xbd5c9545	-0.053853292
244	0xbd0cd44e	-0.034382157
245	0x3d22318e	0.03959804
246	0xbb89ff65	-0.0042113536
247	0x3cbc66e1	0.022998275
248	0xbd3e8a75	-0.04651876
249	0x3d828b68	0.06374246
250	0x3d060b24	0.03272547
251	0x3d072e99	0.033003423
252	0xbdad5cf3	-0.08464994
253	0x3bb1513e	0.005411296
254	0x3d445be6	0.047939204
255	0xbcab97bc	-0.020946376

layers.6.bias f4 [64]
0	0xbc70b50c	-0.014691602
1	0xbdbe2d0b	-0.09285935
2	0xbd4b6b1a	-0.049662687
3	0xbd60e59b	-0.05490647
4	0xbdbbf179	-0.09176917
5	0xbaee9a73	-0.0018203988
6	0xbd8a5604	-0.067546874
7	0x3d0c4c78	0.034252614
8	0x3dc797a6	0.097457215
9	0xbcd0d2fb	-0.025491228
10	0xbd676108	-0.05648902
11	0x3c027fa9	0.007965007
12	0x3e03a448	0.12855637
13	0x3db2428d	0.087041
14	0xbd364bdb	-0.044505935
15	0xbc8a4f4c	-0.016883515
16	0xbd0cb1ee	-0.034349374
17	0xbbaaad8a	-0.0052086757
18	0xbce2dba3	-0.027692622
19	0xbe1367c8	-0.14395058
20	0xbbc463c9	-0.0059933406
21	0x3d3334d6	0.04375156
22	0xbdbb9143	-0.09158566
23	0xbe084a70	-0.13309646
24	0xbbdedd15	-0.0068012574
25	0xbd52c1ce	-0.051454358
26	0xb89587c9	-7.1301656e-05
27	0xbdf9f490	-0.1220485
28	0xbcaca0ff	-0.021072863
29	0xbd2ec4c0	-0.042668104
30	0xbc8c7c8f	-0.017149238
31	0x3c2c74fb	0.010525937
32	0x3cb3766c	0.021907054
33	0xbd95ae79	-0.07308669
34	0xbc859618	-0.016306922
35	0x3df20fe8	0.1181944
36	0x3de0db8d	0.10979376
37	0x3cd0da20	0.025494635
38	0xba98f9c8	-0.001167112
39	0x3d48d1a8	0.04902807
40	0x3e1eaaad	0.15494795
41	0x3d99266d	0.07478032
42	0x3cf4df71	0.029891701
43	0xbc9a532f	-0.018838493
44	0x3dd6a4bf	0.104806416
45	0xbd0cf01f	-0.034408685
46	0xbda6caf7	-0.08144181
47	0x3e159037	0.14605795
48	0xbd4331a4	-0.047654763
49	0x3e2164c5	0.15761097
50	0xbd54cf7d	-0.05195569
51	0x3d55286f	0.052040514
52	0x3d1a613d	0.03769039
53	0xbcf80b13	-0.030278718
54	0xbdc8c7bf	-0.098037235
55	0xbd13bf76	-0.036071263
56	0xbc27ea28	-0.010248698
57	0xbc2ce077	-0.010551563
58	0x3d9b5bbd	0.07585857
59	0x3d8257f6	0.063644335
60	0xbd9e2283	-0.07721426
61	0xbcd035e1	-0.025416316
62	0x3b923626	0.0044620214
63	0x3beb4b87	0.0071806344

layers.8.weight f4 [64, 64, 3, 3]
0	0x3d010cab	0.03150622
1	0x3b634299	0.0034677146
2	0xbd8efd75	-0.06981937
3	0xbd0364b5	-0.032078464
4	0xbd3162bc	-0.04330705
5	0xbd2eaa77	-0.042643037
6	0xbd80d8f8	-0.062913835
7	0xbd8166ee	-0.063184604
8	0xbbaee61c	-0.00533749
9	0x3d026d72	0.031842656
10	0x3d120bd7	0.035655823
11	0x3b05e0fa	0.0020428286
12	0x3b9f2494	0.0048566554
13	0x3cbc135a	0.022958446
14	0x3c7da70d	0.015481723
15	0xbc99db3b	-0.018781295
16	0xbd33cbd8	-0.043895572
17	0xbbfedf0c	-0.007778054
18	0xbcd06862	-0.025440399
19	0xbc352ded	-0.011058313
20	0x3c316d83	0.010829332
21	0xbc85f495	-0.016351977
22	0xbd0f96b6	-0.03505584
23	0xbcfc421b	-0.03079324
24	0xbb885767	-0.00416081
25	0xbd103ec0	-0.035216093
26	0xbc832a49	-0.016011374
27	0xbd40ed63	-0.04710139
28	0xbcc28f78	-0.023750052
29	0xbc83e7fc	-0.01610183
30	0x3b833b66	0.0040048836
31	0xbd078c7e	-0.03309297
32	0xbc801103	-0.015633112
33	0x3c1494f6	0.009068718
34	0xbbca33e1	-0.006170735
35	0xb94286f4	-0.00018551556
36	0x3d6a8768	0.05725804
37	0x3dc6ab1a	0.09700604
38	0x3c4ca27c	0.012489911
39	0x3d16dc33	0.036831092
40	0xbd155f4e	-0.036467843
41	0x3bde47e1	0.006783471
42	0xbdf54e86	-0.11977868
43	0xbd804449	-0.06263024
44	0xbdad2b45	-0.08455519
45	0x3ca2d486	0.01987673
46	0xbcb904b8	-0.022585258
47	0xbc42fc0f	-0.011900916
48	0xbca49ffb	-0.020095816
49	0x3b3a6d2d	0.0028446421
50	0xbd1dd7e8	-0.038535982
51	0x3d0a1168	0.033708006
52	0x3cbba9b0	0.022908062
53	0xbd158e23	-0.036512505
54	0xbbe26013	-0.0069084256
55	0x3ccb9bb7	0.024854524
56	0xbce383ca	-0.027772803
57	0x3cd29f44	0.02571071
58	0x3cf2b929	0.029629307
59	0x3db2dd56	0.08733623
60	0x3d8274f8	0.06369966
61	0xbc9cad0c	-0.019125484
62	0x3c9f0505	0.019411573
63	0xbbf7b01f	-0.007558837
64	0x3d01be4c	0.031675622
65	0xbbc64398	-0.0060505383
66	0xbcdbdc15	-0.026838342
67	0xbc4df399	-0.012570285
68	0x3c56305f	0.013073056
69	0xbb14b8b7	-0.0022693106
70	0xbccb8196	-0.024842065
71	0x3c89e8e3	0.016834682
72	0xbcad7bd4	-0.02117721
73	0xbd999ae7	-0.075002484
74	0xbd34b4ad	-0.04411762
75	0xbcdb23fb	-0.026750555
76	0xbd7e5530	-0.06209296
77	0xbd4db20a	-0.05021862
78	0xbd01cb43	-0.031687986
79	0xbd58d0b4	-0.05293341
80	0x3c98a17b	0.018631687
81	0xbcfff6ca	-0.031245608
82	0x3d421d5b	0.047391277
83	0x390a04e8	0.00013162533
84	0xbd0e21d3	-0.034700226
85	0x3d22f583	0.03978492
86	0x3c6374f7	0.013882867
87	0xbabad7a4	-0.001425494
88	0xbb9a637f	-0.004711568
89	0xbd4350c4	-0.047684446
90	0xbae36d52	-0.0017351306
91	0x3d1ac092	0.037781306
92	0x3c150300	0.009094954
93	0x38583dd2	5.1555988e-05
94	0x3cb632bf	0.022240994
95	0x3ce68db9	0.02814375
96	0x3c160807	0.009157187
97	0x3d3941d3	0.04522879
98	0x3b83d378	0.004023012
99	0x3dca80ed	0.09887872
100	0x3d231bbb	0.039821368
101	0x3d4c00cb	0.049805444
102	0x3d83d08c	0.064362615
103	0xbcd124c3	-0.025530225
104	0x3ca7226a	0.020402152
105	0x3ced7da7	0.02899058
106	0xbceb0f54	-0.028693832
107	0x3cd970a2	0.026542965
108	0xbd323427	-0.043506768
109	0xbd28fd5d	-0.04125725
110	0x3cb98c85	0.022650013
111	0x3beb55c9	0.0071818572
112	0x3c0f7c83	0.008757713
113	0x3d579167	0.0526289
114	0xbbdf22d9	-0.006809574
115	0x3dc11951	0.09428657
116	0xbcbbd539	-0.02292882
117	0xbd8060af	-0.06268441
118	0xbcf209fa	-0.029545773
119	0xb94dc55e	-0.00019623848
120	0xbd192b05	-0.037394542
121	0xbbe9d996	-0.007136534
122	0xbc28dbcc	-0.01030631
123	0xbbdb83bf	-0.006699055
124	0xbcb3267c	-0.021868937
125	0x3c7bf99f	0.0153793385
126	0x3c92c10b	0.017914316
127	0x3be7b591	0.007071205
128	0xbacd74e4	-0.0015675095
129	0x3c8eb058	0.017418072
130	0x3c06153c	0.008183774
131	0xbd50296a	-0.050820746
132	0x3d8491be	0.064731106
133	0xbd20abc0	-0.039226294
134	0xbd815b66	-0.06316261
135	0xbd920286	-0.071293876
136	0xbd3d24aa	-0.046177544
137	0x3c45690d	0.012048972
138	0x390e313a	0.00013560514
139	0xbb93afe0	-0.00450705
140	0x3c96c5fc	0.018404953
141	0xba06dc74	-0.00051445444
142	0x3cb20c87	0.02173449
143	0xbc7e2020	-0.015510589
144	0x3d5a28bc	0.053261504
145	0xbd526d42	-0.051373728
146	0xbc299841	-0.010351242
147	0x3cc5b23f	0.024132846
148	0xbc1f33ad	-0.00971691
149	0x3c3f8ec6	0.011691755
150	0xbcc260cc	-0.023727797
151	0xbd181ed0	-0.03713876
152	0x3cefb86d	0.029262746
153	0x3bd18e69	0.0063951504
154	0xba25011b	-0.0006294415
155	0xbcf0a0cd	-0.02937355
156	0x3cefad1e	0.029257353
157	0x3cf44faa	0.029823143
158	0x3c9fd539	0.019510852
159	0xbc281f97	-0.010261438
160	0x3b2318df	0.002488665
161	0xbc90ffec	-0.017700158
162	0xbbbc2e48	-0.005742822
163	0xbc288c37	-0.010287336
164	0x3c255fbd	0.010093627
165	0xbd0bfa6e	-0.034174375
166	0x3c171c27	0.009223021
167	0x3d2b9ad3	0.0418957
168	0xbd462e2c	-0.048383877
169	0x3d064a9a	0.03278599
170	0x3c881ba7	0.016614748
171	0xbd9ec436	-0.07752268
172	0xbc97c205	-0.018525133
173	0x3ba5614e	0.005047
174	0xbc9f9a51	-0.019482763
175	0x3c9efca2	0.019407574
176	0x3d4b34d5	0.04961093
177	0x3d8d37e1	0.06895424
178	0xbcbdaa99	-0.023152636
179	0xbb3ccbb3	-0.0028807938
180	0xba3b6426	-0.0007148407
181	0xbd383c80	-0.044979572
182	0xbcea7e3a	-0.028624643
183	0xbcc57411	-0.024103196
184	0x3c016527	0.007897652
185	0xbbf98aa6	-0.007615405
186	0xbd4d7247	-0.05015781
187	0x3d943d81	0.072382934
188	0x3d15dc4a	0.036587037
189	0xbce4c05e	-0.02792376
190	0xbb9f2ea7	-0.0048578563
191	0xbc989a2b	-0.0186282
192	0x39308227	0.00016833153
193	0xbd59a830	-0.05313891
194	0x3d1ec7c6	0.038764738
195	0xbcf64caf	-0.030065862
196	0xbd0246b3	-0.031805705
197	0x3cd96d7a	0.02654146
198	0xba431743	-0.0007442126
199	0x3cefe16c	0.029282294
200	0xbcd099bd	-0.025463933
201	0xbcd011f7	-0.025399191
202	0xbcfd457d	-0.030916924
203	0xbd92e801	-0.071731575
204	0x3d21ee40	0.039533854
205	0xbc89c632	-0.01681814
206	0x3d54348e	0.051807933
207	0xbdd21379	-0.1025762
208	0xbd347a6b	-0.04406206
209	0x3d3d1730	0.04616469
210	0x3d8f5ff8	0.070007265
211	0x3d3f5bd4	0.046718433
212	0x3d907138	0.07052845
213	0x3d4bff59	0.049804065
214	0x3d75593f	0.059899565
215	0x3cc80d22	0.024420325
216	0x3d195d08	0.037442237
217	0x3c8c6775	0.017139176
218	0x3beb4d0f	0.007180817
219	0x3d27e564	0.04099025
220	0xbca5bcb6	-0.020231586
221	0xbc3d3486	-0.011548167
222	0x3c0c0ce0	0.0085479915
223	0x39fff0c9	0.0004881679
224	0x3d6659b0	0.056237876
225	0xbb03f955	-0.0020137627
226	0xbca79f87	-0.02046181
227	0xbc331116	-0.010929367
228	0xbd0e1f80	-0.03469801
229	0xbd4d523e	-0.05012726
230	0x3a7761af	0.0009436858
231	0xbb605169	-0.0034228212
232	0xbd05a184	-0.032624736
233	0x3b96dcbb	0.00460395
234	0x3cf122ef	0.029435603
235	0x3d28d985	0.041223068
236	0xbadae04e	-0.0016698928
237	0x3cc0cc3a	0.023534883
238	0x3c4dec6c	0.012568574
239	0xbcd9afd6	-0.026573103
240	0xbd225569	-0.039632235
241	0xbd7a1474	-0.061054662
242	0x3a513778	0.0007980983
243	0x3c980bb4	0.018560268
244	0x3d7f9c0a	0.06240467
245	0xbcce0544	-0.025148995
246	0x3cdf58f1	0.02726409
247	0x3bd88006	0.0066070585
248	0x3ce895c2	0.028391723
249	0xba08f9ea	-0.00052252284
250	0xbc4c710e	-0.012478126
251	0x3c579ca9	0.013159909
252	0x3a8ae670	0.001059724
253	0x3cba05a0	0.02270776
254	0x3b427a90	0.0029675104
255	0xbce3ee19	-0.027823495

layers.8.bias f4 [64]
0	0xbcdd6897	-0.027027411
1	0x3d4da3ba	0.05020497
2	0xbda29b03	-0.079397224
3	0xbda7809c	-0.08178827
4	0xbe003fdb	-0.12524359
5	0xbd92e397	-0.071723156
6	0xbe011672	-0.12606218
7	0xbd771993	-0.060327124
8	0xbd852fe0	-0.06503272
9	0xbe2c747d	-0.16841312
10	0xbdee7d91	-0.11645044
11	0xbd8531cc	-0.065036386
12	0xbdb66213	-0.08905425
13	0xbdb3e4f9	-0.087839074
14	0xbe1fedd1	-0.15618064
15	0xbb6ee1e7	-0.0036450566
16	0x3a69497e	0.0008899196
17	0xbc942fd2	-0.018089209
18	0xbd5034dc	-0.05083166
19	0xbcff0e63	-0.03113479
20	0xbda78ee3	-0.0818155
21	0xbdacf10a	-0.08444412
22	0xbd4e051e	-0.05029785
23	0xbe10f45d	-0.14155717
24	0xbd097dae	-0.033567123
25	0xbce38ccb	-0.027777096
26	0xbd4b4e41	-0.049635176
27	0xbddecf35	-0.10879365
28	0xbdd5b459	-0.10434789
29	0xbe070c6d	-0.13188334
30	0xbcf82f34	-0.030295946
31	0xbe188dd5	-0.14897855
32	0xbd118eb7	-0.035536494
33	0xbd9abe31	-0.075558074
34	0xbda23fc9	-0.07922322
35	0xbcb359aa	-0.021893341
36	0x3b7a6a11	0.0038210193
37	0x3bd36ff3	0.0064525544
38	0xbd659db6	-0.056058608
39	0xbd4dd153	-0.050248455
40	0xbd763039	-0.060104582
41	0xbded7882	-0.11595251
42	0xbaeeda0d	-0.0018222943
43	0xbd2a3e83	-0.041563522
44	0xbcc56efc	-0.024100773
45	0xbe05e393	-0.13075094
46	0xbb50d7c3	-0.0031866885
47	0xbdd39d9c	-0.10332796
48	0xbdb877e3	-0.090072416
49	0xbd25f9ce	-0.040521435
50	0xbd0a4d2a	-0.033764996
51	0xbaa4a860	-0.0012562387
52	0xbde506e9	-0.11182959
53	0xbd3e14f3	-0.046406697
54	0xbd04d79e	-0.03243219
55	0xbc0c4149	-0.008560487
56	0xbd56e860	-0.052467704
57	0xbd90cac1	-0.07069922
58	0xbd600553	-0.054692578
59	0xbd6ef3ac	-0.058337852
60	0xbd6c93ab	-0.057758015
61	0xbbfd9aaf	-0.007739387
62	0x3cacf95f	0.021115003
63	0xbe25e03a	-0.16198817

layers.10.weight f4 [64]
0	0x3f8a387d	1.0798489
1	0x3f8886ab	1.0666097
2	0x3f85149a	1.0396912
3	0x3f8ec6aa	1.1154377
4	0x3f8d6171	1.1045362
5	0x3f8512e0	1.0396385
6	0x3f90af1b	1.1303438
7	0x3f89538e	1.0728624
8	0x3f910c1c	1.133182
9	0x3f90284b	1.1262296
10	0x3f85cde3	1.0453457
11	0x3f878870	1.0588512
12	0x3f8dbe1e	1.1073644
13	0x3f9067ad	1.1281639
14	0x3f90f7cc	1.1325622
15	0x3f85ac8e	1.0443285
16	0x3f811cca	1.0086911
17	0x3f8a78a0	1.0818062
18	0x3f861f53	1.0478309
19	0x3f8274be	1.0191877
20	0x3f87d270	1.0611095
21	0x3f8b64c2	1.0890124
22	0x3f917097	1.1362485
23	0x3f8e79bf	1.1130904
24	0x3f837c29	1.0272266
25	0x3f8c43c1	1.0958177
26	0x3f835eae	1.0263269
27	0x3f8c9ec7	1.0985955
28	0x3f872575	1.0558306
29	0x3f886f5b	1.0658983
30	0x3f8594c2	1.0436022
31	0x3f8834e3	1.064114
32	0x3f8505e8	1.0392427
33	0x3f8b9318	1.0904264
34	0x3f8a1ae0	1.0789452
35	0x3f804849	1.002206
36	0x3f83f590	1.0309315
37	0x3f8474ec	1.0348182
38	0x3f8a2bf2	1.0794661
39	0x3f8a8210	1.0820942
40	0x3f84c628	1.0372972
41	0x3f8d6df4	1.104918
42	0x3f8d7b60	1.1053276
43	0x3f877bb9	1.0584632
44	0x3f8c6fe0	1.0971642
45	0x3f8e7076	1.112807
46	0x3f8c2ddc	1.0951495
47	0x3f8b5e4b	1.0888151
48	0x3f884443	1.0645832
49	0x3f8142db	1.0098528
50	0x3f84297f	1.0325164
51	0x3f91d97c	1.1394496
52	0x3f86c1d6	1.0527904
53	0x3f886836	1.0656803
54	0x3f804ffb	1.0024408
55	0x3f890b83	1.0706638
56	0x3f819412	1.0123312
57	0x3f8738e5	1.0564238
58	0x3f8d8eec	1.1059241
59	0x3f83c295	1.0293757
60	0x3f88e49b	1.0694765
61	0x3f8564ef	1.0421427
62	0x3f899d5d	1.0751148
63	0x3f902f0d	1.1264359

layers.10.bias f4 [64]
0	0xbd2ddb8f	-0.042445716
1	0xbd9811c1	-0.07425261
2	0xbd648a90	-0.055796206
3	0xbc249072	-0.010044204
4	0x3b6bd1a6	0.0035983115
5	0xbc4c9df9	-0.0124888355
6	0x3a40f077	0.0007360051
7	0xbd012c40	-0.03153634
8	0x3cef3d06	0.029203903
9	0xbd5db408	-0.05412677
10	0xbdf0d0d3	-0.1175858
11	0xbdae78f0	-0.08519161
12	0xbd4ae160	-0.04953134
13	0xbdaa1f13	-0.08306708
14	0xbc0c5099	-0.008564138
15	0xbb915afb	-0.0044358945
16	0x3c12bc45	0.00895602
17	0xbcfa15f6	-0.03052805
18	0xbd9506c9	-0.07276685
19	0xbd9b645e	-0.07587503
20	0xbd41b410	-0.04729086
21	0x3b242b8f	0.0025050377
22	0xbd3e2ade	-0.0464276
23	0xbdd317bc	-0.10307261
24	0xbdc9cf03	-0.098539375
25	0xbb085560	-0.002080284
26	0xbd9c80de	-0.07641767
27	0xbb6a2d37	-0.0035732517
28	0x3c88d064	0.01670093
29	0xbd053846	-0.03252437
30	0xbc8f7c6b	-0.017515382
31	0xbda86ec7	-0.08224254
32	0xbd8ee573	-0.06977358
33	0xbd959296	-0.0730335
34	0xbd89814d	-0.06714115
35	0xbd13cafc	-0.036082253
36	0xbcc00b96	-0.023443025
37	0xbd4226c6	-0.04740026
38	0xbd4c5bd8	-0.049892277
39	0xbd88c5da	-0.06678362
40	0xbd8f6c4a	-0.070030764
41	0xbd9fb672	-0.077984706
42	0xbd7fc346	-0.062442087
43	0xbd90cb2c	-0.07070002
44	0xbd016357	-0.03158888
45	0xbd170f78	-0.036879987
46	0xbc2481ec	-0.010040741
47	0xbd233894	-0.03984888
48	0xbc5aa635	-0.013345291
49	0xbc76c440	-0.015061438
50	0xbce7e5d8	-0.02830784
51	0xbbbe1675	-0.005801017
52	0xbd89226e	-0.0669602
53	0xbd19a969	-0.037515078
54	0xbc7ddd1b	-0.01549461
55	0xbc90969e	-0.017649945
56	0xbcd36934	-0.025807
57	0xbcd9fecd	-0.026610756
58	0xbd98126e	-0.0742539
59	0xbcc5434f	-0.024079947
60	0xbc82e7e9	-0.015979724
61	0x3ba67086	0.005079332
62	0x3b977cf4	0.00462305
63	0xbc9e2374	-0.019304015

layers.10.running_mean f4 [64]
0	0x3e616c7b	0.22014038
1	0x3fbb6b56	1.4642131
2	0xbd8c8b99	-0.06862564
3	0x3e8a626d	0.27028218
4	0x3d54a350	0.05191356
5	0xbd16f47b	-0.03685425
6	0xbde36854	-0.111038834
7	0xbd081a58	-0.03322825
8	0x3af9a39a	0.001904595
9	0x3e80fbfb	0.25192246
10	0xbc7d657e	-0.015466092
11	0x3e72b87e	0.2370319
12	0x3e011156	0.1260427
13	0x3e81bb4e	0.25338215
14	0xbcb88a4c	-0.022526883
15	0x3ed35ab2	0.41280133
16	0x3e8b63ef	0.2722468
17	0x3efe9f12	0.49730736
18	0x3e8a73c7	0.27041456
19	0x3ee81f1b	0.45336232
20	0xbd7673ce	-0.060169034
21	0x3e203dfd	0.15648647
22	0xbd8ae8b9	-0.067826696
23	0x3cfa75fd	0.03057384
24	0x3e9a6ea0	0.30162525
25	0x3f1953e0	0.5989361
26	0x3d03d721	0.032187585
27	0x3c5345f8	0.0128951
28	0xbb34d62b	-0.0027593474
29	0x3e3c1ff9	0.18371572
30	0x3ef3aa6e	0.47590965
31	0xbd1b5519	-0.037922952
32	0x3ee62134	0.44947207
33	0xbdd313a8	-0.103064835
34	0xbc8423c6	-0.01613034
35	0x3e3c84d5	0.18410046
36	0x3dd7f3b0	0.105445266
37	0x3eb83028	0.3597424
38	0x3ee0d8e0	0.43915462
39	0x3e498a91	0.19681765
40	0x3aa5123d	0.0012593936
41	0x3d8e9f92	0.06964029
42	0xbd7a073e	-0.061042063
43	0x3e8e05a1	0.2773867
44	0x3de42b08	0.1114102
45	0xbd98365a	-0.07432242
46	0x3f6d2de9	0.9264818
47	0x3db6633f	0.089056484
48	0xbe09a647	-0.13442336
49	0x3f1e97fa	0.6195065
50	0x3e849137	0.2589204
51	0x3d93399c	0.071887225
52	0xbda52a5b	-0.08064719
53	0x3db76187	0.08954149
54	0x3f3a30c5	0.72730666
55	0x3e127bf8	0.14305103
56	0xbd1df05a	-0.038559295
57	0x3e390637	0.18068777
58	0x3ead8d74	0.33896983
59	0x3f12aca7	0.57294697
60	0x3ca48bef	0.020086257
61	0x3c4ccf9c	0.01250067
62	0x3f198afa	0.59977686
63	0x3c51eb46	0.012812441

layers.10.running_var f4 [64]
0	0x3f190568	0.59773874
1	0x3faf2a68	1.3684816
2	0x3e016cf4	0.12639219
3	0x3f44dfc2	0.7690393
4	0x3eb62fc1	0.35583308
5	0x3e363c0e	0.17796347
6	0x3dde7061	0.10861278
7	0x3e264816	0.16238436
8	0x3e6cd7d3	0.23129205
9	0x3f224aa7	0.6339516
10	0x3e4f8ed1	0.20269324
11	0x3e919ea4	0.28441346
12	0x3ec453ba	0.38345128
13	0x3f0abdd9	0.54195935
14	0x3e9247d4	0.28570426
15	0x3f8307fe	1.0236814
16	0x3ed93c2f	0.4242873
17	0x3f75592a	0.9583918
18	0x3f198cac	0.59980273
19	0x3f4b70ed	0.79469186
20	0x3e46ab8a	0.19401374
21	0x3f2d4693	0.6768581
22	0x3e050096	0.12988505
23	0x3e8252d0	0.25453806
24	0x3f18a672	0.59628975
25	0x3f6c9d4c	0.92427516
26	0x3e6c283f	0.23062228
27	0x3e70f7d2	0.23532036
28	0x3e803cb7	0.25046322
29	0x3f048d35	0.51777965
30	0x3f4d4658	0.8018546
31	0x3e8401e1	0.25782683
32	0x3f1247e2	0.57140934
33	0x3db43fb6	0.088012144
34	0x3e2942bb	0.16529362
35	0x3ef50ade	0.47859854
36	0x3eaf8245	0.34279075
37	0x3f3419af	0.7035169
38	0x3f46ac65	0.77606803
39	0x3f071005	0.5275882
40	0x3e61357f	0.21993063
41	0x3eb839b5	0.35981527
42	0x3e3fc125	0.18726023
43	0x3f10cb60	0.56560326
44	0x3e951fd5	0.29125848
45	0x3e537f7c	0.206541
46	0x3f9b8b32	1.2151854
47	0x3edbd91e	0.42939085
48	0x3d894957	0.067034416
49	0x3faf53ed	1.3697487
50	0x3f6583d8	0.896543
51	0x3ebae351	0.36501554
52	0x3e210d2f	0.15727685
53	0x3e9062f2	0.2820049
54	0x3f55914a	0.8342482
55	0x3f06243b	0.52399033
56	0x3e3df8f9	0.18552007
57	0x3f1a1777	0.60192055
58	0x3f39b286	0.7253803
59	0x3fc93f08	1.5722361
60	0x3e742a27	0.23844205
61	0x3edc9f16	0.43090123
62	0x3f7e030e	0.9922341
63	0x3e99e455	0.30057016

layers.13.weight f4 [10, 576]
0	0x3c8505b6	0.016238075
1	0x3d3baafe	0.045817368
2	0x3c56b916	0.013105651
3	0x3a1c7e14	0.0005969715
4	0xbca6062b	-0.020266613
5	0xbd5f39a8	-0.054498345
6	0x3cdd2e1e	0.02699953
7	0xbd48da9c	-0.049036607
8	0xbc654136	-0.013992598
9	0xbcd4e6fa	-0.025989044
10	0xbd61f5dc	-0.05516611
11	0x3c00798c	0.007841479
12	0xbd3d8ff4	-0.046279863
13	0xbd023b47	-0.031794813
14	0x3ccab362	0.02474374
15	0xbbb8bfac	-0.0056380834
16	0x3cc5869a	0.024112035
17	0x3c95c825	0.018283913
18	0xbd9c80bb	-0.07641741
19	0x3c035af6	0.008017292
20	0xbc56ff9f	-0.013122468
21	0x3aa34cca	0.0012458798
22	0xbd16c36d	-0.036807466
23	0xbc4bb37c	-0.012432929
24	0x3c47ec6f	0.012202366
25	0xbda7d1d2	-0.08194317
26	0xbdaf1a37	-0.08549922
27	0x3ca3fc13	0.02001766
28	0x3ca878e5	0.02056546
29	0x3dc64d59	0.09682722
30	0xbcdc6b47	-0.026906623
31	0xb995d596	-0.0002857863
32	0x3d662566	0.05618801
33	0xbbec7906	-0.0072165756
34	0xbc7fa7e5	-0.015603994
35	0x3c654e2c	0.013995688
36	0xbd34f399	-0.044177625
37	0xbd2f9e9f	-0.042875882
38	0xbcbc44fb	-0.022982111
39	0x3d2ecf54	0.042678192
40	0x3c827c59	0.015928434
41	0xbcc48636	-0.023989778
42	0x3c6e78a6	0.014555132
43	0xbd015fa3	-0.031585347
44	0x3c87b919	0.016567754
45	0xbd3f0389	-0.04663423
46	0x3c899237	0.016793353
47	0x3db5b0c2	0.088716045
48	0xbd7ec682	-0.06220103
49	0x3c8f51d5	0.017495075
50	0xbc9801dd	-0.018555576
51	0xbccf200d	-0.025283838
52	0x3c9bbdd9	0.019011425
53	0xbc725959	-0.01479181
54	0x3ad1e0ca	0.0016012427
55	0xbc1c2c6e	-0.009532077
56	0x3b04f1b9	0.002028568
57	0xbd662ff4	-0.056198075
58	0xbab2d709	-0.0013644408
59	0xbcb39eaa	-0.021926243
60	0xbd594301	-0.053042416
61	0x3c4c6990	0.01247634
62	0x39f548cf	0.00046784288
63	0xbd664b1e	-0.05622398
64	0xbc79fef7	-0.015258542
65	0xbd428c88	-0.047497302
66	0xbd87478a	-0.06605442
67	0x3ca12be1	0.019674243
68	0xbc0b87d6	-0.0085162725
69	0xbd9cd27a	-0.07657333
70	0x3d4fbb26	0.050715588
71	0xbc5d98ad	-0.01352517
72	0x3d372ea3	0.04472221
73	0x3cb22b89	0.021749275
74	0x3c98cb41	0.018651607
75	0x3c27a7ad	0.010232848
76	0xbd1825e2	-0.037145503
77	0x3d57fa8c	0.052729174
78	0x3d72ab9e	0.0592457
79	0x3d3d31ea	0.04619018
80	0x3dbd4e40	0.09243441
81	0xbc1a5874	-0.009420503
82	0xbaa0d2cb	-0.0012269852
83	0xbb83fc5f	-0.0040278877
84	0xbc5b3607	-0.01337958
85	0xbc4ed539	-0.012624078
86	0x3cbe1c53	0.023206865
87	0x3d108cd2	0.035290547
88	0x3d7720b8	0.060333937
89	0x3c8efa27	0.017453266
90	0x3cbe3075	0.023216465
91	0xbcaa98a6	-0.020824742
92	0xbd2f54c1	-0.042805437
93	0x3cc07a88	0.023495927
94	0xbc91703c	-0.017753713
95	0x3d472c67	0.04862633
96	0xbd1018c3	-0.035179865
97	0x3d9bd457	0.0760886
98	0x3d538d4b	0.05164842
99	0x3cbe6010	0.023239166
100	0xbc03ec0a	-0.008051882
101	0x3ba86a40	0.005139619
102	0xbd3aaea5	-0.04557671
103	0x3d3ed376	0.046588384
104	0xbc539fa3	-0.012916478
105	0x3d8317a0	0.064009905
106	0x3daf6ddf	0.08565878
107	0xbc9f0fe9	-0.019416766
108	0xbce1a4da	-0.027544428
109	0xbae4974d	-0.0017440111
110	0x3cc59837	0.024120433
111	0x3dc1c1de	0.09460805
112	0x3d1ea2ac	0.038729355
113	0x3bcc6a24	0.006238239
114	0x3e242a4c	0.1603176
115	0x3bf28026	0.0074005304
116	0x3b9f3e98	0.0048597567
117	0xba89c008	-0.00105095
118	0xbd9c978e	-0.07646094
119	0x3d480b00	0.048838615
120	0xbdb822d9	-0.08991022
121	0x3b79f22d	0.0038138733
122	0x3d7569cc	0.05991535
123	0xbc3769b3	-0.011194634
124	0x3c9399e6	0.01801772
125	0x3d5b81c6	0.05359056
126	0x3d98cf41	0.074614055
127	0x3cead116	0.028664153
128	0xbd2b2b73	-0.041789483
129	0x3d969355	0.0735232
130	0x3cc13bd2	0.023588095
131	0x3d8fa4c8	0.070138514
132	0x3d32952b	0.04359929
133	0xbc87cb6f	-0.016576497
134	0x3e09838d	0.13429089
135	0xbcd62981	-0.026142837
136	0xbd5bb9e5	-0.05364408
137	0xbbc8d7bf	-0.0061292346
138	0xbd53c7e2	-0.051704295
139	0xbd88593a	-0.066576436
140	0xbca8c3f8	-0.020601258
141	0x3ac250ed	0.0014825143
142	0x3cd22e3a	0.025656808
143	0x3b7483fc	0.0037310114
144	0xbd8be047	-0.06829887
145	0xbcb395e4	-0.02192206
146	0x3d5e2077	0.05423018
147	0x3bcec839	0.0063104895
148	0x3ce9a952	0.028523121
149	0x3d744ab5	0.05964156
150	0xbcca1648	-0.024668828
151	0x3b7f13a2	0.0038921614
152	0x3d1a0844	0.03760554
153	0x3d44616d	0.047944475
154	0x3d51ddff	0.051237103
155	0xbb730076	-0.0037079132
156	0x3cde118d	0.027107978
157	0xbda331f5	-0.07968513
158	0xbd3a3812	-0.04546363
159	0xbc9b0b80	-0.018926382
160	0xbdb140cd	-0.08654938
161	0xbd4427b0	-0.04788941
162	0x3cd37768	0.025813773
163	0xbc7f1126	-0.015568053
164	0xbd43bd4a	-0.047787942
165	0x3d0d8438	0.03454992
166	0xbc9eb291	-0.019372256
167	0xbd38c901	-0.045113567
168	0x3d152099	0.03640804
169	0x3d94cde9	0.07265837
170	0x3de0d05a	0.1097724
171	0x3b9a3d9b	0.004707051
172	0xbc0de2d3	-0.008660036
173	0xbd9db59a	-0.077006534
174	0xbc8a4a6e	-0.016881194
175	0xbd668c4a	-0.056286134
176	0xbcd2727f	-0.025689362
177	0xbb80480e	-0.0039148396
178	0xbbd61933	-0.0065337657
179	0x3b06e18f	0.002058122
180	0x3c8a32f8	0.016870007
181	0x3d3590f7	0.044327702
182	0xbc9cb1b2	-0.0191277
183	0x3daf4127	0.08557349
184	0xbc1c3e80	-0.009536386
185	0xbdacfe4d	-0.084469415
186	0x3ce0b717	0.027431054
187	0xbcf63bb8	-0.030057773
188	0xbd25c738	-0.040473193
189	0x3d91e774	0.07124224
190	0xbcf08c49	-0.029363768
191	0xbaded47e	-0.0017000583
192	0x3d81c11f	0.06335663
193	0x3b28351d	0.0025666424
194	0x3cb15182	0.021645311
195	0xbba29aea	-0.004962315
196	0xbae5ccf2	-0.0017532392
197	0xbcee93c3	-0.029123193
198	0x3c34ea0e	0.011042131
199	0x3c0ab93d	0.008467016
200	0xbc8a373e	-0.016872045
201	0xbd1d7900	-0.038445473
202	0xbbb5d4a5	-0.005549031
203	0x3d151c16	0.036403738
204	0xbd47dca2	-0.048794396
205	0xbd1b0985	-0.037850875
206	0xbd66c573	-0.056340646
207	0xbcdc23e4	-0.026872583
208	0xbd8081c4	-0.06274751
209	0x3bd3b64b	0.00646094
210	0x3c6355d5	0.013875444
211	0x3d43d5c4	0.047811285
212	0x3d0d6446	0.034519456
213	0x3c927f10	0.017882854
214	0xbcff68f2	-0.031177972
215	0xbaacf366	-0.0013195097
216	0xbd4933bb	-0.0491216
217	0xbd43484b	-0.047676366
218	0xbce3e389	-0.027818458
219	0xbdbd6311	-0.09247411
220	0xbd89fccf	-0.067376725
221	0x3ccdc099	0.025116252
222	0xbd11c8e9	-0.035591993
223	0xbc4b35c7	-0.012402958
224	0xbd3a5598	-0.045491785
225	0x3ca04e3e	0.019568559
226	0x3c69e973	0.01427685
227	0xbd1cbe12	-0.038267203
228	0x3d26c811	0.040718142
229	0xbcc58bc8	-0.024114504
230	0xbd9dc335	-0.077032484
231	0xbc678773	-0.014131415
232	0xbbbbb428	-0.0057282634
233	0x3b8b17de	0.0042447885
234	0xbcbb56de	-0.02286857
235	0xbc01e578	-0.007928245
236	0xbc0db768	-0.0086496845
237	0xbcd2cd05	-0.025732527
238	0xbcf89e14	-0.030348815
239	0x3da447ff	0.08021545
240	0xbd69b406	-0.05705645
241	0x3d2f20e1	0.042755965
242	0x3e07012e	0.13184044
243	0xbd39a654	-0.04532464
244	0xbb67b92d	-0.0035358176
245	0x3cbda91a	0.023151923
246	0x3d61fbd7	0.055171814
247	0x3ca8a967	0.02058859
248	0xbd122695	-0.035681326
249	0x3d93aeff	0.07211112
250	0xbd11bf09	-0.035582576
251	0xbce6b124	-0.02816064
252	0x3cd6d52f	0.0262247
253	0x3d8e5677	0.069500856
254	0x3c688aed	0.014193279
255	0x3d82fe58	0.063961685

layers.13.bias f4 [10]
0	0x3e07e6df	0.13271664
1	0x3d7c2f46	0.06156852
2	0x3db70a61	0.089375265
3	0xbdc29940	-0.09501886
4	0xbe57eaa6	-0.21085605
5	0x3cdbc6a1	0.026828112
6	0x3bb0608c	0.005382603
7	0xbdd0b840	-0.10191393
8	0x3e79bf5e	0.24389407
9	0xbd9ac472	-0.07557
